1.tflite (tflite, 14960 bytes, 2 tensors)

sequential_3/dense_6/MatMul i1 [1000, 8] scale=0.00092095643 zero_point=0
-0.016577216 0.050652605 -0.07459747 0.011972434 -0.04144304 -0.034996346 -0.0073676514 -0.050652605
0.0027628692 -0.06722982 -0.06815077 -0.0027628692 -0.039601125 -0.07643938 0.039601125 -0.021181999
0.049731646 -0.0055257385 0.06630886 0.028549649 -0.043284953 0.029470606 -0.034075387 0.06722982
-0.015656259 0.028549649 -0.06630886 0.047889736 -0.044205908 0.011972434 -0.036838256 -0.042363998
-0.05157356 -0.023944868 0.009209564 0.044205908 -0.028549649 0.036838256 0.020261042 -0.040522084
0.016577216 -0.050652605 -0.053415474 -0.058020256 0.006446695 0.0073676514 -0.0359173 0.016577216
0.03868017 -0.08288608 -0.016577216 -0.006446695 -0.053415474 0.056178343 -0.011051477 0.02578678
0.0930166 0.01289339 0.042363998 -0.011972434 0.020261042 -0.046968777 -0.028549649 -0.06907173
-0.020261042 0.0027628692 0.02302391 0.021181999 -0.042363998 -0.029470606 -0.0036838257 -0.01289339
-0.052494515 0.016577216 -0.029470606 0.039601125 0.037759215 0.011051477 0.008288608 -0.05894121
0.023944868 0.050652605 -0.07920225 -0.042363998 -0.057099298 -0.07091364 -0.089332774 0.008288608
0.06815077 -0.07091364 0.06722982 -0.013814347 -0.017498173 -0.031312518 -0.08104417 0.06446695
-0.06722982 -0.020261042 0.04881069 -0.004604782 0.040522084 -0.017498173 -0.034996346 -0.045126867
0.004604782 0.03868017 -0.044205908 -0.00092095643 -0.00092095643 0.034996346 0.043284953 0.009209564
0.044205908 0.04881069 -0.009209564 0.052494515 -0.06722982 0.06446695 0.088411815 -0.062625036
-0.058020256 -0.052494515 -0.0055257385 -0.004604782 -0.06630886 0.010130521 -0.052494515 -0.04881069
0.036838256 -0.06815077 -0.07367651 -0.06630886 0.060783125 0.011051477 0.057099298 0.014735303
-0.028549649 0.046968777 -0.07920225 0.052494515 -0.06446695 -0.02302391 -0.062625036 -0.05894121
0.07551843 -0.009209564 -0.056178343 -0.04144304 0.04604782 0.0718346 0.028549649 0.006446695
0.043284953 0.06815077 -0.06722982 -0.056178343 0.062625036 -0.07920225 -0.032233477 0.056178343
0.008288608 0.032233477 -0.02302391 0.06815077 0.037759215 -0.05894121 0.06999269 0.07091364
-0.0036838257 0.053415474 -0.06446695 0.004604782 -0.039601125 0.01289339 0.05157356 0.016577216
0.029470606 -0.049731646 -0.060783125 -0.057099298 -0.014735303 0.049731646 0.06446695 -0.03315443
0.019340085 -0.04604782 -0.07091364 -0.024865823 0.009209564 0.065387905 0.07551843 -0.04604782
0.024865823 0.07459747 0.034996346 -0.042363998 0.06907173 0.020261042 0.04604782 0.0073676514
-0.018419128 -0.02302391 0.05157356 0.06170408 0.0018419129 0.009209564 -0.10130521 -0.07367651
0.02302391 -0.02302391 0.065387905 -0.059862167 -0.018419128 0.06630886 0.026707737 0.014735303
-0.06170408 0.06722982 0.029470606 0.0055257385 0.02302391 0.07275556 0.049731646 -0.06630886
-0.05157356 -0.046968777 -0.022102954 -0.024865823 -0.015656259 0.018419128 -0.05433643 0.0359173
-0.08196512 0.017498173 -0.04881069 0.052494515 -0.019340085 0.05894121 -0.020261042 -0.08012321
0.036838256 0.010130521 -0.057099298 -0.02302391 -0.013814347 -0.034996346 0.057099298 0.053415474
0.0036838257 -0.07736034 -0.00092095643 -0.09209564 0.063545994 0.0055257385 -0.018419128 -0.09854234
00000000: ee37 af0d d3da f8c9 03b7 b6fd d5ad 2be9
00000010: 36fa 481f d120 db49 ef1f b834 d00d d8d2
00000020: c8e6 0a30 e128 16d4 12c9 c6c1 0708 d912
00000030: 2aa6 eef9 c63d f41c 650e 2ef3 16cd e1b5
00000040: ea03 1917 d2e0 fcf2 c712 e02b 290c 09c0
00000050: 1a37 aad2 c2b3 9f09 4ab3 49f1 edde a846
00000060: b7ea 35fb 2ced dacf 052a d0ff ff26 2f0a
00000070: 3035 f639 b746 60bc c1c7 fafb b80b c7cb
00000080: 28b6 b0b8 420c 3e10 e133 aa39 bae7 bcc0
00000090: 52f6 c3d3 324e 1f07 2f4a b7c3 44aa dd3d
000000a0: 0923 e74a 29c0 4c4d fc3a ba05 d50e 3812
000000b0: 20ca bec2 f036 46dc 15ce b3e5 0a47 52ce
000000c0: 1b51 26d2 4b16 3208 ece7 3843 020a 92b0
000000d0: 19e7 47bf ec48 1d10 bd49 2006 194f 36b8
000000e0: c8cd e8e5 ef14 c527 a713 cb39 eb40 eaa9
000000f0: 280b c2e7 f1da 3e3a 04ac ff9c 4506 ec95

sequential_3/dense_7/MatMul i1 [1, 1000] scale=0.0007888425 zero_point=0
0.0631074 0.07651772 0.019721063 0.061529715 0.0 0.068629295 0.0055218977 0.040230967
0.0007888425 0.00946611 -0.00631074 -0.0070995823 -0.04733055 0.001577685 0.05443013 0.021298748
-0.03470907 0.039442126 0.07099582 -0.07178467 0.029976016 -0.04101981 0.029976016 -0.029187173
0.07178467 -0.04101981 0.017354535 -0.068629295 -0.041808654 0.038653284 -0.056007817 -0.03549791
-0.010254952 -0.021298748 -0.02524296 0.020509904 0.04969708 0.019721063 -0.018143378 0.029187173
0.037075598 0.032342542 0.06705161 0.04733055 0.038653284 0.03470907 -0.036286756 0.039442126
0.055218976 -0.00315537 -0.0007888425 -0.03549791 0.03392023 -0.024454117 -0.0086772675 -0.013410322
0.06626277 -0.03786444 0.029976016 0.01262148 0.0 0.011832638 0.0055218977 -0.030764857
0.05443013 -0.014199165 -0.013410322 0.04733055 0.010254952 -0.02208759 0.019721063 -0.022876432
-0.045752864 0.022876432 0.07099582 -0.03786444 0.07336235 -0.0023665274 -0.0023665274 0.0055218977
-0.029187173 -0.027609488 -0.05364129 -0.070206985 -0.021298748 -0.048119392 0.048119392 -0.02524296
-0.044964023 -0.00631074 -0.061529715 0.03549791 0.07099582 0.0055218977 -0.040230967 0.070206985
0.0007888425 0.061529715 0.032342542 -0.03786444 -0.02839833 -0.030764857 0.0086772675 0.04654171
-0.02524296 0.011832638 -0.044964023 0.0070995823 -0.05127476 -0.036286756 0.062318556 -0.064685084
0.068629295 -0.00946611 -0.016565692 0.027609488 0.05995203 0.03786444 -0.01262148 -0.04101981
-0.03392023 -0.04654171 0.019721063 0.007888425 -0.048908234 -0.0007888425 -0.04417518 -0.03470907
0.0039442126 0.070206985 0.010254952 -0.05364129 0.059163187 -0.026820645 -0.041808654 0.038653284
0.0039442126 -0.063896246 0.044964023 0.0 0.048119392 -0.01262148 0.03549791 -0.0055218977
-0.057585504 -0.004733055 -0.0007888425 0.0 0.0023665274 -0.05127476 -0.001577685 0.037075598
0.02524296 0.05679666 0.040230967 0.014199165 0.039442126 0.032342542 0.0070995823 0.0315537
-0.011043795 0.03392023 0.029976016 0.0039442126 -0.001577685 0.036286756 0.04654171 -0.03470907
0.05364129 -0.00315537 -0.048119392 -0.029976016 -0.030764857 -0.038653284 -0.059163187 0.0086772675
0.018143378 0.03549791 0.056007817 -0.02208759 -0.05364129 0.04101981 0.02839833 -0.013410322
-0.030764857 0.02839833 -0.07257351 0.06626277 -0.016565692 0.027609488 0.029976016 0.00631074
0.03549791 0.058374345 0.05127476 -0.0055218977 -0.0070995823 0.016565692 0.0055218977 -0.016565692
-0.040230967 -0.04969708 0.057585504 0.07336235 0.02839833 -0.03786444 0.05443013 0.014988008
0.04101981 0.048119392 0.040230967 0.03786444 0.007888425 0.045752864 0.029187173 0.043386336
0.064685084 0.064685084 0.01577685 0.04969708 -0.07099582 0.011832638 -0.033131383 0.029976016
0.00315537 -0.05679666 0.00315537 -0.011832638 -0.0315537 0.048119392 -0.048908234 0.040230967
-0.060740873 -0.016565692 0.055218976 -0.022876432 0.004733055 -0.07257351 0.0315537 0.018143378
-0.01893222 0.056007817 -0.019721063 0.06784046 -0.044964023 -0.0055218977 -0.06547393 -0.045752864
-0.029187173 -0.06547393 -0.029187173 -0.00315537 0.042597495 0.001577685 0.07257351 0.052852448
00000000: 5061 194e 0057 0733 010c f8f7 c402 451b
00000010: d432 5aa5 26cc 26db 5bcc 16a9 cb31 b9d3
00000020: f3e5 e01a 3f19 e925 2f29 553c 312c d232
00000030: 46fc ffd3 2be1 f5ef 54d0 2610 000f 07d9
00000040: 45ee ef3c 0de4 19e3 c61d 5ad0 5dfd fd07
00000050: dbdd bca7 e5c3 3de0 c7f8 b22d 5a07 cd59
00000060: 014e 29d0 dcd9 0b3b e00f c709 bfd2 4fae
00000070: 57f4 eb23 4c30 f0cc d5c5 190a c2ff c8d4
00000080: 0559 0dbc 4bde cb31 05af 3900 3df0 2df9
00000090: b7fa ff00 03bf fe2f 2048 3312 3229 0928
000000a0: f22b 2605 fe2e 3bd4 44fc c3da d9cf b50b
000000b0: 172d 47e4 bc34 24ef d924 a454 eb23 2608
000000c0: 2d4a 41f9 f715 07eb cdc1 495d 24d0 4513
000000d0: 343d 3330 0a3a 2537 5252 143f a60f d626
000000e0: 04b8 04f1 d83d c233 b3eb 46e3 06a4 2817
000000f0: e847 e756 c7f9 adc6 dbad dbfc 3602 5c43
