2.tflite (tflite, 104984 bytes, 2 tensors)

sequential_6/dense_12/MatMul i1 [7924, 8] scale=0.0005223811 zero_point=0
00000000: 1cc7 d3d1 06d2 f308 00fb ded5 07d6 1fda
00000010: bdff e5cf d1d5 ff09 e9dd f208 e4e9 eb19
00000020: d806 d2c7 10ea 1fd0 e128 d3e3 fd00 dcea
00000030: f3cf b5ce 0f11 c41b 1c2a e3fb 12dc f30f
00000040: edd9 f800 e4f2 2cf8 e103 f728 d7d3 fe0a
00000050: 2cc5 0b24 ef0e 2426 ff09 e2d7 0511 defc
00000060: b110 0b01 f5df 0ecb 2020 d605 c415 00ce
00000070: db0e e4cc 0ac7 d107 162d 1ffb f8dc d2dc
00000080: 01e7 00d6 0f1b 122b c42d f5d5 f9f5 c312
00000090: d8ea d611 d322 2beb 2fdd 190b 17c9 e9cd
000000a0: c8c5 dd05 120e 0ef6 d21a 02eb 1a04 fc27
000000b0: e50a 1118 d120 3acf def5 0aed 0213 d101
000000c0: e106 eb22 f908 12e0 1df4 14d0 0e13 cefa
000000d0: b510 db0e 0908 b0db e90b c9f2 2b15 34da
000000e0: daff 342b 28db 04fe 19c9 0607 00c3 201c
000000f0: c20d 0108 02d4 d3f5 cd09 ecfd fd00 d5e7
0.014626671 -0.029775722 -0.02350715 -0.024551911 0.0031342865 -0.02402953 -0.006790954 0.004179049
0.0 -0.0026119056 -0.017760957 -0.022462387 0.0036566677 -0.021940006 0.016193815 -0.019850481
-0.034999534 -0.0005223811 -0.01410429 -0.025596675 -0.024551911 -0.022462387 -0.0005223811 0.00470143
-0.012014765 -0.01828334 -0.0073133353 0.004179049 -0.014626671 -0.012014765 -0.010970003 0.013059528
-0.020895245 0.0031342865 -0.02402953 -0.029775722 0.008358098 -0.011492385 0.016193815 -0.025074292
-0.016193815 0.020895245 -0.02350715 -0.015149052 -0.0015671432 0.0 -0.01880572 -0.011492385
-0.006790954 -0.025596675 -0.039178584 -0.026119055 0.007835717 0.008880478 -0.031342868 0.01410429
0.014626671 0.021940006 -0.015149052 -0.0026119056 0.00940286 -0.01880572 -0.006790954 0.007835717
-0.009925241 -0.020372864 -0.004179049 0.0 -0.014626671 -0.0073133353 0.02298477 -0.004179049
-0.016193815 0.0015671432 -0.00470143 0.020895245 -0.021417625 -0.02350715 -0.0010447622 0.005223811
0.02298477 -0.030820485 0.0057461923 0.01880572 -0.008880478 0.0073133353 0.01880572 0.019850481
-0.0005223811 0.00470143 -0.015671434 -0.021417625 0.0026119056 0.008880478 -0.017760957 -0.0020895244
-0.041268107 0.008358098 0.0057461923 0.0005223811 -0.0057461923 -0.017238576 0.0073133353 -0.0276862
0.016716195 0.016716195 -0.021940006 0.0026119056 -0.031342868 0.010970003 0.0 -0.026119055
-0.0193281 0.0073133353 -0.014626671 -0.027163817 0.005223811 -0.029775722 -0.024551911 0.0036566677
0.011492385 0.02350715 0.016193815 -0.0026119056 -0.004179049 -0.01880572 -0.02402953 -0.01880572
0.0005223811 -0.013059528 0.0 -0.021940006 0.007835717 0.01410429 0.00940286 0.022462387
-0.031342868 0.02350715 -0.0057461923 -0.022462387 -0.0036566677 -0.0057461923 -0.031865247 0.00940286
-0.020895245 -0.011492385 -0.021940006 0.008880478 -0.02350715 0.017760957 0.022462387 -0.010970003
0.024551911 -0.01828334 0.013059528 0.0057461923 0.012014765 -0.02873096 -0.012014765 -0.026641436
-0.029253341 -0.030820485 -0.01828334 0.0026119056 0.00940286 0.0073133353 0.0073133353 -0.005223811
-0.02402953 0.013581908 0.0010447622 -0.010970003 0.013581908 0.0020895244 -0.0020895244 0.020372864
-0.01410429 0.005223811 0.008880478 0.012537146 -0.024551911 0.016716195 0.030298105 -0.025596675
-0.017760957 -0.0057461923 0.005223811 -0.009925241 0.0010447622 0.009925241 -0.024551911 0.0005223811
-0.016193815 0.0031342865 -0.010970003 0.017760957 -0.0036566677 0.004179049 0.00940286 -0.016716195
0.015149052 -0.006268573 0.010447622 -0.025074292 0.0073133353 0.009925241 -0.026119055 -0.0031342865
-0.039178584 0.008358098 -0.0193281 0.0073133353 0.00470143 0.004179049 -0.04179049 -0.0193281
-0.012014765 0.0057461923 -0.02873096 -0.0073133353 0.022462387 0.010970003 0.027163817 -0.019850481
-0.019850481 -0.0005223811 0.027163817 0.022462387 0.020895245 -0.0193281 0.0020895244 -0.0010447622
0.013059528 -0.02873096 0.0031342865 0.0036566677 0.0 -0.031865247 0.016716195 0.014626671
-0.03238763 0.006790954 0.0005223811 0.004179049 0.0010447622 -0.02298477 -0.02350715 -0.0057461923
-0.026641436 0.00470143 -0.010447622 -0.0015671432 -0.0015671432 0.0 -0.022462387 -0.013059528

sequential_6/dense_13/MatMul i1 [1, 7924] scale=0.00045507704 zero_point=0
00000000: f5d6 2037 ea0f 13e5 f5fb 1c00 ff1c 02e1
00000010: 0be6 031c 05f3 0e00 0100 e819 dbe7 0001
00000020: ebb1 e436 d709 2929 1606 d103 d4de ed11
00000030: 0ae4 e2ff 05f9 0201 fd01 d500 ed0e f603
00000040: e700 11e3 16fd 1109 0013 ffe4 01fe e4ff
00000050: 0aca 0d3d 0405 fa2a db2a ff0b 3001 fffa
00000060: d506 23fb 20da ed02 e5dd 02f1 1ff4 e2f9
00000070: fccd 0f01 0d27 05f9 fd23 fd48 eff1 0ee9
00000080: ef2e e7d7 d6f0 f9f5 00ed 0be1 e8e4 ee0a
00000090: 1cfe 141e 1bdf 0305 f410 0d08 deee 090b
000000a0: d2e7 e402 e9eb de00 20f8 0aea 0920 ecdc
000000b0: f70b 3701 27fb 0025 d3fb 0208 ff01 c7f7
000000c0: 8110 1801 edf6 0727 ec18 0b0a c6f0 030c
000000d0: c6f6 12f9 fded d724 01f3 1100 0115 eff8
000000e0: 0405 0e00 e3da 1e08 f3e3 12eb 2df0 3c10
000000f0: 2129 0811 e901 ee05 e200 0036 fef3 0221
-0.0050058477 -0.019113235 0.014562465 0.025029236 -0.010011695 0.006826156 0.008646464 -0.01228708
-0.0050058477 -0.0022753852 0.012742157 0.0 -0.00045507704 0.012742157 0.0009101541 -0.014107388
0.0050058477 -0.011832003 0.0013652311 0.012742157 0.0022753852 -0.0059160013 0.0063710785 0.0
0.00045507704 0.0 -0.010921849 0.011376926 -0.01683785 -0.011376926 0.0 0.00045507704
-0.009556618 -0.035951085 -0.012742157 0.02457416 -0.01865816 0.004095693 0.01865816 0.01865816
0.010011695 0.0027304622 -0.02138862 0.0013652311 -0.02002339 -0.015472619 -0.008646464 0.0077363094
0.0045507704 -0.012742157 -0.013652312 -0.00045507704 0.0022753852 -0.0031855393 0.0009101541 0.00045507704
-0.0013652311 0.00045507704 -0.019568313 0.0 -0.008646464 0.0063710785 -0.0045507704 0.0013652311
-0.011376926 0.0 0.0077363094 -0.013197234 0.010011695 -0.0013652311 0.0077363094 0.004095693
0.0 0.008646464 -0.00045507704 -0.012742157 0.00045507704 -0.0009101541 -0.012742157 -0.00045507704
0.0045507704 -0.02457416 0.0059160013 0.0277597 0.0018203082 0.0022753852 -0.0027304622 0.019113235
-0.01683785 0.019113235 -0.00045507704 0.0050058477 0.021843698 0.00045507704 -0.00045507704 -0.0027304622
-0.019568313 0.0027304622 0.015927697 -0.0022753852 0.014562465 -0.017292928 -0.008646464 0.0009101541
-0.01228708 -0.015927697 0.0009101541 -0.006826156 0.014107388 -0.0054609245 -0.013652312 -0.0031855393
-0.0018203082 -0.02320893 0.006826156 0.00045507704 0.0059160013 0.017748004 0.0022753852 -0.0031855393
-0.0013652311 0.015927697 -0.0013652311 0.032765545 -0.0077363094 -0.006826156 0.0063710785 -0.010466772
-0.0077363094 0.020933544 -0.011376926 -0.01865816 -0.019113235 -0.0072812326 -0.0031855393 -0.0050058477
0.0 -0.008646464 0.0050058477 -0.014107388 -0.010921849 -0.012742157 -0.008191386 0.0045507704
0.012742157 -0.0009101541 0.009101541 0.013652312 0.01228708 -0.015017542 0.0013652311 0.0022753852
-0.0054609245 0.0072812326 0.0059160013 0.0036406163 -0.015472619 -0.008191386 0.004095693 0.0050058477
-0.020933544 -0.011376926 -0.012742157 0.0009101541 -0.010466772 -0.009556618 -0.015472619 0.0
0.014562465 -0.0036406163 0.0045507704 -0.010011695 0.004095693 0.014562465 -0.009101541 -0.016382772
-0.004095693 0.0050058477 0.025029236 0.00045507704 0.017748004 -0.0022753852 0.0 0.01683785
-0.020478467 -0.0022753852 0.0009101541 0.0036406163 -0.00045507704 0.00045507704 -0.025939392 -0.004095693
-0.057794783 0.0072812326 0.010921849 0.00045507704 -0.008646464 -0.0045507704 0.0031855393 0.017748004
-0.009101541 0.010921849 0.0050058477 0.0045507704 -0.026394468 -0.0072812326 0.0013652311 0.0054609245
-0.026394468 -0.0045507704 0.008191386 -0.0031855393 -0.0013652311 -0.008646464 -0.01865816 0.016382772
0.00045507704 -0.0059160013 0.0077363094 0.0 0.00045507704 0.009556618 -0.0077363094 -0.0036406163
0.0018203082 0.0022753852 0.0063710785 0.0 -0.013197234 -0.017292928 0.013652312 0.0036406163
-0.0059160013 -0.013197234 0.008191386 -0.009556618 0.020478467 -0.0072812326 0.027304623 0.0072812326
0.015017542 0.01865816 0.0036406163 0.0077363094 -0.010466772 0.00045507704 -0.008191386 0.0022753852
-0.013652312 0.0 0.0 0.02457416 -0.0009101541 -0.0059160013 0.0009101541 0.015017542
