3.tflite (tflite, 104992 bytes, 2 tensors)

sequential_4/dense_8/MatMul i1 [7925, 8] scale=0.0005594496 zero_point=0
0	0xc0	-0.035804775
1	0xf6	-0.005594496
2	0x13	0.010629542
3	0x1f	0.017342938
4	0xd9	-0.021818535
5	0xef	-0.009510643
6	0xe9	-0.012867341
7	0xeb	-0.0117484415
8	0x06	0.0033566975
9	0xd6	-0.023496883
10	0xff	-0.0005594496
11	0xce	-0.02797248
12	0x0d	0.0072728447
13	0x08	0.004475597
14	0x12	0.010070093
15	0xd8	-0.022377985
16	0x18	0.01342679
17	0xca	-0.030210279
18	0xf5	-0.006153946
19	0xfb	-0.002797248
20	0x07	0.003916147
21	0x06	0.0033566975
22	0xe4	-0.015664589
23	0xf5	-0.006153946
24	0xb7	-0.04083982
25	0x1c	0.015664589
26	0xca	-0.030210279
27	0x2b	0.024056332
28	0xe7	-0.01398624
29	0x00	0.0
30	0x00	0.0
31	0xb5	-0.04195872
32	0x29	0.022937434
33	0xe8	-0.01342679
34	0x15	0.0117484415
35	0xd1	-0.02629413
36	0xee	-0.010070093
37	0xf6	-0.005594496
38	0xd4	-0.024615783
39	0xea	-0.012307892
40	0x0b	0.006153946
41	0xc3	-0.034126427
42	0xd2	-0.025734682
43	0xfe	-0.0011188992
44	0x10	0.008951194
45	0x1f	0.017342938
46	0x25	0.020699635
47	0xf8	-0.004475597
48	0x1b	0.015105139
49	0xf8	-0.004475597
50	0xfb	-0.002797248
51	0xf7	-0.0050350465
52	0xff	-0.0005594496
53	0xf5	-0.006153946
54	0x0a	0.005594496
55	0xc6	-0.032448076
56	0xf2	-0.007832294
57	0xfc	-0.0022377984
58	0xe5	-0.015105139
59	0x0e	0.007832294
60	0x20	0.017902387
61	0x09	0.0050350465
62	0x07	0.003916147
63	0xd9	-0.021818535
64	0x02	0.0011188992
65	0xec	-0.011188992
66	0xc7	-0.031888627
67	0xdc	-0.020140186
68	0xe3	-0.016224038
69	0x11	0.009510643
70	0x0c	0.006713395
71	0x3e	0.034685876
72	0x28	0.022377985
73	0x0f	0.008391744
74	0xe2	-0.016783489
75	0x13	0.010629542
76	0x0d	0.0072728447
77	0x09	0.0050350465
78	0xda	-0.021259084
79	0xc9	-0.030769728
80	0xca	-0.030210279
81	0xde	-0.019021286
82	0x32	0.02797248
83	0x24	0.020140186
84	0x0d	0.0072728447
85	0xf2	-0.007832294
86	0x09	0.0050350465
87	0xfe	-0.0011188992
88	0xf5	-0.006153946
89	0xdd	-0.019580737
90	0xf6	-0.005594496
91	0xe1	-0.017342938
92	0xd2	-0.025734682
93	0x0c	0.006713395
94	0xf3	-0.0072728447
95	0xf7	-0.0050350465
96	0xdd	-0.019580737
97	0xf6	-0.005594496
98	0x11	0.009510643
99	0xfc	-0.0022377984
100	0xe0	-0.017902387
101	0xfd	-0.0016783488
102	0x1c	0.015664589
103	0x03	0.0016783488
104	0x14	0.011188992
105	0xef	-0.009510643
106	0xef	-0.009510643
107	0xd5	-0.024056332
108	0x07	0.003916147
109	0xf4	-0.006713395
110	0xfc	-0.0022377984
111	0xf0	-0.008951194
112	0xde	-0.019021286
113	0x15	0.0117484415
114	0x1b	0.015105139
115	0x11	0.009510643
116	0x08	0.004475597
117	0xf7	-0.0050350465
118	0xd4	-0.024615783
119	0xf7	-0.0050350465
120	0x00	0.0
121	0x14	0.011188992
122	0x08	0.004475597
123	0x12	0.010070093
124	0xf4	-0.006713395
125	0x23	0.019580737
126	0xe7	-0.01398624
127	0xe4	-0.015664589
128	0x05	0.002797248
129	0x12	0.010070093
130	0x02	0.0011188992
131	0x1a	0.014545689
132	0x1e	0.016783489
133	0x0b	0.006153946
134	0x08	0.004475597
135	0xef	-0.009510643
136	0xfc	-0.0022377984
137	0xe1	-0.017342938
138	0x09	0.0050350465
139	0xe1	-0.017342938
140	0xd5	-0.024056332
141	0xe8	-0.01342679
142	0xd7	-0.022937434
143	0xe7	-0.01398624
144	0xd8	-0.022377985
145	0xe0	-0.017902387
146	0x25	0.020699635
147	0xd4	-0.024615783
148	0xf3	-0.0072728447
149	0x12	0.010070093
150	0xdc	-0.020140186
151	0xd7	-0.022937434
152	0x3e	0.034685876
153	0x1a	0.014545689
154	0xf9	-0.003916147
155	0xf2	-0.007832294
156	0xfc	-0.0022377984
157	0x11	0.009510643
158	0xe9	-0.012867341
159	0x0b	0.006153946
160	0x2a	0.023496883
161	0x0d	0.0072728447
162	0x0e	0.007832294
163	0x14	0.011188992
164	0x0a	0.005594496
165	0xef	-0.009510643
166	0x44	0.03804257
167	0xf8	-0.004475597
168	0xd3	-0.025175232
169	0xe7	-0.01398624
170	0xe2	-0.016783489
171	0xef	-0.009510643
172	0x02	0.0011188992
173	0x1c	0.015664589
174	0xc6	-0.032448076
175	0x0f	0.008391744
176	0x05	0.002797248
177	0xe7	-0.01398624
178	0x17	0.012867341
179	0xf0	-0.008951194
180	0x16	0.012307892
181	0xda	-0.021259084
182	0xf1	-0.008391744
183	0x04	0.0022377984
184	0x23	0.019580737
185	0xdf	-0.018461837
186	0x23	0.019580737
187	0xfb	-0.002797248
188	0xe3	-0.016224038
189	0x14	0.011188992
190	0xd0	-0.02685358
191	0xce	-0.02797248
192	0x0c	0.006713395
193	0xe4	-0.015664589
194	0xcc	-0.029091379
195	0x1b	0.015105139
196	0xfe	-0.0011188992
197	0x13	0.010629542
198	0xef	-0.009510643
199	0x1a	0.014545689
200	0xf9	-0.003916147
201	0xda	-0.021259084
202	0xee	-0.010070093
203	0xd7	-0.022937434
204	0xfc	-0.0022377984
205	0x00	0.0
206	0xe9	-0.012867341
207	0x20	0.017902387
208	0x1f	0.017342938
209	0xf1	-0.008391744
210	0xfa	-0.0033566975
211	0x1f	0.017342938
212	0xdc	-0.020140186
213	0x18	0.01342679
214	0x10	0.008951194
215	0xe6	-0.014545689
216	0xc8	-0.031329177
217	0xeb	-0.0117484415
218	0x23	0.019580737
219	0xca	-0.030210279
220	0xed	-0.010629542
221	0xd7	-0.022937434
222	0x0e	0.007832294
223	0x1b	0.015105139
224	0xf3	-0.0072728447
225	0xeb	-0.0117484415
226	0x1c	0.015664589
227	0xf8	-0.004475597
228	0x03	0.0016783488
229	0xdc	-0.020140186
230	0xeb	-0.0117484415
231	0xdb	-0.020699635
232	0x21	0.018461837
233	0xd9	-0.021818535
234	0xd1	-0.02629413
235	0xd6	-0.023496883
236	0x0e	0.007832294
237	0xc1	-0.035245325
238	0x1c	0.015664589
239	0xd3	-0.025175232
240	0x2c	0.024615783
241	0x13	0.010629542
242	0xc5	-0.033007525
243	0xd5	-0.024056332
244	0xdf	-0.018461837
245	0xc6	-0.032448076
246	0x10	0.008951194
247	0x3d	0.034126427
248	0xf0	-0.008951194
249	0xfb	-0.002797248
250	0x2a	0.023496883
251	0xd0	-0.02685358
252	0x20	0.017902387
253	0x23	0.019580737
254	0x04	0.0022377984
255	0x1f	0.017342938

sequential_4/dense_9/MatMul i1 [1, 7925] scale=0.0004153166 zero_point=0
0	0xec	-0.008306332
1	0x00	0.0
2	0xd6	-0.017443297
3	0x2b	0.017858613
4	0x3f	0.026164947
5	0x0a	0.004153166
6	0x1b	0.0112135485
7	0xe4	-0.011628865
8	0xe6	-0.010798232
9	0x00	0.0
10	0xe3	-0.012044182
11	0xee	-0.007475699
12	0x03	0.0012459499
13	0x03	0.0012459499
14	0xda	-0.01578203
15	0xf4	-0.0049837995
16	0x27	0.016197348
17	0xd0	-0.019935198
18	0xde	-0.014120765
19	0x21	0.013705448
20	0x1a	0.010798232
21	0xf2	-0.0058144326
22	0xfb	-0.002076583
23	0xfe	-0.0008306332
24	0x1f	0.012874815
25	0x02	0.0008306332
26	0xfc	-0.0016612664
27	0xfd	-0.0012459499
28	0x0d	0.005399116
29	0xe8	-0.009967599
30	0xbb	-0.028656846
31	0xec	-0.008306332
32	0xe9	-0.009552282
33	0x02	0.0008306332
34	0xbe	-0.027410896
35	0xe8	-0.009967599
36	0xfd	-0.0012459499
37	0xeb	-0.008721649
38	0x0b	0.0045684827
39	0x0e	0.0058144326
40	0xf8	-0.0033225329
41	0xe2	-0.012459498
42	0x13	0.007891015
43	0xdd	-0.014536081
44	0x1c	0.011628865
45	0x00	0.0
46	0x14	0.008306332
47	0x00	0.0
48	0xe0	-0.013290131
49	0xed	-0.007891015
50	0xfd	-0.0012459499
51	0xfa	-0.0024918998
52	0x22	0.014120765
53	0x05	0.002076583
54	0x00	0.0
55	0xeb	-0.008721649
56	0xfe	-0.0008306332
57	0xf6	-0.004153166
58	0x03	0.0012459499
59	0xcd	-0.021181148
60	0x03	0.0012459499
61	0x3a	0.024088364
62	0x02	0.0008306332
63	0x17	0.009552282
64	0x41	0.026995579
65	0xed	-0.007891015
66	0xc1	-0.026164947
67	0xf7	-0.0037378494
68	0x1d	0.012044182
69	0xde	-0.014120765
70	0x23	0.014536081
71	0xf4	-0.0049837995
72	0x00	0.0
73	0x1e	0.012459498
74	0x23	0.014536081
75	0xc4	-0.024918996
76	0x23	0.014536081
77	0x09	0.0037378494
78	0x0e	0.0058144326
79	0x19	0.010382915
80	0x06	0.0024918998
81	0x15	0.008721649
82	0x00	0.0
83	0xf4	-0.0049837995
84	0x17	0.009552282
85	0x0d	0.005399116
86	0x2e	0.019104565
87	0x3e	0.02574963
88	0xcc	-0.021596463
89	0x08	0.0033225329
90	0x04	0.0016612664
91	0x0e	0.0058144326
92	0x06	0.0024918998
93	0x06	0.0024918998
94	0x29	0.017027982
95	0xff	-0.0004153166
96	0x23	0.014536081
97	0x21	0.013705448
98	0x08	0.0033225329
99	0xee	-0.007475699
100	0xf3	-0.005399116
101	0xff	-0.0004153166
102	0xfe	-0.0008306332
103	0xcf	-0.020350514
104	0x04	0.0016612664
105	0xfe	-0.0008306332
106	0x27	0.016197348
107	0xef	-0.0070603825
108	0x06	0.0024918998
109	0x10	0.0066450657
110	0xe8	-0.009967599
111	0xee	-0.007475699
112	0x2a	0.017443297
113	0xf4	-0.0049837995
114	0xe0	-0.013290131
115	0x0e	0.0058144326
116	0x18	0.009967599
117	0x19	0.010382915
118	0x01	0.0004153166
119	0xe0	-0.013290131
120	0xfd	-0.0012459499
121	0x03	0.0012459499
122	0x0b	0.0045684827
123	0xfc	-0.0016612664
124	0xf2	-0.0058144326
125	0x06	0.0024918998
126	0x00	0.0
127	0xf0	-0.0066450657
128	0x0f	0.006229749
129	0x00	0.0
130	0x07	0.0029072163
131	0x00	0.0
132	0x01	0.0004153166
133	0xd0	-0.019935198
134	0x25	0.015366714
135	0x05	0.002076583
136	0xf4	-0.0049837995
137	0x2e	0.019104565
138	0x17	0.009552282
139	0x04	0.0016612664
140	0xf8	-0.0033225329
141	0x00	0.0
142	0xfd	-0.0012459499
143	0x26	0.01578203
144	0x00	0.0
145	0x18	0.009967599
146	0xcf	-0.020350514
147	0x04	0.0016612664
148	0xee	-0.007475699
149	0x16	0.0091369655
150	0xd2	-0.019104565
151	0xe8	-0.009967599
152	0xef	-0.0070603825
153	0x11	0.0070603825
154	0x03	0.0012459499
155	0x16	0.0091369655
156	0xfd	-0.0012459499
157	0x26	0.01578203
158	0x00	0.0
159	0xfb	-0.002076583
160	0xdb	-0.015366714
161	0xec	-0.008306332
162	0x0d	0.005399116
163	0xfc	-0.0016612664
164	0x07	0.0029072163
165	0x07	0.0029072163
166	0x10	0.0066450657
167	0x04	0.0016612664
168	0xfd	-0.0012459499
169	0x10	0.0066450657
170	0xd4	-0.018273931
171	0xeb	-0.008721649
172	0xd2	-0.019104565
173	0x1b	0.0112135485
174	0x1d	0.012044182
175	0xfc	-0.0016612664
176	0x0a	0.004153166
177	0x1e	0.012459498
178	0x00	0.0
179	0x06	0.0024918998
180	0x08	0.0033225329
181	0x0e	0.0058144326
182	0xfb	-0.002076583
183	0x02	0.0008306332
184	0xf2	-0.0058144326
185	0xea	-0.0091369655
186	0xe4	-0.011628865
187	0xbc	-0.02824153
188	0x20	0.013290131
189	0x04	0.0016612664
190	0x33	0.021181148
191	0xc3	-0.025334314
192	0xec	-0.008306332
193	0xfb	-0.002076583
194	0xe4	-0.011628865
195	0xfe	-0.0008306332
196	0x01	0.0004153166
197	0x2b	0.017858613
198	0x04	0.0016612664
199	0x0e	0.0058144326
200	0xe0	-0.013290131
201	0xf2	-0.0058144326
202	0xd4	-0.018273931
203	0xff	-0.0004153166
204	0xfa	-0.0024918998
205	0xf5	-0.0045684827
206	0xcf	-0.020350514
207	0x0c	0.0049837995
208	0xef	-0.0070603825
209	0xf7	-0.0037378494
210	0x01	0.0004153166
211	0xf5	-0.0045684827
212	0xe9	-0.009552282
213	0x01	0.0004153166
214	0xf9	-0.0029072163
215	0x0f	0.006229749
216	0xe7	-0.010382915
217	0x0d	0.005399116
218	0xea	-0.0091369655
219	0xff	-0.0004153166
220	0xc4	-0.024918996
221	0x15	0.008721649
222	0x15	0.008721649
223	0xfa	-0.0024918998
224	0xc7	-0.023673046
225	0xd6	-0.017443297
226	0x06	0.0024918998
227	0x02	0.0008306332
228	0xfb	-0.002076583
229	0xe6	-0.010798232
230	0xe4	-0.011628865
231	0xe3	-0.012044182
232	0x22	0.014120765
233	0xef	-0.0070603825
234	0xd6	-0.017443297
235	0xf7	-0.0037378494
236	0xfc	-0.0016612664
237	0xfb	-0.002076583
238	0xf5	-0.0045684827
239	0x14	0.008306332
240	0xdd	-0.014536081
241	0xe9	-0.009552282
242	0x14	0.008306332
243	0x2d	0.018689247
244	0xcc	-0.021596463
245	0x03	0.0012459499
246	0xde	-0.014120765
247	0xef	-0.0070603825
248	0x14	0.008306332
249	0xfe	-0.0008306332
250	0x0a	0.004153166
251	0x04	0.0016612664
252	0x11	0.0070603825
253	0x1c	0.011628865
254	0x14	0.008306332
255	0x26	0.01578203
