4.tflite (tflite, 131976 bytes, 2 tensors)

sequential_7/dense_14/MatMul i1 [10000, 8] scale=0.0005339233 zero_point=0
0.005873156 -0.022958701 0.022424778 -0.020289084 -0.0026696164 0.0053392327 -0.021890854 0.006941003
-0.020823007 -0.016017698 -0.002135693 -0.002135693 0.002135693 0.004271386 -0.029899703 -0.019221239
-0.0032035396 0.0005339233 0.018153392 -0.021890854 -0.0026696164 -0.0048053097 -0.028297933 0.009076696
-0.006941003 0.009076696 -0.0106784655 -0.027764011 -0.0053392327 0.011746312 -0.0016017698 -0.010144542
0.005873156 -0.016017698 -0.019221239 0.0053392327 0.004271386 0.016017698 0.014949852 -0.026696164
-0.02616224 -0.025094394 0.022958701 -0.0005339233 -0.013348082 -0.025628317 -0.026696164 0.015483775
-0.022424778 -0.02456047 -0.0064070793 -0.009076696 0.0048053097 0.0064070793 0.013348082 -0.013348082
-0.02456047 0.0064070793 -0.002135693 0.0032035396 0.0010678465 0.009610619 0.0032035396 -0.026696164
0.0064070793 0.003737463 -0.037908554 -0.015483775 -0.013882006 -0.0005339233 0.024026547 0.036840707
-0.028297933 -0.008008849 0.024026547 -0.016551621 0.002135693 0.004271386 -0.028831856 -0.0032035396
-0.017085545 -0.022424778 -0.021356931 0.013348082 -0.002135693 -0.017085545 -0.011212389 0.002135693
-0.008542772 -0.0064070793 0.013348082 0.006941003 -0.028297933 -0.0064070793 0.014415928 -0.028831856
0.009610619 -0.0016017698 -0.0026696164 0.0016017698 -0.011212389 0.018153392 -0.004271386 -0.021890854
-0.021890854 -0.020289084 -0.017619468 -0.018687315 -0.017085545 -0.0016017698 0.009076696 -0.018153392
-0.0032035396 -0.0053392327 -0.017085545 -0.011746312 0.0016017698 -0.010144542 -0.027764011 -0.011746312
0.017619468 -0.014415928 0.011212389 -0.018687315 -0.0016017698 -0.013882006 0.0064070793 0.018687315
-0.020289084 -0.0064070793 0.016017698 0.011746312 -0.023492623 -0.011746312 -0.01975516 -0.022958701
0.027230088 0.0048053097 0.009076696 -0.013348082 0.011746312 0.013882006 0.014949852 -0.013882006
-0.016551621 0.006941003 -0.013348082 -0.0064070793 -0.002135693 -0.008008849 -0.009076696 -0.012814159
-0.012814159 -0.021890854 0.009610619 -0.03096755 0.014949852 0.008542772 -0.03256932 -0.028297933
-0.003737463 0.009610619 0.010144542 -0.016551621 -0.0026696164 0.009610619 0.0005339233 -0.0053392327
-0.008008849 -0.01975516 0.022424778 -0.006941003 0.002135693 0.017085545 -0.027764011 0.013882006
-0.004271386 0.0005339233 0.0026696164 -0.008008849 -0.008008849 -0.029899703 -0.009610619 -0.012280235
-0.009076696 -0.0106784655 -0.019221239 -0.0010678465 -0.0053392327 -0.021890854 -0.013882006 -0.014415928
0.013882006 -0.0048053097 -0.023492623 -0.022424778 -0.005873156 -0.019221239 0.008542772 0.010144542
0.0053392327 0.011746312 -0.005873156 -0.013348082 0.019221239 0.012280235 -0.048053093 0.0016017698
-0.013348082 0.017619468 0.012280235 0.016017698 -0.019221239 -0.026696164 -0.02616224 -0.009610619
0.0053392327 0.0032035396 -0.004271386 0.011212389 -0.002135693 -0.006941003 -0.020823007 -0.022424778
0.015483775 -0.014949852 -0.0026696164 0.020289084 -0.007474926 -0.018687315 0.008008849 -0.0064070793
-0.008542772 0.012814159 -0.012280235 -0.009610619 0.007474926 -0.017619468 -0.009610619 -0.008008849
-0.006941003 -0.0048053097 -0.022424778 -0.023492623 -0.023492623 -0.014949852 0.025094394 0.022958701
0.011746312 -0.018153392 -0.010144542 -0.0048053097 -0.014415928 -0.013348082 0.005873156 -0.013348082
00000000: 0bd5 2ada fb0a d70d d9e2 fcfc 0408 c8dc
00000010: fa01 22d7 fbf7 cb11 f311 eccc f616 fded
00000020: 0be2 dc0a 081e 1cce cfd1 2bff e7d0 ce1d
00000030: d6d2 f4ef 090c 19e7 d20c fc06 0212 06ce
00000040: 0c07 b9e3 e6ff 2d45 cbf1 2de1 0408 cafa
00000050: e0d6 d819 fce0 eb04 f0f4 190d cbf4 1bca
00000060: 12fd fb03 eb22 f8d7 d7da dfdd e0fd 11de
00000070: faf6 e0ea 03ed ccea 21e5 15dd fde6 0c23
00000080: daf4 1e16 d4ea dbd5 3309 11e7 161a 1ce6
00000090: e10d e7f4 fcf1 efe8 e8d7 12c6 1c10 c3cb
000000a0: f912 13e1 fb12 01f6 f1db 2af3 0420 cc1a
000000b0: f801 05f1 f1c8 eee9 efec dcfe f6d7 e6e5
000000c0: 1af7 d4d6 f5dc 1013 0a16 f5e7 2417 a603
000000d0: e721 171e dcce cfee 0a06 f815 fcf3 d9d6
000000e0: 1de4 fb26 f2dd 0ff4 f018 e9ee 0edf eef1
000000f0: f3f7 d6d4 d4e4 2f2b 16de edf7 e5e7 0be7

sequential_7/dense_15/MatMul i1 [1, 10000] scale=0.0004798321 zero_point=0
-0.007197481 -0.0019193284 -0.0028789926 0.0009596642 0.0 -0.013435299 -0.0023991605 -0.0004798321
-0.030229421 -0.0067176493 0.015354627 -0.019673117 0.0019193284 0.005757985 0.0 -0.00911681
-0.0038386567 0.004798321 0.0004798321 -0.008157145 -0.005278153 0.0 0.0014394963 -0.0076773134
0.005278153 -0.012955466 -0.006237817 -0.0076773134 0.013435299 0.0023991605 -0.02063278 0.0067176493
-0.0038386567 0.010556306 0.0004798321 -0.0009596642 0.0028789926 0.0009596642 0.023511773 0.01151597
0.0 0.0014394963 0.018713452 -0.012955466 0.014394962 0.0009596642 0.0076773134 0.0014394963
0.012475634 0.011036138 -0.0009596642 0.0014394963 0.0023991605 0.008157145 -0.0014394963 0.0019193284
0.0086369775 -0.004798321 -0.0148747945 -0.0043184888 -0.022552108 -0.0004798321 -0.012955466 -0.013915131
0.0023991605 0.0028789926 0.0004798321 0.0009596642 -0.0076773134 0.0 0.004798321 0.01151597
-0.0009596642 -0.005278153 -0.00911681 -0.015354627 -0.0028789926 0.013915131 -0.0043184888 0.005278153
0.01631429 0.0023991605 0.011036138 -0.004798321 -0.010556306 0.005757985 0.015354627 -0.0038386567
-0.015834458 -0.015834458 0.0004798321 0.012475634 0.0 -0.005278153 0.006237817 0.0033588246
0.0019193284 -0.0014394963 -0.0028789926 0.009596642 -0.0023991605 -0.017273955 -0.0028789926 0.0009596642
-0.0067176493 -0.012475634 0.01631429 -0.013435299 -0.0067176493 0.016794123 0.011036138 0.0148747945
0.0014394963 -0.0009596642 -0.00911681 0.0019193284 -0.01823362 -0.0028789926 0.021112612 0.0019193284
-0.014394962 0.0004798321 0.0004798321 -0.013915131 -0.0004798321 0.0004798321 -0.005278153 0.0004798321
0.0 -0.005278153 0.0004798321 0.0 0.009596642 0.007197481 0.0023991605 0.0076773134
0.0067176493 -0.012475634 0.0100764735 0.007197481 0.0086369775 0.0043184888 0.0019193284 -0.0067176493
0.014394962 0.0004798321 -0.0004798321 -0.019193284 0.0 0.013915131 -0.0009596642 -0.0028789926
0.0086369775 0.0014394963 -0.0023991605 0.011036138 -0.0004798321 -0.02063278 -0.0067176493 0.0
-0.0009596642 0.0028789926 0.007197481 0.0 0.010556306 -0.022072276 0.0 0.0
0.0038386567 -0.01151597 0.015834458 -0.0028789926 -0.008157145 -0.0004798321 0.008157145 -0.0004798321
0.008157145 0.0100764735 -0.013915131 0.018713452 0.0067176493 -0.0033588246 0.008157145 0.006237817
0.017273955 0.004798321 0.0033588246 0.018713452 -0.0086369775 0.00911681 -0.006237817 -0.0043184888
-0.009596642 -0.007197481 0.010556306 -0.0023991605 -0.014394962 -0.0076773134 -0.023991605 0.0076773134
-0.0004798321 -0.0043184888 -0.019673117 0.0028789926 0.0028789926 0.0038386567 -0.010556306 -0.0019193284
-0.0004798321 0.0254311 0.0028789926 0.0019193284 0.00911681 -0.013915131 0.0028789926 0.013435299
-0.026870597 -0.0004798321 -0.0004798321 0.014394962 0.0014394963 0.0100764735 -0.005278153 0.0043184888
0.024471436 -0.005757985 -0.009596642 0.0086369775 0.0076773134 0.009596642 -0.006237817 -0.0033588246
-0.0028789926 0.0 -0.027830262 -0.0004798321 0.0038386567 -0.0009596642 0.010556306 0.0067176493
0.0 -0.0028789926 0.0076773134 0.012475634 0.0004798321 -0.0086369775 0.0009596642 0.0014394963
-0.007197481 0.0 0.0043184888 -0.005757985 -0.007197481 -0.005757985 0.0004798321 0.019673117
00000000: f1fc fa02 00e4 fbff c1f2 20d7 040c 00ed
00000010: f80a 01ef f500 03f0 0be5 f3f0 1c05 d50e
00000020: f816 01fe 0602 3118 0003 27e5 1e02 1003
00000030: 1a17 fe03 0511 fd04 12f6 e1f7 d1ff e5e3
00000040: 0506 0102 f000 0a18 fef5 ede0 fa1d f70b
00000050: 2205 17f6 ea0c 20f8 dfdf 011a 00f5 0d07
00000060: 04fd fa14 fbdc fa02 f2e6 22e4 f223 171f
00000070: 03fe ed04 dafa 2c04 e201 01e3 ff01 f501
00000080: 00f5 0100 140f 0510 0ee6 150f 1209 04f2
00000090: 1e01 ffd8 001d fefa 1203 fb17 ffd5 f200
000000a0: fe06 0f00 16d2 0000 08e8 21fa efff 11ff
000000b0: 1115 e327 0ef9 110d 240a 0727 ee13 f3f7
000000c0: ecf1 16fb e2f0 ce10 fff7 d706 0608 eafc
000000d0: ff35 0604 13e3 061c c8ff ff1e 0315 f509
000000e0: 33f4 ec12 1014 f3f9 fa00 c6ff 08fe 160e
000000f0: 00fa 101a 01ee 0203 f100 09f4 f1f4 0129
