5.tflite (tflite, 260936 bytes, 3 tensors)

sequential_8/dense_16/MatMul i1 [500, 8] scale=0.0012323089 zero_point=0
-0.018484633 -0.088726245 0.046827737 -0.10351395 0.024646178 -0.121998586 0.07270622 -0.11706935
0.09735241 0.017252324 0.041898504 0.04806005 -0.11583704 0.013555398 -0.0049292357 -0.07270622
-0.038201578 0.08010008 0.06654468 -0.08010008 0.08379701 -0.036969267 0.06408007 -0.0012323089
-0.075170845 -0.050524667 -0.07147392 0.08995855 0.03573696 0.020949252 0.0024646178 0.017252324
0.009858471 0.041898504 0.008626162 0.05298928 -0.107210875 -0.05668621 -0.049292356 -0.05668621
-0.03573696 0.03327234 -0.030807722 -0.108443186 0.08502932 -0.0690093 -0.11337242 -0.10228164
0.05915083 0.08010008 0.029575415 0.06777699 0.024646178 0.008626162 -0.081332386 -0.049292356
-0.11337242 -0.03327234 0.06777699 -0.041898504 -0.07393853 -0.054221593 -0.044363122 -0.028343106
0.036969267 -0.0049292357 -0.07393853 -0.044363122 0.076403156 -0.06408007 -0.038201578 0.094887786
-0.0073938537 -0.09119086 -0.10351395 -0.046827737 -0.0024646178 0.07763546 -0.06777699 0.044363122
-0.12323089 -0.09242317 -0.05915083 -0.121998586 0.046827737 0.075170845 0.05298928 -0.07147392
-0.09858471 0.019716943 -0.0049292357 0.036969267 0.062847756 0.008626162 -0.11460473 -0.11214011
0.04806005 0.06654468 0.044363122 -0.05668621 0.06777699 0.012323089 0.060383137 -0.087493934
-0.08010008 -0.094887786 -0.04313081 -0.023413869 -0.094887786 -0.03450465 0.10474626 0.09735241
0.012323089 0.009858471 -0.07763546 -0.054221593 -0.07270622 -0.041898504 -0.10351395 -0.008626162
0.07024161 -0.054221593 -0.06654468 -0.03573696 -0.075170845 0.0554539 -0.09858471 0.032040033
-0.07393853 0.062847756 -0.075170845 -0.1109078 0.009858471 -0.05791852 -0.107210875 0.041898504
-0.008626162 -0.101049334 -0.036969267 0.076403156 -0.051756974 -0.04806005 -0.10351395 -0.019716943
0.09119086 -0.03573696 -0.013555398 0.038201578 -0.06408007 -0.04559543 -0.062847756 0.051756974
0.044363122 -0.013555398 0.03450465 -0.0825647 0.060383137 -0.09735241 -0.075170845 0.05668621
-0.04806005 -0.008626162 -0.04806005 0.029575415 -0.03573696 -0.032040033 -0.1096755 0.07147392
0.061615445 0.04559543 0.04559543 -0.049292356 -0.023413869 0.051756974 0.023413869 -0.11460473
0.0073938537 0.008626162 0.0049292357 -0.038201578 0.016020017 -0.1096755 -0.050524667 0.0012323089
-0.041898504 0.03573696 0.05668621 -0.03573696 0.07886777 -0.032040033 0.0 -0.023413869
0.0024646178 -0.060383137 -0.0961201 0.013555398 -0.07886777 0.017252324 0.0061615445 -0.05298928
0.040666193 -0.0554539 -0.06777699 -0.06654468 0.06531237 0.07763546 -0.03573696 -0.0061615445
-0.08379701 0.05791852 -0.03573696 0.03573696 -0.06777699 0.05791852 -0.06654468 0.038201578
0.09119086 0.0049292357 -0.1244632 0.03573696 0.07393853 0.0554539 0.028343106 -0.0690093
-0.07024161 -0.030807722 -0.019716943 0.062847756 -0.08502932 0.0036969269 0.06531237 -0.09119086
-0.07393853 0.08379701 -0.08379701 -0.10474626 0.075170845 -0.05791852 -0.023413869 -0.10474626
-0.09858471 0.019716943 -0.121998586 -0.062847756 0.049292356 -0.041898504 -0.04559543 -0.0024646178
-0.03573696 0.025878487 0.0073938537 -0.1109078 0.05668621 0.0825647 0.040666193 0.10351395
00000000: f1b8 26ac 149d 3ba1 4f0e 2227 a20b fcc5
00000010: e141 36bf 44e2 34ff c3d7 c649 1d11 020e
00000020: 0822 072b a9d2 d8d2 e31b e7a8 45c8 a4ad
00000030: 3041 1837 1407 bed8 a4e5 37de c4d4 dce9
00000040: 1efc c4dc 3ecc e14d fab6 acda fe3f c924
00000050: 9cb5 d09d 263d 2bc6 b010 fc1e 3307 a3a5
00000060: 2736 24d2 370a 31b9 bfb3 dded b3e4 554f
00000070: 0a08 c1d4 c5de acf9 39d4 cae3 c32d b01a
00000080: c433 c3a6 08d1 a922 f9ae e23e d6d9 acf0
00000090: 4ae3 f51f ccdb cd2a 24f5 1cbd 31b1 c32e
000000a0: d9f9 d918 e3e6 a73a 3225 25d8 ed2a 13a3
000000b0: 0607 04e1 0da7 d701 de1d 2ee3 40e6 00ed
000000c0: 02cf b20b c00e 05d5 21d3 c9ca 353f e3fb
000000d0: bc2f e31d c92f ca1f 4a04 9b1d 3c2d 17c8
000000e0: c7e7 f033 bb03 35b6 c444 bcab 3dd1 edab
000000f0: b010 9dcd 28de dbfe e315 06a6 2e43 2154

sequential_8/dense_17/MatMul i1 [500, 500] scale=0.000951857 zero_point=0
0.046640992 -0.047592852 -0.06377442 -0.019988997 0.012374141 -0.013325999 -0.06377442 -0.013325999
0.058063276 -0.018085284 -0.047592852 -0.024748283 0.029507568 -0.03617057 0.043785423 -0.000951857
-0.046640992 -0.01903714 -0.049496565 -0.059966993 -0.005711142 -0.0818597 -0.026651997 -0.062822565
0.029507568 -0.06472628 -0.01618157 0.008566713 -0.00951857 0.07900413 -0.04854471 -0.01903714
-0.002855571 0.05711142 0.0685337 0.03617057 0.019988997 0.08566713 0.065678135 -0.010470428
0.059015136 0.027603853 0.020940855 -0.008566713 -0.02855571 -0.003807428 0.001903714 0.004759285
0.06472628 -0.052352134 -0.03617057 -0.005711142 0.049496565 0.05044842 0.0818597 0.026651997
0.017133426 0.026651997 0.01903714 0.01903714 0.065678135 -0.049496565 0.07424485 -0.047592852
-0.004759285 -0.06758185 -0.029507568 0.026651997 0.06472628 0.05044842 -0.080907844 -0.018085284
-0.015229712 -0.0066629993 0.059966993 -0.01903714 -0.05425585 -0.06948556 -0.056159563 -0.08281156
-0.001903714 -0.021892712 -0.07043742 -0.014277855 -0.05425585 -0.047592852 -0.06377442 0.062822565
0.047592852 0.024748283 -0.02855571 0.0066629993 -0.052352134 0.06662999 -0.020940855 -0.043785423
0.06662999 -0.07424485 -0.022844568 0.02855571 -0.05425585 -0.04092985 0.012374141 0.021892712
-0.011422284 -0.0818597 0.087570846 0.013325999 -0.06758185 0.059015136 -0.03521871 0.07424485
-0.049496565 -0.061870705 0.033314995 0.007614856 0.061870705 -0.05425585 -0.056159563 0.001903714
0.043785423 -0.021892712 -0.01618157 -0.01903714 0.07329299 -0.010470428 0.000951857 0.012374141
-0.024748283 0.061870705 0.062822565 -0.053303994 -0.017133426 -0.026651997 -0.013325999 0.043785423
0.061870705 0.07329299 0.07043742 0.033314995 -0.000951857 0.043785423 0.058063276 -0.0685337
0.012374141 -0.023796426 0.05425585 0.00951857 0.05425585 -0.02855571 0.061870705 -0.019988997
0.017133426 -0.065678135 0.053303994 -0.0685337 -0.04188171 0.039977994 0.062822565 0.000951857
0.06948556 -0.002855571 -0.019988997 0.087570846 -0.05044842 0.019988997 0.058063276 -0.06377442
-0.039026137 0.011422284 0.062822565 0.002855571 -0.007614856 -0.03426685 -0.031411283 0.012374141
-0.03426685 -0.043785423 -0.002855571 -0.007614856 0.05711142 0.026651997 0.06662999 -0.03617057
0.07900413 0.06758185 -0.017133426 0.0 0.043785423 -0.007614856 0.026651997 -0.065678135
0.026651997 0.005711142 -0.001903714 -0.053303994 0.039977994 0.001903714 -0.020940855 0.021892712
0.05425585 -0.056159563 -0.024748283 0.07043742 0.025700139 -0.002855571 -0.018085284 0.025700139
0.07138927 -0.04473728 -0.053303994 -0.0066629993 0.007614856 0.024748283 -0.019988997 0.06662999
0.012374141 0.029507568 -0.03236314 -0.08376342 -0.039026137 0.06472628 -0.05425585 0.015229712
0.007614856 0.030459424 -0.012374141 -0.019988997 -0.04092985 -0.046640992 0.02855571 0.030459424
0.03236314 -0.013325999 0.04092985 -0.023796426 0.001903714 -0.042833567 0.026651997 0.019988997
-0.061870705 -0.01618157 -0.001903714 -0.06472628 0.008566713 -0.005711142 0.062822565 0.078052275
-0.026651997 0.033314995 0.07138927 0.04473728 -0.018085284 0.075196706 0.005711142 0.029507568
00000000: 31ce bdeb 0df2 bdf2 3ded cee6 1fda 2eff
00000010: cfec ccc1 faaa e4be 1fbc ef09 f653 cdec
00000020: fd3c 4826 155a 45f5 3e1d 16f7 e2fc 0205
00000030: 44c9 dafa 3435 561c 121c 1414 45cc 4ece
00000040: fbb9 e11c 4435 abed f0f9 3fec c7b7 c5a9
00000050: fee9 b6f1 c7ce bd42 321a e207 c946 ead2
00000060: 46b2 e81e c7d5 0d17 f4aa 5c0e b93e db4e
00000070: ccbf 2308 41c7 c502 2ee9 efec 4df5 010d
00000080: e641 42c8 eee4 f22e 414d 4a23 ff2e 3db8
00000090: 0de7 390a 39e2 41eb 12bb 38b8 d42a 4201
000000a0: 49fd eb5c cb15 3dbd d70c 4203 f8dc df0d
000000b0: dcd2 fdf8 3c1c 46da 5347 ee00 2ef8 1cbb
000000c0: 1c06 fec8 2a02 ea17 39c5 e64a 1bfd ed1b
000000d0: 4bd1 c8f9 081a eb46 0d1f dea8 d744 c710
000000e0: 0820 f3eb d5cf 1e20 22f2 2be7 02d3 1c15
000000f0: bfef febc 09fa 4252 e423 4b2f ed4f 061f

sequential_8/dense_18/MatMul i1 [1, 500] scale=0.000821377 zero_point=0
-0.056675013 -0.08049494 0.077209435 0.08706596 -0.000821377 -0.018070294 0.023819933 0.07885219
-0.069817044 0.06324603 0.023819933 -0.000821377 0.06488878 -0.056675013 -0.072281174 -0.039426096
-0.08706596 0.046818487 -0.03778334 -0.0320337 -0.05174675 -0.09199422 -0.04599711 -0.08788734
-0.003285508 -0.09774386 -0.09035147 -0.06324603 0.08788734 0.002464131 0.079673566 0.059139144
-0.08624458 -0.010677901 0.055853635 0.036961965 0.04353298 -0.0320337 0.04106885 -0.018070294
-0.026284063 -0.0640674 -0.059139144 0.08460183 -0.000821377 0.003285508 0.036140587 0.020534424
-0.031212324 -0.025462687 -0.03285508 0.0 0.050103996 -0.0714598 0.06571016 -0.061603274
-0.0640674 -0.013963409 0.05174675 -0.029569572 0.091172844 0.03778334 0.08460183 0.001642754
-0.022177178 -0.08788734 0.0 0.08131632 0.000821377 0.039426096 0.061603274 -0.045175735
-0.039426096 -0.01642754 -0.027926818 -0.05174675 0.018070294 0.07063842 -0.014784786 0.01642754
0.015606162 0.09445835 0.002464131 0.0 0.0 0.0057496387 -0.060781896 -0.001642754
-0.028748194 0.001642754 0.050103996 -0.077209435 -0.009035147 0.0928156 0.024641309 -0.03285508
0.06653153 -0.079673566 0.059139144 0.055032257 0.04846124 -0.09445835 0.06571016 -0.0640674
0.096101105 0.077209435 0.0 -0.059960518 0.011499277 0.08870871 0.004106885 -0.09527973
-0.000821377 0.06899567 -0.0057496387 0.009035147 0.04024747 0.019713048 -0.026284063 0.022998555
0.004106885 -0.07638806 -0.021355802 0.025462687 0.0821377 0.000821377 0.0123206545 0.060781896
0.046818487 0.041890226 0.025462687 0.05174675 -0.017248917 -0.049282618 -0.002464131 0.07392393
0.05421088 -0.03531921 -0.038604718 0.07063842 -0.042711604 -0.044354357 -0.06488878 -0.036961965
0.003285508 -0.015606162 -0.07392393 -0.0057496387 -0.038604718 0.055032257 -0.05174675 -0.033676457
0.09527973 0.04024747 -0.056675013 0.024641309 0.03285508 -0.029569572 -0.060781896 0.025462687
0.022998555 0.050925374 0.0320337 -0.025462687 0.021355802 0.06735291 0.0 -0.004928262
-0.058317766 -0.004106885 0.002464131 0.08870871 0.013142032 0.08542321 -0.004928262 -0.020534424
-0.07392393 -0.04024747 -0.01642754 -0.07063842 0.003285508 -0.038604718 -0.03778334 -0.000821377
0.08706596 -0.013142032 -0.00821377 -0.025462687 0.014784786 -0.10431488 -0.074745305 0.017248917
-0.08378045 -0.06488878 -0.00821377 -0.031212324 -0.041890226 0.09692248 -0.010677901 0.0
-0.055032257 0.022998555 0.08460183 0.028748194 -0.07063842 -0.022998555 -0.007392393 0.0
0.024641309 0.04106885 -0.08295908 0.046818487 0.010677901 0.009856524 -0.08460183 -0.022177178
-0.06571016 -0.06242465 0.079673566 -0.045175735 -0.08378045 -0.06653153 -0.038604718 0.098565236
-0.096101105 -0.10020799 0.07885219 0.06242465 -0.03531921 -0.010677901 -0.074745305 -0.003285508
-0.022998555 -0.036140587 -0.042711604 0.002464131 0.061603274 0.0 -0.0821377 0.004928262
0.057496388 0.0928156 -0.028748194 0.011499277 -0.06735291 -0.059960518 -0.06242465 0.06324603
0.034497835 0.039426096 0.024641309 0.04846124 -0.049282618 0.057496388 -0.009856524 -0.07638806
00000000: bb9e 5e6a ffea 1d60 ab4d 1dff 4fbb a8d0
00000010: 9639 d2d9 c190 c895 fc89 92b3 6b03 6148
00000020: 97f3 442d 35d9 32ea e0b2 b867 ff04 2c19
00000030: dae1 d800 3da9 50b5 b2ef 3fdc 6f2e 6702
00000040: e595 0063 0130 4bc9 d0ec dec1 1656 ee14
00000050: 1373 0300 0007 b6fe dd02 3da2 f571 1ed8
00000060: 519f 4843 3b8d 50b2 755e 00b7 0e6c 058c
00000070: ff54 f90b 3118 e01c 05a3 e61f 6401 0f4a
00000080: 3933 1f3f ebc4 fd5a 42d5 d156 ccca b1d3
00000090: 04ed a6f9 d143 c1d7 7431 bb1e 28dc b61f
000000a0: 1c3e 27e1 1a52 00fa b9fb 036c 1068 fae7
000000b0: a6cf ecaa 04d1 d2ff 6af0 f6e1 1281 a515
000000c0: 9ab1 f6da cd76 f300 bd1c 6723 aae4 f700
000000d0: 1e32 9b39 0d0c 99e5 b0b4 61c9 9aaf d178
000000e0: 8b86 604c d5f3 a5fc e4d4 cc03 4b00 9c06
000000f0: 4671 dd0e aeb7 b44d 2a30 1e3b c446 f4a3
