6.tflite (tflite, 516936 bytes, 3 tensors)

sequential_9/dense_19/MatMul i1 [1000, 8] scale=0.0009988615 zero_point=0
000000 1e 09 19 f6 c3 a7 f8 de d5 fd cd ce 02 3b c2 f2
       0.029965846 0.008989753 0.024971537 -0.009988615 -0.06093055 -0.08889867 -0.007990892 -0.033961292 -0.042951044 -0.0029965844 -0.050941937 -0.049943075 0.001997723 0.05893283 -0.061929412 -0.013984061
000010 f9 ff 25 c7 d9 1e ed a6 3d e8 bb 1e 1d e2 ce a7
       -0.0069920304 -0.0009988615 0.036957875 -0.056935105 -0.0389556 0.029965846 -0.018978368 -0.089897536 0.06093055 -0.023972675 -0.06892145 0.029965846 0.028966984 -0.029965846 -0.049943075 -0.08889867
000020 fe 31 ea e3 16 cd 14 b3 a4 c1 de e6 38 c4 b6 ab
       -0.001997723 0.048944212 -0.021974953 -0.028966984 0.021974953 -0.050941937 0.01997723 -0.076912336 -0.09189526 -0.062928274 -0.033961292 -0.0259704 0.055936243 -0.05993169 -0.07391575 -0.084903225
000030 f1 26 19 b9 16 c6 a3 28 de c9 34 fe d1 d7 14 d3
       -0.014982923 0.037956737 0.024971537 -0.07091916 0.021974953 -0.057933968 -0.09289412 0.03995446 -0.033961292 -0.05493738 0.0519408 -0.001997723 -0.046946492 -0.040953323 0.01997723 -0.044948768
000040 d7 bb 22 c7 12 38 0d e0 01 2e 2e af 11 27 f1 12
       -0.040953323 -0.06892145 0.033961292 -0.056935105 0.017979506 0.055936243 0.0129852 -0.03196357 0.0009988615 0.04594763 0.04594763 -0.080907784 0.016980646 0.0389556 -0.014982923 0.017979506
000050 3c 2f 40 24 1e 03 54 f6 ab 09 be 33 19 a9 d8 fd
       0.05993169 0.046946492 0.06392714 0.035959013 0.029965846 0.0029965844 0.08390436 -0.009988615 -0.084903225 0.008989753 -0.06592486 0.050941937 0.024971537 -0.08690095 -0.03995446 -0.0029965844
000060 ec 26 ab d8 cc b1 bc 24 08 d1 f2 cf e7 cc ea 05
       -0.01997723 0.037956737 -0.084903225 -0.03995446 -0.0519408 -0.07891006 -0.067922585 0.035959013 0.007990892 -0.046946492 -0.013984061 -0.048944212 -0.024971537 -0.0519408 -0.021974953 0.0049943076
000070 c8 b1 0b ba 15 f3 36 cb e5 c1 ef d0 30 f3 13 e2
       -0.055936243 -0.07891006 0.010987476 -0.06992031 0.02097609 -0.0129852 0.053938523 -0.05293966 -0.026969261 -0.062928274 -0.016980646 -0.04794535 0.04794535 -0.0129852 0.018978368 -0.029965846
000080 09 af ff c9 1f f9 2a fa 35 04 d9 ef fc ea 16 21
       0.008989753 -0.080907784 -0.0009988615 -0.05493738 0.030964706 -0.0069920304 0.04195218 -0.005993169 0.05293966 0.003995446 -0.0389556 -0.016980646 -0.003995446 -0.021974953 0.021974953 0.03296243
000090 eb 12 c7 54 ea 11 0c db cc 17 28 f2 d2 d8 c5 22
       -0.02097609 0.017979506 -0.056935105 0.08390436 -0.021974953 0.016980646 0.011986338 -0.036957875 -0.0519408 0.022973815 0.03995446 -0.013984061 -0.04594763 -0.03995446 -0.05893283 0.033961292
0000a0 ff 23 ee d4 0c 3f 18 b9 ae bb c8 c2 19 cd 42 bb
       -0.0009988615 0.034960154 -0.017979506 -0.043949906 0.011986338 0.062928274 0.023972675 -0.07091916 -0.08190665 -0.06892145 -0.055936243 -0.061929412 0.024971537 -0.050941937 0.06592486 -0.06892145
0000b0 e0 eb 2f f8 31 1e 22 fc b1 ed ea 0d 1c ff c3 b4
       -0.03196357 -0.02097609 0.046946492 -0.007990892 0.048944212 0.029965846 0.033961292 -0.003995446 -0.07891006 -0.018978368 -0.021974953 0.0129852 0.027968122 -0.0009988615 -0.06093055 -0.075913474
0000c0 10 e7 33 08 c7 b3 f8 00 19 22 a3 b6 35 b7 c2 ae
       0.015981784 -0.024971537 0.050941937 0.007990892 -0.056935105 -0.076912336 -0.007990892 0.0 0.024971537 0.033961292 -0.09289412 -0.07391575 0.05293966 -0.07291689 -0.061929412 -0.08190665
0000d0 c9 bf 29 18 e3 d9 31 e6 aa 09 24 0f ba e8 f5 c4
       -0.05493738 -0.064926 0.040953323 0.023972675 -0.028966984 -0.0389556 0.048944212 -0.0259704 -0.08590209 0.008989753 0.035959013 0.014982923 -0.06992031 -0.023972675 -0.010987476 -0.05993169
0000e0 10 c9 12 11 f1 d3 03 38 02 fa b7 3b 01 f1 c7 dc
       0.015981784 -0.05493738 0.017979506 0.016980646 -0.014982923 -0.044948768 0.0029965844 0.055936243 0.001997723 -0.005993169 -0.07291689 0.05893283 0.0009988615 -0.014982923 -0.056935105 -0.035959013
0000f0 ff 21 d6 b9 d3 f1 d8 eb 28 fa 2d dc ee 0f c3 1e
       -0.0009988615 0.03296243 -0.04195218 -0.07091916 -0.044948768 -0.014982923 -0.03995446 -0.02097609 0.03995446 -0.005993169 0.044948768 -0.035959013 -0.017979506 0.014982923 -0.06093055 0.029965846

sequential_9/dense_20/MatMul i1 [500, 1000] scale=0.0008496074 zero_point=0
000000 e3 47 c2 0f 38 3e 0a 10 f5 48 28 08 b0 e8 3b c8
       -0.024638616 0.060322125 -0.052675657 0.012744111 0.047578014 0.052675657 0.008496074 0.013593718 -0.009345681 0.061171733 0.033984296 0.006796859 -0.06796859 -0.020390578 0.050126836 -0.047578014
000010 fb 3e 00 2d f1 07 ce d2 ff 0a 2d 38 3a e1 1b 36
       -0.004248037 0.052675657 0.0 0.038232334 -0.012744111 0.005947252 -0.042480372 -0.03908194 -0.0008496074 0.008496074 0.038232334 0.047578014 0.04927723 -0.026337828 0.022939399 0.045878798
000020 b7 c2 29 cc 07 d5 18 16 35 b1 e3 14 e8 41 4d 17
       -0.06202134 -0.052675657 0.034833904 -0.044179585 0.005947252 -0.036533117 0.020390578 0.018691363 0.045029193 -0.06711899 -0.024638616 0.016992148 -0.020390578 0.055224482 0.06541977 0.01954097
000030 38 09 f9 f1 06 ec 19 ce c8 f7 41 f9 28 c3 ed df
       0.047578014 0.0076464666 -0.005947252 -0.012744111 0.0050976444 -0.016992148 0.021240186 -0.042480372 -0.047578014 -0.0076464666 0.055224482 -0.005947252 0.033984296 -0.051826052 -0.01614254 -0.028037045
000040 0e 49 27 39 06 e2 cc 43 bc df 13 01 31 e4 fe 35
       0.011894504 0.06202134 0.033134688 0.048427623 0.0050976444 -0.025488222 -0.044179585 0.056923695 -0.057773303 -0.028037045 0.01614254 0.0008496074 0.041630764 -0.023789007 -0.0016992148 0.045029193
000050 dd f2 31 d1 07 19 db f1 16 3f 33 c5 d9 f2 2e 26
       -0.029736258 -0.011894504 0.041630764 -0.039931547 0.005947252 0.021240186 -0.031435475 -0.012744111 0.018691363 0.053525265 0.043329976 -0.050126836 -0.033134688 -0.011894504 0.03908194 0.03228508
000060 cb 23 b6 b1 cf 3a ad 43 24 2d 14 3b fc 27 15 e6
       -0.045029193 0.029736258 -0.06287095 -0.06711899 -0.041630764 0.04927723 -0.07051741 0.056923695 0.030585866 0.038232334 0.016992148 0.050126836 -0.0033984296 0.033134688 0.017841756 -0.022089792
000070 b9 f7 42 f4 c8 00 c8 c4 0b f7 1c 45 d8 dc c0 23
       -0.060322125 -0.0076464666 0.05607409 -0.010195289 -0.047578014 0.0 -0.047578014 -0.050976444 0.009345681 -0.0076464666 0.023789007 0.05862291 -0.033984296 -0.030585866 -0.054374874 0.029736258
000080 1f 25 df 24 bc bd 03 d4 0c f6 09 d6 ed c4 3a e0
       0.026337828 0.031435475 -0.028037045 0.030585866 -0.057773303 -0.056923695 0.0025488222 -0.037382726 0.010195289 -0.008496074 0.0076464666 -0.035683513 -0.01614254 -0.050976444 0.04927723 -0.027187437
000090 1f cd 1d 3e 2d eb c1 38 f0 cb e3 d9 2c 2a 1f fb
       0.026337828 -0.043329976 0.024638616 0.052675657 0.038232334 -0.017841756 -0.053525265 0.047578014 -0.013593718 -0.045029193 -0.024638616 -0.033134688 0.037382726 0.035683513 0.026337828 -0.004248037
0000a0 d2 4a ef d0 2d 39 3b 09 3a e8 e9 1c 23 c6 d8 c1
       -0.03908194 0.06287095 -0.014443326 -0.040781155 0.038232334 0.048427623 0.050126836 0.0076464666 0.04927723 -0.020390578 -0.01954097 0.023789007 0.029736258 -0.04927723 -0.033984296 -0.053525265
0000b0 34 0c 14 cc 43 dd 1e ce 1a ad 1e 2a cc d9 fd cf
       0.044179585 0.010195289 0.016992148 -0.044179585 0.056923695 -0.029736258 0.025488222 -0.042480372 0.022089792 -0.07051741 0.025488222 0.035683513 -0.044179585 -0.033134688 -0.0025488222 -0.041630764
0000c0 de cd 35 e5 13 fd 2c be 36 d4 23 36 26 da 1e 0e
       -0.028886652 -0.043329976 0.045029193 -0.022939399 0.01614254 -0.0025488222 0.037382726 -0.05607409 0.045878798 -0.037382726 0.029736258 0.045878798 0.03228508 -0.03228508 0.025488222 0.011894504
0000d0 3c c1 0c e2 24 17 f6 23 d1 c8 c2 af b9 b8 44 f6
       0.050976444 -0.053525265 0.010195289 -0.025488222 0.030585866 0.01954097 -0.008496074 0.029736258 -0.039931547 -0.047578014 -0.052675657 -0.0688182 -0.060322125 -0.061171733 0.057773303 -0.008496074
0000e0 2c ee 01 ca cb e9 32 e8 36 21 be 00 f3 e7 1e cd
       0.037382726 -0.015292933 0.0008496074 -0.045878798 -0.045029193 -0.01954097 0.042480372 -0.020390578 0.045878798 0.028037045 -0.05607409 0.0 -0.011044896 -0.021240186 0.025488222 -0.043329976
0000f0 21 43 1f c3 e7 b8 dc 29 34 b4 01 e2 ce 18 1f c5
       0.028037045 0.056923695 0.026337828 -0.051826052 -0.021240186 -0.061171733 -0.030585866 0.034833904 0.044179585 -0.06457016 0.0008496074 -0.025488222 -0.042480372 0.020390578 0.026337828 -0.050126836

sequential_9/dense_21/MatMul i1 [1, 500] scale=0.0008485768 zero_point=0
000000 ac ff a5 43 56 88 2b b1 40 06 d1 00 81 6d fe e8
       -0.07128045 -0.0008485768 -0.077220485 0.056854643 0.0729776 -0.101829216 0.0364888 -0.06703757 0.054308914 0.0050914604 -0.039883107 0.0 -0.10776925 0.09249487 -0.0016971536 -0.020365842
000010 fe 71 43 7d c7 16 b0 df d4 6b 4b 2c ed 17 fb 02
       -0.0016971536 0.09588917 0.056854643 0.1060721 -0.048368875 0.018668689 -0.067886144 -0.028003033 -0.037337378 0.090797715 0.06364326 0.037337378 -0.01612296 0.019517265 -0.004242884 0.0016971536
000020 f9 7a fd dd 06 ee 4e c3 ff f9 ba 4f c1 3d 1e ea
       -0.0059400373 0.10352637 -0.0025457302 -0.029700188 0.0050914604 -0.015274382 0.06618899 -0.051763184 -0.0008485768 -0.0059400373 -0.059400376 0.06703757 -0.053460337 0.051763184 0.025457304 -0.018668689
000030 9f 66 04 1b 11 c2 b3 20 01 a4 a2 bc 01 b7 ef a1
       -0.08231195 0.08655483 0.003394307 0.022911573 0.014425805 -0.05261176 -0.065340415 0.027154457 0.0008485768 -0.07806906 -0.079766214 -0.05770322 0.0008485768 -0.061946105 -0.014425805 -0.08061479
000040 d9 2f 52 b2 d1 7a 01 75 47 08 bc 04 ba 91 bc b2
       -0.033094496 0.039883107 0.0695833 -0.06618899 -0.039883107 0.10352637 0.0008485768 0.09928348 0.060248952 0.006788614 -0.05770322 0.003394307 -0.059400376 -0.09419202 -0.05770322 -0.06618899
000050 0c 2f 15 5b 14 46 72 90 6e 5e 8d 02 04 73 45 fd
       0.010182921 0.039883107 0.017820112 0.077220485 0.016971536 0.059400376 0.09673775 -0.0950406 0.093343444 0.079766214 -0.09758633 0.0016971536 0.003394307 0.09758633 0.058551796 -0.0025457302
000060 ba 2a 2b ce f7 06 b8 ca 9d 1e fe 9f 22 1b de 05
       -0.059400376 0.035640225 0.0364888 -0.04242884 -0.007637191 0.0050914604 -0.06109753 -0.045823146 -0.0840091 0.025457304 -0.0016971536 -0.08231195 0.02885161 0.022911573 -0.02885161 0.004242884
000070 54 c9 2d ff 33 b0 a0 af 60 1c 2e 0e 4c 8d 6c 17
       0.07128045 -0.046671722 0.038185954 -0.0008485768 0.043277416 -0.067886144 -0.08146337 -0.06873472 0.08146337 0.02376015 0.03903453 0.011880075 0.06449184 -0.09758633 0.09164629 0.019517265
000080 44 30 1c 0a 6a a3 06 9e 21 c0 f2 08 19 12 5e 16
       0.05770322 0.040731683 0.02376015 0.008485768 0.08994914 -0.07891764 0.0050914604 -0.08316053 0.028003033 -0.054308914 -0.011880075 0.006788614 0.02121442 0.015274382 0.079766214 0.018668689
000090 01 3b b2 a7 d4 e1 e2 cf 59 45 e5 51 b3 42 aa 5d
       0.0008485768 0.05006603 -0.06618899 -0.07552333 -0.037337378 -0.02630588 -0.025457304 -0.041580264 0.07552333 0.058551796 -0.022911573 0.06873472 -0.065340415 0.056006067 -0.0729776 0.07891764
0000a0 4f d6 05 11 9a 8e ff b2 4d 12 fd 38 6f dd 06 6c
       0.06703757 -0.035640225 0.004242884 0.014425805 -0.08655483 -0.09673775 -0.0008485768 -0.06618899 0.065340415 0.015274382 -0.0025457302 0.0475203 0.09419202 -0.029700188 0.0050914604 0.09164629
0000b0 d4 18 09 5a 16 00 fc cb b5 d1 01 3c c0 30 29 01
       -0.037337378 0.020365842 0.007637191 0.07637191 0.018668689 0.0 -0.003394307 -0.04497457 -0.06364326 -0.039883107 0.0008485768 0.050914608 -0.054308914 0.040731683 0.03479165 0.0008485768
0000c0 21 f7 50 d2 60 8b f9 56 a5 ec 79 41 06 56 18 f7
       0.028003033 -0.007637191 0.067886144 -0.03903453 0.08146337 -0.09928348 -0.0059400373 0.0729776 -0.077220485 -0.016971536 0.10267779 0.05515749 0.0050914604 0.0729776 0.020365842 -0.007637191
0000d0 fb 68 07 04 d6 cb e6 2f d1 49 3b f7 61 d0 fe 3e
       -0.004242884 0.088251986 0.0059400373 0.003394307 -0.035640225 -0.04497457 -0.022062996 0.039883107 -0.039883107 0.061946105 0.05006603 -0.007637191 0.08231195 -0.040731683 -0.0016971536 0.05261176
0000e0 97 55 94 8d a8 3a 0e 55 9a ff a7 a7 d4 c7 70 9f
       -0.08910056 0.072129026 -0.09164629 -0.09758633 -0.074674755 0.04921745 0.011880075 0.072129026 -0.08655483 -0.0008485768 -0.07552333 -0.07552333 -0.037337378 -0.048368875 0.0950406 -0.08231195
0000f0 df bb 09 c5 4e 16 3e 2e 03 43 93 27 40 75 a6 c5
       -0.028003033 -0.058551796 0.007637191 -0.05006603 0.06618899 0.018668689 0.05261176 0.03903453 0.0025457302 0.056854643 -0.09249487 0.033094496 0.054308914 0.09928348 -0.07637191 -0.05006603
