ann.tflite (tflite, 401372 bytes, 3 tensors)

dense_6/bias f4 [10000]
000000 7f 0b 19 bc 92 f0 59 3d e3 a8 40 3d 20 14 a3 3d
       -0.00934112 0.05320794 0.047036063 0.07962823
000010 5e d3 95 bd fb 9f 18 bd 00 00 00 00 48 6d 1a 3d
       -0.07315706 -0.037261944 0.0 0.037701875
000020 9a 7f aa 3a 8c f7 a7 bc 00 00 00 00 a0 59 ce bc
       0.0013007999 -0.020503782 0.0 -0.02518922
000030 5e 94 f5 bb 6c 99 92 bc 67 da 83 bd 57 11 bb 3a
       -0.0074944934 -0.017895423 -0.06438141 0.0014272135
000040 65 11 6e 3f 5f 99 f5 bc c2 76 a3 bd f3 76 92 3c
       0.9299529 -0.02998036 -0.07981636 0.017878985
000050 6f 66 a3 be 4d d3 1b 3e 5f 38 37 bc 44 78 f3 bb
       -0.31914088 0.15217324 -0.0111828735 -0.0074301083
000060 42 66 9f be 6a 28 25 3c 66 79 86 3c e7 30 88 bc
       -0.31132704 0.010080436 0.01641531 -0.016624881
000070 00 00 00 00 d7 97 cf bc 90 5d 9d bb 53 ab 4d bc
       0.0 -0.025340958 -0.0048024133 -0.012553054
000080 d9 b8 92 bd f2 81 bd bc a8 9a aa bb 01 08 68 bc
       -0.07164163 -0.023133252 -0.0052064247 -0.0141620645
000090 00 00 00 00 7b bd 97 be e5 61 0b bc 00 00 00 00
       0.0 -0.2963675 -0.008507227 0.0
0000a0 aa 58 f7 bc 6e 6c 98 bc 75 ee 53 3d b2 a9 1a bb
       -0.030193646 -0.01860639 0.051741082 -0.0023599681
0000b0 17 91 bd bc 5b 69 2b bb 00 00 00 00 00 00 00 00
       -0.023140473 -0.0026155326 0.0 0.0
0000c0 f9 bc 40 be aa 82 1a bb 01 aa 0a 3d 99 c1 b0 bb
       -0.18822087 -0.0023576417 0.033853535 -0.0053941724
0000d0 4d 3a b3 3e a7 d1 bc bc 25 88 ce bb 09 72 7a be
       0.35005417 -0.023049189 -0.006302851 -0.24457563
0000e0 46 65 91 be a0 7b de bd 86 5b 55 bd 85 92 61 bc
       -0.28397578 -0.10863423 -0.052089237 -0.013767843
0000f0 56 72 43 bc 94 69 33 bc 86 e4 c3 bb e5 8e 25 be
       -0.011929115 -0.010950465 -0.00597817 -0.16167791
000100 ed 04 2f bd 47 d0 d1 bd a2 e7 ff bc 62 2b 42 bd
       -0.042729307 -0.10244804 -0.03123838 -0.047404654
000110 10 01 35 bc 6e 67 07 3b ab 7d 94 bd c9 81 2c bc
       -0.011047617 0.0020661014 -0.07250532 -0.01052899
000120 ec 49 bb bc 21 19 39 ba e7 a5 13 bd 69 ab 7e bc
       -0.022862397 -0.00070609344 -0.03604689 -0.015543797
000130 00 35 f4 bc 08 1d a9 b9 00 00 00 00 dc f9 b1 bb
       -0.029810429 -0.00032255822 0.0 -0.005431397
000140 e0 6d 40 bc 00 2f bc 3d 55 4a c0 bc 5a 09 1d bb
       -0.011744946 0.09188652 -0.023472944 -0.0023961873
000150 0f 90 23 bd e0 fd 67 be e7 4c cb 3b b5 0c d4 bb
       -0.039932307 -0.2265544 0.006204236 -0.0064712414
000160 82 6b 25 bb b8 4d 21 bc 9e 59 8a bc 7d 6c e2 bc
       -0.0025241082 -0.00984519 -0.016888436 -0.027639622
000170 91 89 57 bc 40 33 ad be 49 c7 a4 bd 6a c1 1c be
       -0.013155357 -0.33828163 -0.08045823 -0.15308157
000180 00 00 00 00 68 81 9a bc 02 af 77 bc 82 07 41 bc
       0.0 -0.018860534 -0.015117409 -0.011781575
000190 ae 21 dd bb 89 91 24 bc 5f c6 57 bc e2 d8 89 bc
       -0.0067483997 -0.010044464 -0.013169854 -0.01682705
0001a0 ba dc 9a be 2e 76 a1 bb cb 15 28 bc 02 3a 9a 3e
       -0.30246526 -0.004927418 -0.010259102 0.3012238
0001b0 61 ad b3 bc 98 87 c4 bb eb 8c 8b bd a1 18 91 bc
       -0.02193326 -0.0059976093 -0.06813987 -0.01771194
0001c0 a4 3e f7 ba e5 64 c3 3d 55 35 35 3d 8e 48 26 bd
       -0.0018863273 0.095407285 0.044240315 -0.040596537
0001d0 44 36 dd 3c 9d d1 a7 bc 6e bc 3a be 1c cb d5 3e
       0.027003415 -0.020485694 -0.18235943 0.41756523
0001e0 1b 76 f1 be ae 33 42 bc 00 00 00 00 99 b5 5e bc
       -0.4716042 -0.011853142 0.0 -0.013593101
0001f0 86 d4 67 bc c5 39 24 3e 3c 4e 14 bd 6f 6f 68 3e
       -0.014149791 0.16037662 -0.036207423 0.22698759
000200 83 e6 e4 ba e4 27 d8 bd 70 49 c4 bb 81 b9 d7 bb
       -0.0017463717 -0.105544835 -0.0059901997 -0.006583393
000210 f0 dd df bc c8 8d 45 bc db 8a 64 bb 60 cf bc bb
       -0.027327508 -0.012057729 -0.0034872803 -0.0057620257
000220 7b a3 eb bc 00 00 00 00 f1 84 c7 bc 86 46 0b 3e
       -0.028764477 0.0 -0.024355384 0.13601121
000230 e8 6e 17 bc 1a 08 45 3e 90 79 a3 bb b7 9e 5c be
       -0.009242751 0.19241372 -0.0049888566 -0.2154492
000240 8e 34 71 be b2 f8 b0 be fe 24 21 bd d2 01 90 bd
       -0.23555204 -0.3456474 -0.03934192 -0.07031597
000250 ca 04 00 3c 4a 2e 4e bb 31 d7 52 bd 56 b1 bc 3d
       0.007813642 -0.0031460696 -0.051474754 0.09213512
000260 6c 59 94 3e 39 1b b8 3b 00 00 00 00 e9 83 25 3c
       0.28974473 0.0056184796 0.0 0.010102251
000270 00 22 5f 3b 46 73 b0 bd 84 0e 0e be 9c 03 a2 ba
       0.0034047365 -0.08615737 -0.13872725 -0.0012360695
000280 ac 8a 04 3d 05 a7 85 bd a6 f8 23 bc 2d 6f eb bb
       0.03235881 -0.06525997 -0.010008013 -0.007184884
000290 17 6d c5 bb 32 0d 8e bd ec 0d 35 bc bb 93 00 3e
       -0.0060249674 -0.069361106 -0.0110506825 0.12556355
0002a0 60 67 87 bb b7 2e 21 bc 55 74 7d bb 91 c1 bd bb
       -0.0041321963 -0.009837798 -0.0038674076 -0.005790897
0002b0 00 00 00 00 00 00 00 00 b5 a4 77 bd ce bc 44 3d
       0.0 0.0 -0.06045981 0.04803162
0002c0 4a ba e5 bb 42 82 9b bc e5 8f 96 bc 6d 97 11 3c
       -0.007010733 -0.01898301 -0.018379161 0.0088862
0002d0 10 fd 79 bc 73 69 89 bc 95 c0 05 3c 85 0d 0a bc
       -0.015258089 -0.016773915 0.008163591 -0.008426075
0002e0 1f 48 e9 bd 26 0a 17 3d f9 a2 11 bc 5c 56 9f bc
       -0.11390709 0.036874913 -0.008888953 -0.019450359
0002f0 f0 ec 68 bc 12 a1 d7 bb 00 00 00 00 bf 9f 28 bc
       -0.014216647 -0.0065804804 0.0 -0.010291993
000300 e6 93 3d bc 0c 37 03 be 10 78 2e 39 25 29 79 3b
       -0.011570906 -0.12813967 0.0001663866 0.0038018909
000310 10 90 ce 3a b3 65 04 bc 0c d2 08 bc 00 00 00 00
       0.0015759487 -0.008080888 -0.00835086 0.0
000320 99 95 1a bd ed 70 64 bc b1 b2 4d bd 00 00 00 00
       -0.037740324 -0.013942939 -0.05021924 0.0
000330 65 e4 1f bd b2 ff 60 bc 16 ba 4c bb 55 94 22 bb
       -0.039036173 -0.0137328375 -0.0031238846 -0.002480765
000340 c4 15 48 bc 31 c9 f3 3c a9 77 15 bb cb c1 b0 bd
       -0.012212221 0.029759021 -0.0022806919 -0.08630713
000350 30 4e ad bc eb cc f6 bc db a0 47 be d0 c1 46 bd
       -0.021155447 -0.03012701 -0.19494955 -0.048524678
000360 96 80 9f 3d d4 03 7c bd 22 21 a9 3d 2c 73 c5 bc
       0.07788198 -0.06152709 0.08258273 -0.02410277
000370 52 48 9f 3b 57 04 18 3d 51 eb b3 bb ff 69 28 bb
       0.004860916 0.037113514 -0.0054906984 -0.0025697944
000380 90 8f 1b 3c 9f 69 c4 bb 9e 02 9b 3d 02 fb 8d bc
       0.009494677 -0.0059940363 0.075688586 -0.017331604
000390 46 25 2a 3c 72 79 50 bd 5c 79 24 bb 00 00 00 00
       0.010384863 -0.05089707 -0.002509675 0.0
0003a0 9c a9 06 3e 4a 29 5c 3b 54 9b 4b 3a 08 2c a4 be
       0.13150638 0.0033593946 0.0007766981 -0.32064843
0003b0 83 16 c4 bb d9 3a 14 bc a0 c1 35 3c 42 fe ff bd
       -0.005984129 -0.0090472335 0.011093527 -0.12499668
0003c0 14 24 20 bd f4 ba 32 bd a7 66 5c bc 84 db f5 bb
       -0.039096907 -0.043635324 -0.013452209 -0.007502975
0003d0 bd de 7b bc 00 00 00 00 23 0e 09 bc a3 b2 57 bc
       -0.015372929 0.0 -0.008365187 -0.013165149
0003e0 93 a1 5a be d1 33 21 bd 06 0d d8 bb e3 aa 53 bd
       -0.21350698 -0.039356057 -0.0065933494 -0.051676642
0003f0 36 6f 9d bc 4b 7c 45 3c 95 2d 72 b9 ae 13 84 3c
       -0.019218069 0.0120535595 -0.00023095899 0.016122665

sequential_2/dense_6/MatMul f4 [10000, 8]
000000 f3 b3 67 3c 1a 3b de bc de 04 a2 3a f8 02 72 bc
       0.014142024 -0.027127791 0.001236107 -0.014771216
000010 64 a7 77 ba 7a 92 95 bc cf 84 c7 bc 5f d8 4d ba
       -0.00094472454 -0.018258322 -0.02435532 -0.0007852371
000020 f3 42 4a bd 53 6c 5a bc 26 01 41 3c 7e 35 de bb
       -0.049380254 -0.013331491 0.011780059 -0.006781279
000030 ce 94 b7 bc 9e d6 27 bc 32 be 6a bd 0a db 4b bc
       -0.022409823 -0.01024404 -0.05731029 -0.01244236
000040 86 fe 6b bd cd 23 1e bc 28 a0 d6 bc 0c 42 36 b9
       -0.05761578 -0.00965209 -0.026199415 -0.00017381477
000050 b3 ef ac bc d3 fc 60 bc 78 c6 5b bc 03 55 bd 3c
       -0.021110391 -0.013732153 -0.013414018 0.023111826
000060 ba aa 9c bd 39 19 65 bd 38 7f 7c 3c 23 3a 63 3d
       -0.07649751 -0.055932257 0.015411191 0.055475365
000070 6e 8d 24 bb b8 d5 20 bd fa f6 d3 bd c9 a9 80 bd
       -0.0025108713 -0.039266318 -0.103498414 -0.06282384
000080 13 b5 53 bc 72 9c 35 bb c7 5f 03 bd 51 30 6d bc
       -0.012921589 -0.0027711657 -0.032073762 -0.014476852
000090 de 3b 0f 3b 6a c2 30 3c ff ae a9 bc 90 2c ac bb
       0.0021855752 0.010788539 -0.020713327 -0.0052543357
0000a0 ed 68 84 bd 17 98 db 3a 72 a0 b9 bc 52 7c 05 bd
       -0.064653255 0.00167537 -0.022659514 -0.032589264
0000b0 f4 a0 58 3a 6d 53 30 3c a6 3e 38 bb fe 35 2d bd
       0.000826373 0.010762078 -0.0028113513 -0.04228782
0000c0 5a 58 6e 3c f3 d9 17 bc 58 07 92 bc 3a d2 c2 bc
       0.014547432 -0.009268272 -0.017825767 -0.023781884
0000d0 92 ad 3f bc 42 cf 6c 3c f7 17 63 bc b6 50 00 3c
       -0.011699097 0.014453711 -0.013860694 0.007831743
0000e0 83 ce 77 bd 5f 92 ba 3a ff 9e 73 3b 57 b8 7c bc
       -0.06049968 0.0014234296 0.0037173626 -0.015424809
0000f0 ef 6e 5a bb b3 34 91 bc a3 d6 7e bd 14 20 8b bc
       -0.0033330282 -0.017725324 -0.062216412 -0.01698307
000100 d6 a7 30 bd 1a 42 87 bc 31 e5 ec ba 73 86 c9 bc
       -0.04312881 -0.016511012 -0.0018073675 -0.024600243
000110 8c f7 ae 3b 1e c6 9e 3a f8 b2 75 3c 50 d7 4e bd
       0.0053395685 0.0012113487 0.014996283 -0.050498307
000120 9f 14 65 bc 93 48 7e bc 00 0d 5f ba b4 60 cd bc
       -0.013981967 -0.015520233 -0.0008508712 -0.025070526
000130 ea ce 96 3b b3 0d 38 3c ec d1 f2 3a 2c 54 35 bc
       0.004602303 0.011233735 0.0018525696 -0.011067431
000140 5c a8 e8 3b 9b d8 61 bc 20 dc 65 bc 20 f1 53 3b
       0.007100148 -0.013784553 -0.014029533 0.0032339767
000150 78 e8 f7 bb a0 1a 84 ba 10 d0 84 bb d7 e6 4e bc
       -0.007565554 -0.0010078736 -0.0040531233 -0.012628279
000160 be 95 07 3d a0 c8 af bc f7 40 0a bd 62 eb 97 bc
       0.03310179 -0.02145797 -0.03375336 -0.018544856
000170 d7 7d d8 3b 8c 69 f0 bc fe 6b 8a bd 58 a3 64 3c
       0.006606798 -0.029347204 -0.06758879 0.01395496
000180 17 c1 76 bc 92 a9 86 bc 21 12 e5 bc 09 f2 cd bb
       -0.015060685 -0.01643828 -0.027962746 -0.0062849564
000190 cb ca 94 3a 7b da 1c 3c be df a1 bc 63 11 87 bc
       0.0011351941 0.009573574 -0.019760009 -0.016487783
0001a0 e3 48 db bc 9a 8b 48 3b 17 69 28 3b a1 4e 0c bd
       -0.026768154 0.0030600787 0.0025697404 -0.034254674
0001b0 42 48 4d 3a 1f 48 0f bc 87 f4 19 ba af 72 13 bd
       0.00078308966 -0.008745222 -0.0005872924 -0.035998043
0001c0 3a 04 b5 3c 4d 00 37 bc 07 be 53 3a 1b e9 93 3b
       0.022096742 -0.011169505 0.00080773275 0.0045138723
0001d0 03 c3 40 3a f3 c1 ff 3a 42 47 0b 3d d1 e6 d8 bc
       0.0007353278 0.0019512757 0.034003504 -0.02647725
0001e0 06 7b 55 bc 12 ca 97 bb f7 6c 9c bc 25 2f 91 bb
       -0.013029819 -0.004632243 -0.019094927 -0.004430669
0001f0 38 f9 9d bc 81 99 87 bc de fa 37 38 ce f9 75 3c
       -0.019283876 -0.016552689 4.386424e-05 0.015013171
000200 9f e0 29 be 80 11 a1 bc 72 b1 bb 3d 22 b0 ec bb
       -0.16589592 -0.019661665 0.091647044 -0.007223145
000210 74 cd 55 bc 2b 0a 37 bc 82 a7 c3 be 79 dd ba bd
       -0.013049472 -0.011171858 -0.38213736 -0.09124274
000220 8f 77 20 bd d0 c3 aa bb a3 09 bc 3a 3d 8a 69 bb
       -0.03917652 -0.005211331 0.0014346134 -0.0035635375
000230 67 a7 d2 bb e3 a9 bf bc fd c5 e2 bc 7d f5 73 bc
       -0.0064286473 -0.023396438 -0.027682299 -0.014890072
000240 69 cb dd bc b0 51 82 3b eb 9f b0 bc e6 f9 5d bc
       -0.027074533 0.003977023 -0.02156063 -0.01354835
000250 89 c3 38 bb a3 79 3d 3c 10 67 59 3c fc a5 15 bd
       -0.002819272 0.011564645 0.013269201 -0.03653525
000260 e6 69 1e bd 31 98 da 3a d9 e6 88 3b a5 b4 9f 3a
       -0.03867521 0.0016677437 0.00417791 0.0012184574
000270 cb 2b 06 bc 8c cc 13 bd da 27 2e bd b1 a5 d0 bc
       -0.008189152 -0.036083743 -0.042518474 -0.025469633
000280 a3 92 bc 3d d6 69 f0 3b ec af dd bc a8 c0 35 3b
       0.09207656 0.0073368354 -0.027061425 0.002773324
000290 a6 55 f0 bc 52 92 c7 3c f8 20 3e 3e 56 7e 96 bd
       -0.029337715 0.024361763 0.18567264 -0.073483154
0002a0 b0 fa ac bd 86 9d 44 bc 3d ed 7d 3c ba 97 e3 3c
       -0.08446252 -0.012000447 0.015498457 0.02778231
0002b0 d7 fc 59 bc cf 5c e7 bc 34 f1 ce bd 15 37 64 bc
       -0.013304911 -0.028242497 -0.101045996 -0.013929148
0002c0 a9 16 40 3c 24 2c e6 bc 11 06 42 bc 04 7e 01 3c
       0.011724153 -0.02809722 -0.011842267 0.00790358
0002d0 5c 8b 1f bc 3c 25 ca 3b a7 b9 28 bc 2c 2c 74 bc
       -0.009737816 0.0061689895 -0.010298169 -0.0149031095
0002e0 0c e9 ca bc f0 97 88 bc 59 b4 c0 bc 6a 73 6f bc
       -0.024769329 -0.016674012 -0.023523496 -0.014614919
0002f0 36 82 a2 3b 1e eb e2 bc f9 6d f0 bc 29 28 db bc
       0.00495937 -0.027700003 -0.029349314 -0.026752548
000300 a9 bc 18 3e 46 b0 88 3b 28 c3 0b bd e9 79 75 bb
       0.14915718 0.004171404 -0.034121662 -0.0037456697
000310 08 57 18 bc 7b cd bd bc 6b 45 de 3d 97 92 c7 bc
       -0.009298094 -0.02316927 0.10853084 -0.024361892
000320 94 20 87 bc a1 8c 47 3b be 6a 9f bc 69 c0 cb 3b
       -0.016495027 0.0030448812 -0.019460078 0.0062180054
000330 2d a0 f5 bc 90 18 6c bc 42 37 90 bc 4c 66 80 bc
       -0.029983604 -0.014410153 -0.017604474 -0.015673779
000340 d1 a7 eb bb 72 75 5f 3b 73 7a 84 bc 6a e3 f2 bc
       -0.007191636 0.0034097102 -0.01617167 -0.029649455
000350 ac ff af bb 19 c0 24 bd fc 63 80 3b 69 f7 80 bc
       -0.0053710546 -0.04022226 0.003918169 -0.015742974
000360 35 77 01 bd eb 2e 1e bb db 33 ba bb 74 4f 0a bd
       -0.031607825 -0.0024136852 -0.005682451 -0.03376718
000370 f8 80 53 bb 26 c2 f6 3b cf 7f ba bc 85 61 72 b8
       -0.0032272916 0.0075304685 -0.022766022 -5.778812e-05
000380 9a 6b 2b bc 5f 5a 33 bc 51 22 80 bc c0 58 88 bb
       -0.010462666 -0.010946839 -0.015641363 -0.0041609704
000390 08 f8 d9 bb 90 8f 3e bc aa b6 7c 3c a7 ef 80 3c
       -0.006651882 -0.011630908 0.01542441 0.015739275
0003a0 b1 42 29 3c 08 7d 32 bb 65 64 b5 ba a3 ed 1d 3c
       0.010330842 -0.002723517 -0.0013839124 0.009639177
0003b0 93 6d 9c bc 7c 07 06 bc 2d ea c4 3b 46 0b 86 ba
       -0.019095218 -0.008180495 0.0060093612 -0.0010226748
0003c0 be 2f 45 3c b9 7e 32 bc d5 5a 97 bc b8 0e 5a bc
       0.012035308 -0.010894471 -0.01847593 -0.013309173
0003d0 a9 f5 56 3b 75 1d 79 3c 26 d4 36 bc 41 c0 c3 bc
       0.0032800233 0.015204777 -0.011158979 -0.023895385
0003e0 92 ff f8 3b f4 c8 fa bc 74 5d a9 ba fa 24 b6 bc
       0.0075988257 -0.0306134 -0.0012921528 -0.022234429
0003f0 20 10 06 bc b2 93 fe b9 73 bb 0c bc d8 f1 0b bc
       -0.008182555 -0.00048556697 -0.008589613 -0.008541547

sequential_2/dense_7/MatMul f4 [1, 10000]
000000 c6 13 3d bc a9 f6 35 bb b6 70 a3 3b 37 6c 12 3d
       -0.011540359 -0.002776543 0.0049878014 0.035747733
000010 5b c3 8f 37 f9 d3 34 3b 01 01 1c bc ed 65 c8 ba
       1.7137898e-05 0.0027592166 -0.009521724 -0.0015289165
000020 39 bb 01 bb 45 23 77 ba 18 e6 5b 3b 54 c8 fa 3b
       -0.0019795431 -0.0009427558 0.0033553895 0.0076532755
000030 6d 25 af 3b 8f 27 4b ba 78 99 87 39 84 6c c4 ba
       0.0053450377 -0.000774973 0.0002586355 -0.0014985953
000040 eb 64 c3 bc 10 81 2f 3a b6 2e 81 3b 57 a3 68 3b
       -0.023851832 0.0006694952 0.003942336 0.0035497749
000050 b6 1d 82 bb f7 ad b4 bb 53 70 3b bc ec 12 eb ba
       -0.003970827 -0.0055139023 -0.011440354 -0.0017934716
000060 36 e0 31 3c 61 1e 2a bb b5 d4 02 bc 7e cd dd 39
       0.010856679 -0.0025958049 -0.007985284 0.00042305508
000070 8f 18 ac bc d5 04 1e 3a 09 d3 66 ba 7e e7 61 3a
       -0.021007804 0.00060279417 -0.00088052504 0.0008617564
000080 4f bd b6 ba fc 96 44 ba 01 f1 39 3b e7 12 cd 3a
       -0.0013941916 -0.0007499305 0.002837241 0.0015645892
000090 66 16 36 bc 9a b8 4e 3b 19 fe 28 3b a6 70 a1 bc
       -0.011113739 0.0031543137 0.002578622 -0.019707035
0000a0 ff 1d f1 b9 c1 ea 59 3a 33 27 8b bc 3a 3f be 3b
       -0.0004598945 0.0008312874 -0.016986465 0.005805877
0000b0 dc 2a e0 3b ae 30 12 ba 8c 65 34 3c ca 92 a0 bc
       0.0068410467 -0.0005576712 0.011010539 -0.019601244
0000c0 ca 77 f9 3b a7 4f 39 3b 7b 9f a2 bb 3a 58 8f 3c
       0.007613157 0.0028276236 -0.004962859 0.017498124
0000d0 38 7e 16 bd 78 35 c3 3b a6 51 28 3b 8d 2e b1 3d
       -0.036741465 0.0059573017 0.0025683432 0.08651457
0000e0 91 a7 f2 3b e4 a4 be 3b 3b 0d 81 3b 2c 31 4f 39
       0.0074052294 0.0058179963 0.003938345 0.00019759376
0000f0 f6 e2 d8 3a bb c0 06 39 c5 d2 8c bb ba 3c 45 3c
       0.0016547132 0.00012851034 -0.0042975866 0.012038404
000100 2d 07 63 3c 4b 6c 4a 3b 9b 61 1e 3b 8a 3e 07 bc
       0.013856691 0.0030887302 0.0024167064 -0.008254657
000110 ba 77 cd b9 ec f4 b8 bc 92 81 66 ba 29 e0 88 b8
       -0.0003918985 -0.022577725 -0.0008793111 -6.5267384e-05
000120 e7 59 44 3c 62 ea e7 3b 62 d2 17 3a 2b b5 24 3c
       0.011984325 0.007077501 0.00057915424 0.010052959
000130 98 fc 8c 3a 16 51 a7 bc c4 b7 a4 3b 17 d1 85 ba
       0.0010756431 -0.020424407 0.0050267894 -0.0010209408
000140 2a c2 69 bb 9e 67 03 ba 3a be 18 bb 5f 87 60 39
       -0.003566871 -0.00050126936 -0.0023306743 0.00021412734
000150 ea 6d 29 3a 58 f9 68 3c 77 66 22 3a ad 56 dd 3b
       0.0006463217 0.014219604 0.0006195078 0.0067547173
000160 26 0e 78 ba ba e5 3c 3a 03 b8 c4 3a 8a 45 4e 3b
       -0.00094625575 0.0007205863 0.0015008453 0.0031474554
000170 4d 1c 89 b9 3d 3c 54 3c b7 7f 04 3b 8f 3e 8b 3a
       -0.00026151762 0.012953815 0.0020217726 0.0010623502
000180 70 60 80 ba 81 11 88 38 2e e9 7a bb 78 bd 87 3a
       -0.0009794366 6.488246e-05 -0.0038285959 0.0010356149
000190 02 06 d4 3b b1 9e 0f bb 86 8d a4 3a 6f 00 cf 39
       0.0064704427 -0.0021914656 0.0012554384 0.0003948244
0001a0 b7 60 26 bc 8d 49 94 bc 0b cf 59 bc f6 c0 e7 bb
       -0.010154895 -0.018101478 -0.013293992 -0.0070725633
0001b0 f1 bb eb 39 8c 61 9c 3b b2 fc 01 bd 9b 9f d0 39
       0.0004496272 0.0047723707 -0.03173513 0.00039791767
0001c0 4c 1d 06 3c ac 99 09 bc 01 32 73 3b 59 1f 72 3b
       0.008185696 -0.008398455 0.0037108662 0.0036944954
0001d0 8c 3a 16 bc 8f 31 6b 3a b2 54 06 3b bf 34 a2 bb
       -0.009169232 0.00089719234 0.002049726 -0.0049501355
0001e0 b1 be 36 3b 60 7d 59 bc d1 94 b4 bc 97 ce da 3b
       0.0027884657 -0.013274521 -0.022043617 0.0066774595
0001f0 af c3 69 bb 01 19 b4 bb c8 de ba b9 63 7c 4e 3c
       -0.0035669615 -0.0054961448 -0.0003564267 0.012602898
000200 f3 98 bd 3a c6 22 3a 3c c2 76 8f 3c ee 98 be 3b
       0.0014465138 0.01136083 0.017512683 0.0058165705
000210 b0 12 d3 ba 5b b9 5c 3b ce 0e 7b bb ed 28 03 bc
       -0.0016103592 0.0033679816 -0.0038308385 -0.008005363
000220 e5 34 03 b8 14 99 c0 bb f5 8f 8f b9 d5 5b e6 3a
       -3.1282096e-05 -0.0058776233 -0.00027382342 0.0017574975
000230 ab 6d 79 3a fa 04 9b bb d2 8c 50 bc f9 72 8c 3b
       0.0009514938 -0.004730818 -0.012728887 0.0042861667
000240 bc 6e 15 3c da 8d e6 3a 52 8f 25 3b 9f c3 aa bc
       0.009120639 0.0017589882 0.0025262428 -0.020845233
000250 d5 e4 84 bb eb d2 1e 3b da 84 1e 3c cb 57 a3 ba
       -0.004055599 0.0024234604 0.009675229 -0.0012462077
000260 d2 6a 1a bc 7f b4 fa b9 b6 df 52 bc 5a 39 62 bb
       -0.009424882 -0.00047818196 -0.01287072 -0.0034519047
000270 3e 26 be 3a 3f 00 5f 3a db 61 b2 3a 6d 5f 92 3c
       0.0014507247 0.00085068116 0.0013609485 0.017867768
000280 4d 3c 67 b8 7c fb f7 3a d3 67 57 ba d9 4e 2f 3b
       -5.513085e-05 0.0018919553 -0.000821707 0.0026749878
000290 dd c7 9f 3b 44 e7 ba 3b 82 e7 58 b8 77 19 b3 bb
       0.0048761205 0.0057038385 -5.171402e-05 -0.005465682
0002a0 9d 1d f9 3a 33 2f ff bb 4f a2 6e 3b 32 3e 3c 38
       0.0019006018 -0.007787609 0.0036412661 4.4880617e-05
0002b0 e8 3b a3 3c a0 a1 10 bb 30 d5 a9 bb 75 88 02 3c
       0.019926026 -0.0022068992 -0.0051828846 0.007967104
0002c0 e9 5b 6b 3c f8 10 cf 39 03 56 99 3c 6f 09 5f bb
       0.014365175 0.0003949476 0.018717771 -0.0034032722
0002d0 f1 9b 88 3b 30 ea 4f 3a 1f 12 12 ba e8 2f ca 3a
       0.0041689803 0.000793132 -0.0005572158 0.0015425654
0002e0 43 b0 fd 3a 73 b7 ed ba a6 45 5f 3c c1 48 f9 3b
       0.0019354898 -0.0018136337 0.013627445 0.00760755
0002f0 c4 97 09 3a d1 b9 da 39 ec bf 75 3c 6f 00 2c 3b
       0.000524875 0.00041718644 0.014999371 0.0026245376
000300 dc 23 82 3a 3e 23 b2 3b fe ad 5b ba 85 15 13 bb
       0.00099289 0.00543633 -0.0008380114 -0.0022443247
000310 d4 e7 d6 ba 56 33 66 ba a7 71 d5 bb 94 26 44 3c
       -0.0016395994 -0.00087814534 -0.0065137926 0.011972088
000320 13 58 71 bb 24 4f 07 3c 62 ee be 38 74 52 f5 bb
       -0.0036826178 0.008258615 9.104308e-05 -0.007486636
000330 44 87 04 3c a1 0e c2 b7 6c 22 cb bb ac 08 9a bb
       0.00808889 -2.3133414e-05 -0.0061991718 -0.004700741
000340 71 90 ca b9 d7 14 16 39 3d a6 02 bb 16 cb b8 3a
       -0.0003863606 0.00014312878 -0.0019935512 0.001409861
000350 f2 7e 9e b9 e8 36 0a ba a7 f8 be 39 86 c0 54 bb
       -0.0003023069 -0.0005272464 0.00036424884 -0.0032463386
000360 40 6a 04 bb 1c 82 2a 3b 0b dd 27 bc ee 91 3e 3a
       -0.0020204931 0.0026017493 -0.010245572 0.000726967
000370 5c 6e 29 bb 61 90 0d b9 df f6 a7 bc da e1 02 bc
       -0.0025853133 -0.00013500593 -0.02050346 -0.0079884175
000380 5d e1 3b 3b e8 93 12 3c 89 c0 d8 3a 7d 2b c8 3a
       0.0028668263 0.008946396 0.0016536872 0.001527175
000390 09 3d ce 3a 51 e3 08 3c de 21 dd bb c4 2f 7d bc
       0.0015734743 0.008354978 -0.006748422 -0.015453283
0003a0 ce ad 73 3c 10 79 01 ba 40 14 72 bb 4a 2c c3 3c
       0.014872981 -0.0004938999 -0.003693834 0.02382483
0003b0 49 bc f2 3b d9 60 8a b9 97 18 f6 ba ae 22 ba bb
       0.0074076992 -0.00026393568 -0.0018775639 -0.0056804037
0003c0 d3 fe 11 3a 47 a4 1c 3c 1b ec 0d ba 43 7a 38 3c
       0.0005569283 0.009560651 -0.00054139056 0.011259618
0003d0 1f 64 fe 39 d4 d2 8d 3b cf a2 86 3c eb 3e 01 bc
       0.0004852125 0.004328111 0.016435055 -0.007888536
0003e0 49 85 c0 bb e5 13 ec 3b 19 b9 f0 3b af 47 21 3b
       -0.005875264 0.00720452 0.007346284 0.0024609377
0003f0 1e d0 d0 3a 0e 9b b0 bb 5d 1a d6 3a ee ce 88 3a
       0.0015931164 -0.0053895777 0.0016334761 0.0010437646
