ann_quant.tflite (tflite, 131960 bytes, 2 tensors)

sequential_2/dense_6/MatMul i1 [10000, 8] scale=0.0054300684 zero_point=0
0.016290205 -0.027150342 0.0 -0.016290205 0.0 -0.016290205 -0.021720273 0.0
-0.048870616 -0.010860137 0.010860137 -0.0054300684 -0.021720273 -0.010860137 -0.059730753 -0.010860137
-0.059730753 -0.010860137 -0.027150342 0.0 -0.021720273 -0.016290205 -0.010860137 0.021720273
-0.076020956 -0.054300684 0.016290205 0.054300684 0.0 -0.038010478 -0.1031713 -0.06516082
-0.010860137 -0.0054300684 -0.03258041 -0.016290205 0.0 0.010860137 -0.021720273 -0.0054300684
-0.06516082 0.0 -0.021720273 -0.03258041 0.0 0.010860137 -0.0054300684 -0.043440547
0.016290205 -0.010860137 -0.016290205 -0.021720273 -0.010860137 0.016290205 -0.016290205 0.0054300684
-0.059730753 0.0 0.0054300684 -0.016290205 -0.0054300684 -0.016290205 -0.059730753 -0.016290205
-0.043440547 -0.016290205 0.0 -0.027150342 0.0054300684 0.0 0.016290205 -0.048870616
-0.016290205 -0.016290205 0.0 -0.027150342 0.0054300684 0.010860137 0.0 -0.010860137
0.0054300684 -0.016290205 -0.016290205 0.0054300684 -0.0054300684 0.0 -0.0054300684 -0.010860137
0.03258041 -0.021720273 -0.03258041 -0.016290205 0.0054300684 -0.027150342 -0.06516082 0.016290205
-0.016290205 -0.016290205 -0.027150342 -0.0054300684 0.0 0.010860137 -0.021720273 -0.016290205
-0.027150342 0.0054300684 0.0 -0.03258041 0.0 -0.010860137 0.0 -0.038010478
0.021720273 -0.010860137 0.0 0.0054300684 0.0 0.0 0.03258041 -0.027150342
-0.010860137 -0.0054300684 -0.021720273 -0.0054300684 -0.021720273 -0.016290205 0.0 0.016290205
-0.16833211 -0.021720273 0.09231116 -0.0054300684 -0.010860137 -0.010860137 -0.38010478 -0.09231116
-0.038010478 -0.0054300684 0.0 -0.0054300684 -0.0054300684 -0.021720273 -0.027150342 -0.016290205
-0.027150342 0.0054300684 -0.021720273 -0.010860137 -0.0054300684 0.010860137 0.010860137 -0.038010478
-0.038010478 0.0 0.0054300684 0.0 -0.010860137 -0.038010478 -0.043440547 -0.027150342
0.09231116 0.0054300684 -0.027150342 0.0054300684 -0.027150342 0.021720273 0.18462232 -0.076020956
-0.08688109 -0.010860137 0.016290205 0.027150342 -0.010860137 -0.027150342 -0.1031713 -0.016290205
0.010860137 -0.027150342 -0.010860137 0.0054300684 -0.010860137 0.0054300684 -0.010860137 -0.016290205
-0.027150342 -0.016290205 -0.021720273 -0.016290205 0.0054300684 -0.027150342 -0.027150342 -0.027150342
0.14661184 0.0054300684 -0.03258041 -0.0054300684 -0.010860137 -0.021720273 0.10860137 -0.021720273
-0.016290205 0.0054300684 -0.021720273 0.0054300684 -0.03258041 -0.016290205 -0.016290205 -0.016290205
-0.0054300684 0.0054300684 -0.016290205 -0.027150342 -0.0054300684 -0.038010478 0.0054300684 -0.016290205
-0.03258041 0.0 -0.0054300684 -0.03258041 -0.0054300684 0.0054300684 -0.021720273 0.0
-0.010860137 -0.010860137 -0.016290205 -0.0054300684 -0.0054300684 -0.010860137 0.016290205 0.016290205
0.010860137 -0.0054300684 0.0 0.010860137 -0.021720273 -0.010860137 0.0054300684 0.0
0.010860137 -0.010860137 -0.016290205 -0.010860137 0.0054300684 0.016290205 -0.010860137 -0.021720273
0.0054300684 -0.03258041 0.0 -0.021720273 -0.010860137 0.0 -0.010860137 -0.010860137
00000000: 03fb 00fd 00fd fc00 f7fe 02ff fcfe f5fe
00000010: f5fe fb00 fcfd fe04 f2f6 030a 00f9 edf4
00000020: feff fafd 0002 fcff f400 fcfa 0002 fff8
00000030: 03fe fdfc fe03 fd01 f500 01fd fffd f5fd
00000040: f8fd 00fb 0100 03f7 fdfd 00fb 0102 00fe
00000050: 01fd fd01 ff00 fffe 06fc fafd 01fb f403
00000060: fdfd fbff 0002 fcfd fb01 00fa 00fe 00f9
00000070: 04fe 0001 0000 06fb feff fcff fcfd 0003
00000080: e1fc 11ff fefe baef f9ff 00ff fffc fbfd
00000090: fb01 fcfe ff02 02f9 f900 0100 fef9 f8fb
000000a0: 1101 fb01 fb04 22f2 f0fe 0305 fefb edfd
000000b0: 02fb fe01 fe01 fefd fbfd fcfd 01fb fbfb
000000c0: 1b01 faff fefc 14fc fd01 fc01 fafd fdfd
000000d0: ff01 fdfb fff9 01fd fa00 fffa ff01 fc00
000000e0: fefe fdff fffe 0303 02ff 0002 fcfe 0100
000000f0: 02fe fdfe 0103 fefc 01fa 00fc fe00 fefe

sequential_2/dense_7/MatMul i1 [1, 10000] scale=0.0017915267 zero_point=0
-0.01074916 -0.0035830534 0.00537458 0.035830535 0.0 0.0035830534 -0.008957634 -0.0017915267
-0.0017915267 -0.0017915267 0.0035830534 0.0071661067 0.00537458 0.0 0.0 -0.0017915267
-0.023289846 0.0 0.0035830534 0.0035830534 -0.0035830534 -0.00537458 -0.01074916 -0.0017915267
0.01074916 -0.0017915267 -0.0071661067 0.0 -0.02149832 0.0 0.0 0.0
-0.0017915267 0.0 0.0035830534 0.0017915267 -0.01074916 0.0035830534 0.0017915267 -0.019706793
0.0 0.0 -0.01612374 0.00537458 0.0071661067 0.0 0.01074916 -0.019706793
0.0071661067 0.0035830534 -0.00537458 0.017915267 -0.03762206 0.00537458 0.0017915267 0.08599328
0.0071661067 0.00537458 0.0035830534 0.0 0.0017915267 0.0 -0.0035830534 0.012540687
0.014332213 0.0035830534 0.0017915267 -0.008957634 0.0 -0.023289846 0.0 0.0
0.012540687 0.0071661067 0.0 0.01074916 0.0017915267 -0.019706793 0.00537458 -0.0017915267
-0.0035830534 0.0 -0.0017915267 0.0 0.0 0.014332213 0.0 0.0071661067
-0.0017915267 0.0 0.0017915267 0.0035830534 0.0 0.012540687 0.0017915267 0.0017915267
-0.0017915267 0.0 -0.0035830534 0.0017915267 0.0071661067 -0.0017915267 0.0017915267 0.0
-0.01074916 -0.017915267 -0.012540687 -0.0071661067 0.0 0.00537458 -0.03224748 0.0
0.008957634 -0.008957634 0.0035830534 0.0035830534 -0.008957634 0.0017915267 0.0017915267 -0.00537458
0.0035830534 -0.012540687 -0.02149832 0.0071661067 -0.0035830534 -0.00537458 0.0 0.012540687
0.0017915267 0.01074916 0.017915267 0.00537458 -0.0017915267 0.0035830534 -0.0035830534 -0.0071661067
0.0 -0.00537458 0.0 0.0017915267 0.0017915267 -0.00537458 -0.012540687 0.0035830534
0.008957634 0.0017915267 0.0017915267 -0.02149832 -0.0035830534 0.0017915267 0.008957634 -0.0017915267
-0.008957634 0.0 -0.012540687 -0.0035830534 0.0017915267 0.0 0.0017915267 0.017915267
0.0 0.0017915267 0.0 0.0017915267 0.00537458 0.00537458 0.0 -0.00537458
0.0017915267 -0.0071661067 0.0035830534 0.0 0.019706793 -0.0017915267 -0.00537458 0.0071661067
0.014332213 0.0 0.017915267 -0.0035830534 0.0035830534 0.0 0.0 0.0017915267
0.0017915267 -0.0017915267 0.014332213 0.0071661067 0.0 0.0 0.014332213 0.0017915267
0.0017915267 0.00537458 0.0 -0.0017915267 -0.0017915267 0.0 -0.0071661067 0.012540687
-0.0035830534 0.008957634 0.0 -0.0071661067 0.008957634 0.0 -0.00537458 -0.00537458
0.0 0.0 -0.0017915267 0.0017915267 0.0 0.0 0.0 -0.0035830534
-0.0017915267 0.0017915267 -0.01074916 0.0 -0.0017915267 0.0 -0.019706793 -0.0071661067
0.0035830534 0.008957634 0.0017915267 0.0017915267 0.0017915267 0.008957634 -0.0071661067 -0.01612374
0.014332213 0.0 -0.0035830534 0.023289846 0.0071661067 0.0 -0.0017915267 -0.00537458
0.0 0.008957634 0.0 0.01074916 0.0 0.0035830534 0.01612374 -0.0071661067
-0.00537458 0.0071661067 0.0071661067 0.0017915267 0.0017915267 -0.00537458 0.0017915267 0.0017915267
00000000: fafe 0314 0002 fbff ffff 0204 0300 00ff
00000010: f300 0202 fefd faff 06ff fc00 f400 0000
00000020: ff00 0201 fa02 01f5 0000 f703 0400 06f5
00000030: 0402 fd0a eb03 0130 0403 0200 0100 fe07
00000040: 0802 01fb 00f3 0000 0704 0006 01f5 03ff
00000050: fe00 ff00 0008 0004 ff00 0102 0007 0101
00000060: ff00 fe01 04ff 0100 faf6 f9fc 0003 ee00
00000070: 05fb 0202 fb01 01fd 02f9 f404 fefd 0007
00000080: 0106 0a03 ff02 fefc 00fd 0001 01fd f902
00000090: 0501 01f4 fe01 05ff fb00 f9fe 0100 010a
000000a0: 0001 0001 0303 00fd 01fc 0200 0bff fd04
000000b0: 0800 0afe 0200 0001 01ff 0804 0000 0801
000000c0: 0103 00ff ff00 fc07 fe05 00fc 0500 fdfd
000000d0: 0000 ff01 0000 00fe ff01 fa00 ff00 f5fc
000000e0: 0205 0101 0105 fcf7 0800 fe0d 0400 fffd
000000f0: 0005 0006 0002 09fc fd04 0401 01fd 0101
