convmodel_lstm1.tflite (tflite, 209008 bytes, 17 tensors)

model/time_distributed/dense/MatMul1 i1 [1, 128] scale=0.0017162026 zero_point=0
0	0x39	0.097823545
1	0xae	-0.14072861
2	0x9a	-0.17505266
3	0xb6	-0.12699899
4	0x46	0.12013418
5	0x3c	0.10297216
6	0xe3	-0.049769875
7	0x02	0.0034324052
8	0x96	-0.18191747
9	0xe3	-0.049769875
10	0x41	0.11155317
11	0xa9	-0.14930962
12	0xb3	-0.1321476
13	0x1c	0.048053674
14	0x22	0.058350887
15	0xb6	-0.12699899
16	0x46	0.12013418
17	0xeb	-0.036040254
18	0x9b	-0.17333646
19	0x26	0.0652157
20	0x66	0.17505266
21	0xb2	-0.1338638
22	0x28	0.0686481
23	0xc5	-0.10125595
24	0x55	0.14587723
25	0xb4	-0.1304314
26	0x6c	0.18534988
27	0x30	0.082377724
28	0x94	-0.18534988
29	0x41	0.11155317
30	0x9f	-0.16647165
31	0x94	-0.18534988
32	0xc4	-0.10297216
33	0xbf	-0.11155317
34	0x93	-0.18706608
35	0xe3	-0.049769875
36	0xab	-0.14587723
37	0x34	0.08924253
38	0x4b	0.12871519
39	0xbe	-0.113269374
40	0x1c	0.048053674
41	0xc8	-0.09610735
42	0x3b	0.10125595
43	0x8b	-0.20079571
44	0xb0	-0.1372962
45	0x4f	0.13558
46	0x63	0.16990405
47	0x2f	0.08066152
48	0xcc	-0.08924253
49	0xbe	-0.113269374
50	0x92	-0.18878229
51	0xdd	-0.06006709
52	0xc4	-0.10297216
53	0xe4	-0.048053674
54	0x71	0.1939309
55	0x5d	0.15960684
56	0xb7	-0.1252828
57	0x7f	0.21795774
58	0xb9	-0.121850386
59	0x70	0.1922147
60	0x2a	0.07208051
61	0xf3	-0.022310633
62	0xc9	-0.094391145
63	0x6f	0.19049849
64	0x6c	0.18534988
65	0x24	0.06178329
66	0x84	-0.21280912
67	0xab	-0.14587723
68	0x3d	0.10468836
69	0xdc	-0.06178329
70	0x40	0.109836966
71	0x9e	-0.16818786
72	0x5b	0.15617444
73	0xe2	-0.05148608
74	0x09	0.015445823
75	0xe0	-0.054918483
76	0x43	0.11498557
77	0xb5	-0.12871519
78	0xfb	-0.0085810125
79	0x6e	0.18878229
80	0xd7	-0.070364304
81	0x2d	0.07722912
82	0xd7	-0.070364304
83	0xc9	-0.094391145
84	0xda	-0.0652157
85	0x68	0.17848507
86	0x3c	0.10297216
87	0xa7	-0.15274203
88	0x6f	0.19049849
89	0x90	-0.1922147
90	0x3b	0.10125595
91	0xaf	-0.13901241
92	0xa9	-0.14930962
93	0x25	0.063499495
94	0x79	0.20766051
95	0xe9	-0.03947266
96	0x47	0.121850386
97	0xd1	-0.08066152
98	0xb2	-0.1338638
99	0x7a	0.20937672
100	0x2d	0.07722912
101	0x94	-0.18534988
102	0xf4	-0.020594431
103	0x24	0.06178329
104	0xbd	-0.11498557
105	0x58	0.15102583
106	0x3c	0.10297216
107	0x88	-0.20594431
108	0xb2	-0.1338638
109	0x5f	0.16303925
110	0x18	0.041188862
111	0xbb	-0.11841798
112	0x4a	0.12699899
113	0x65	0.17333646
114	0xd2	-0.07894532
115	0x9b	-0.17333646
116	0x23	0.06006709
117	0x57	0.14930962
118	0x1a	0.044621266
119	0xe0	-0.054918483
120	0x94	-0.18534988
121	0x9b	-0.17333646
122	0x48	0.12356658
123	0x67	0.17676887
124	0x79	0.20766051
125	0x52	0.14072861
126	0xf9	-0.012013419
127	0x5e	0.16132304

arith.constant26 i1 [128, 1] scale=0.0009581505 zero_point=0
0	0xc4	-0.05748903
1	0x4d	0.073777586
2	0x15	0.02012116
3	0xea	-0.021079311
4	0xc8	-0.05365643
5	0x0e	0.013414107
6	0x53	0.07952649
7	0xe6	-0.024911912
8	0x10	0.015330408
9	0x0d	0.012455956
10	0x43	0.06419608
11	0x34	0.049823824
12	0x4b	0.07186129
13	0x24	0.034493417
14	0xfe	-0.001916301
15	0xb1	-0.07569389
16	0x2a	0.04024232
17	0xaf	-0.07761019
18	0x56	0.08240094
19	0x7b	0.11785251
20	0x2e	0.044074923
21	0x9b	-0.0967732
22	0x84	-0.11881066
23	0xd6	-0.04024232
24	0xd3	-0.04311677
25	0x53	0.07952649
26	0xff	-0.0009581505
27	0xb0	-0.076652035
28	0x09	0.008623354
29	0x00	0.0
30	0x41	0.062279783
31	0xf5	-0.010539656
32	0xf7	-0.008623354
33	0x2b	0.04120047
34	0xfd	-0.0028744515
35	0xe2	-0.028744515
36	0xed	-0.018204859
37	0x37	0.052698277
38	0x4e	0.07473574
39	0x12	0.017246708
40	0xd8	-0.038326018
41	0xa7	-0.0852754
42	0xd7	-0.03928417
43	0x81	-0.12168511
44	0xed	-0.018204859
45	0xb3	-0.073777586
46	0x2f	0.04503307
47	0xfb	-0.004790752
48	0x0d	0.012455956
49	0x04	0.003832602
50	0xf9	-0.0067070536
51	0x86	-0.11689436
52	0x19	0.023953762
53	0xc3	-0.05844718
54	0x03	0.0028744515
55	0xee	-0.017246708
56	0xa0	-0.09198245
57	0x4e	0.07473574
58	0xe7	-0.023953762
59	0x47	0.06802868
60	0x17	0.022037461
61	0x5f	0.091024294
62	0xd3	-0.04311677
63	0x8f	-0.108271
64	0x25	0.03545157
65	0x03	0.0028744515
66	0xbf	-0.062279783
67	0xdc	-0.034493417
68	0x16	0.021079311
69	0xba	-0.06707054
70	0x90	-0.10731286
71	0xfe	-0.001916301
72	0x31	0.046949375
73	0x36	0.051740125
74	0x26	0.036409717
75	0x0e	0.013414107
76	0xa0	-0.09198245
77	0x40	0.06132163
78	0x3a	0.05557273
79	0xcc	-0.049823824
80	0x8f	-0.108271
81	0x40	0.06132163
82	0xcf	-0.046949375
83	0x3c	0.05748903
84	0x31	0.046949375
85	0xa9	-0.08335909
86	0x3e	0.05940533
87	0x50	0.076652035
88	0xbb	-0.066112384
89	0x1f	0.029702665
90	0xf2	-0.013414107
91	0x92	-0.105396554
92	0xb1	-0.07569389
93	0xa0	-0.09198245
94	0xd1	-0.04503307
95	0x35	0.050781976
96	0x0d	0.012455956
97	0x0d	0.012455956
98	0xb4	-0.072819434
99	0xaa	-0.08240094
100	0xeb	-0.02012116
101	0xce	-0.047907524
102	0x39	0.054614577
103	0x64	0.09581505
104	0xa1	-0.091024294
105	0xb4	-0.072819434
106	0xcb	-0.050781976
107	0xae	-0.07856834
108	0xb7	-0.069944985
109	0xe3	-0.027786365
110	0xc8	-0.05365643
111	0xe4	-0.026828215
112	0x0d	0.012455956
113	0x0a	0.009581504
114	0x02	0.001916301
115	0x48	0.06898683
116	0xf9	-0.0067070536
117	0xc8	-0.05365643
118	0xa8	-0.084317245
119	0xc7	-0.054614577
120	0xab	-0.08144279
121	0xc1	-0.06036348
122	0xaf	-0.07761019
123	0xd8	-0.038326018
124	0x04	0.003832602
125	0xc3	-0.05844718
126	0xc1	-0.06036348
127	0xda	-0.036409717

arith.constant25 i1 [128, 1] scale=0.00096338015 zero_point=0
0	0x63	0.09537464
1	0xbc	-0.06550985
2	0x33	0.049132388
3	0x45	0.06647323
4	0xf5	-0.0105971815
5	0xc6	-0.05587605
6	0x20	0.030828165
7	0xa8	-0.08477745
8	0xe7	-0.024084505
9	0x2c	0.042388726
10	0xe6	-0.025047883
11	0x08	0.007707041
12	0x26	0.036608446
13	0xa2	-0.09055773
14	0x0a	0.009633802
15	0xb2	-0.07514365
16	0x7f	0.12234928
17	0x81	-0.12234928
18	0xd6	-0.040461965
19	0x72	0.109825335
20	0x1f	0.029864784
21	0xdd	-0.033718307
22	0x33	0.049132388
23	0x9b	-0.097301394
24	0xa9	-0.08381407
25	0x16	0.021194363
26	0x06	0.005780281
27	0x54	0.08092393
28	0x24	0.034681685
29	0x2c	0.042388726
30	0xd6	-0.040461965
31	0x4f	0.07610703
32	0x58	0.08477745
33	0x57	0.08381407
34	0x9e	-0.094411254
35	0xe0	-0.030828165
36	0x0a	0.009633802
37	0x57	0.08381407
38	0x0b	0.0105971815
39	0xe2	-0.028901404
40	0x07	0.006743661
41	0xda	-0.036608446
42	0x25	0.035645064
43	0xfe	-0.0019267603
44	0x0d	0.012523942
45	0x45	0.06647323
46	0x1a	0.025047883
47	0xaf	-0.07803379
48	0x82	-0.1213859
49	0xec	-0.019267604
50	0xb1	-0.07610703
51	0x2f	0.045278866
52	0xc5	-0.05683943
53	0xff	-0.00096338015
54	0x2f	0.045278866
55	0xc8	-0.05394929
56	0x35	0.05105915
57	0xef	-0.016377462
58	0xa1	-0.091521114
59	0x94	-0.104045056
60	0xd0	-0.04624225
61	0xf2	-0.013487322
62	0x90	-0.10789858
63	0xd7	-0.039498586
64	0xb4	-0.07321689
65	0x5f	0.091521114
66	0xf8	-0.007707041
67	0x1d	0.027938025
68	0x98	-0.10019153
69	0xef	-0.016377462
70	0xf7	-0.008670421
71	0x10	0.015414082
72	0x57	0.08381407
73	0x2d	0.04335211
74	0xd2	-0.044315487
75	0xfa	-0.005780281
76	0xdd	-0.033718307
77	0xe8	-0.023121124
78	0xd0	-0.04624225
79	0xbb	-0.06647323
80	0xfb	-0.004816901
81	0xa6	-0.08670422
82	0xc5	-0.05683943
83	0x1b	0.026011264
84	0xd9	-0.037571825
85	0x1a	0.025047883
86	0x15	0.020230982
87	0xf2	-0.013487322
88	0x90	-0.10789858
89	0xf2	-0.013487322
90	0x12	0.017340843
91	0x5c	0.088630974
92	0x0e	0.013487322
93	0xb4	-0.07321689
94	0xad	-0.079960555
95	0x31	0.047205627
96	0x6e	0.10597181
97	0x6f	0.106935196
98	0x97	-0.101154916
99	0x36	0.052022528
100	0xc2	-0.05972957
101	0xde	-0.032754924
102	0x6c	0.104045056
103	0x1d	0.027938025
104	0xf5	-0.0105971815
105	0x40	0.06165633
106	0xd0	-0.04624225
107	0x75	0.112715475
108	0x32	0.04816901
109	0xdb	-0.035645064
110	0x12	0.017340843
111	0x98	-0.10019153
112	0xff	-0.00096338015
113	0xf9	-0.006743661
114	0x2e	0.044315487
115	0xa9	-0.08381407
116	0x6f	0.106935196
117	0x99	-0.09922816
118	0xfa	-0.005780281
119	0xeb	-0.020230982
120	0xbd	-0.06454647
121	0x33	0.049132388
122	0x9f	-0.09344787
123	0x67	0.09922816
124	0xf0	-0.015414082
125	0xfc	-0.0038535206
126	0x15	0.020230982
127	0xa1	-0.091521114

arith.constant24 i1 [128, 1] scale=0.001031737 zero_point=0
0	0xc5	-0.06087248
1	0x47	0.073253326
2	0x6b	0.110395856
3	0x82	-0.12999886
4	0x25	0.038174268
5	0xd9	-0.04023774
6	0x86	-0.12587191
7	0x47	0.073253326
8	0x2e	0.0474599
9	0xce	-0.051586848
10	0xf3	-0.013412581
11	0x00	0.0
12	0x6e	0.113491066
13	0x1e	0.030952109
14	0x6b	0.110395856
15	0xf5	-0.011349106
16	0xf3	-0.013412581
17	0x9c	-0.103173696
18	0x65	0.10420543
19	0xdd	-0.036110792
20	0xa0	-0.09904675
21	0x93	-0.11245933
22	0x64	0.103173696
23	0x0e	0.014444318
24	0xea	-0.022698212
25	0xca	-0.055713795
26	0x96	-0.109364115
27	0x5d	0.095951535
28	0x56	0.08872938
29	0x50	0.082538955
30	0x71	0.116586275
31	0x87	-0.12484017
32	0xb7	-0.0753168
33	0xad	-0.085634165
34	0x40	0.066031165
35	0x46	0.072221585
36	0x12	0.018571265
37	0xdb	-0.038174268
38	0x57	0.089761116
39	0xa3	-0.095951535
40	0xb9	-0.073253326
41	0x85	-0.12690365
42	0x96	-0.109364115
43	0x52	0.08460243
44	0x01	0.001031737
45	0x85	-0.12690365
46	0xa2	-0.09698328
47	0xd2	-0.0474599
48	0x96	-0.109364115
49	0x05	0.0051586847
50	0x7c	0.12793538
51	0xa2	-0.09698328
52	0xaf	-0.0835707
53	0x46	0.072221585
54	0x05	0.0051586847
55	0xaa	-0.08872938
56	0xcb	-0.054682057
57	0xec	-0.020634739
58	0x08	0.008253896
59	0xbb	-0.07118985
60	0x90	-0.11555454
61	0x2b	0.04436469
62	0x9e	-0.10111022
63	0x59	0.09182459
64	0xc0	-0.066031165
65	0x66	0.10523717
66	0xbd	-0.069126375
67	0x50	0.082538955
68	0xa9	-0.089761116
69	0xd0	-0.049523376
70	0x9d	-0.10214196
71	0x25	0.038174268
72	0x9e	-0.10111022
73	0x63	0.10214196
74	0x65	0.10420543
75	0xc1	-0.06499943
76	0x72	0.11761802
77	0x58	0.09079285
78	0x96	-0.109364115
79	0xed	-0.019603003
80	0x94	-0.11142759
81	0x8a	-0.12174496
82	0xc7	-0.05880901
83	0x91	-0.1145228
84	0xad	-0.085634165
85	0x8d	-0.11864975
86	0x31	0.05055511
87	0xfc	-0.004126948
88	0x65	0.10420543
89	0x5d	0.095951535
90	0xb3	-0.079443745
91	0x6a	0.109364115
92	0x81	-0.13103059
93	0x17	0.02372995
94	0xcd	-0.052618586
95	0xb8	-0.07428506
96	0x9b	-0.10420543
97	0x11	0.01753953
98	0x16	0.022698212
99	0xc1	-0.06499943
100	0x49	0.0753168
101	0xd3	-0.046428163
102	0x1c	0.028888635
103	0x9b	-0.10420543
104	0xe6	-0.026825162
105	0x34	0.053650323
106	0x2c	0.045396425
107	0xe9	-0.02372995
108	0xe8	-0.024761688
109	0xbc	-0.07015812
110	0x21	0.03404732
111	0x77	0.122776695
112	0xbe	-0.06809464
113	0xa5	-0.09388807
114	0x37	0.056745533
115	0x6f	0.1145228
116	0xd3	-0.046428163
117	0x61	0.100078486
118	0x88	-0.123808436
119	0x65	0.10420543
120	0x02	0.002063474
121	0xc6	-0.059840742
122	0x84	-0.12793538
123	0x54	0.086665906
124	0x09	0.0092856325
125	0xac	-0.086665906
126	0x7b	0.12690365
127	0x8f	-0.116586275

arith.constant23 i1 [128, 1] scale=0.0009152753 zero_point=0
0	0x14	0.018305507
1	0x1a	0.023797158
2	0x96	-0.09701918
3	0xc1	-0.057662345
4	0x52	0.075052574
5	0xb7	-0.0668151
6	0x34	0.047594316
7	0x4a	0.067730375
8	0xe4	-0.025627708
9	0xa4	-0.08420533
10	0x19	0.022881882
11	0x26	0.03478046
12	0xe4	-0.025627708
13	0xec	-0.018305507
14	0x33	0.046679042
15	0x6f	0.10159556
16	0xee	-0.016474955
17	0x63	0.090612255
18	0x92	-0.100680284
19	0x6d	0.09976501
20	0xae	-0.075052574
21	0x10	0.014644405
22	0x2a	0.03844156
23	0xe0	-0.02928881
24	0x36	0.049424868
25	0x41	0.059492894
26	0x59	0.0814595
27	0x1f	0.028373534
28	0x17	0.021051332
29	0x07	0.006406927
30	0x4a	0.067730375
31	0x1d	0.026542984
32	0xca	-0.049424868
33	0xf4	-0.010983303
34	0xfd	-0.0027458258
35	0xd6	-0.03844156
36	0xe2	-0.02745826
37	0xdb	-0.033865187
38	0xda	-0.03478046
39	0xef	-0.01555968
40	0x2e	0.042102665
41	0x53	0.07596785
42	0xd9	-0.035695735
43	0x67	0.09427336
44	0xbb	-0.063154
45	0x45	0.063154
46	0x68	0.09518863
47	0x9e	-0.08969698
48	0xf1	-0.01372913
49	0xcb	-0.04850959
50	0x87	-0.11074831
51	0xb4	-0.06956092
52	0x9f	-0.08878171
53	0x09	0.008237477
54	0xa8	-0.080544226
55	0x68	0.09518863
56	0xf3	-0.011898579
57	0x26	0.03478046
58	0xa5	-0.083290055
59	0x12	0.016474955
60	0x25	0.033865187
61	0xc2	-0.056747068
62	0x4b	0.06864565
63	0x18	0.021966606
64	0x56	0.07871368
65	0x22	0.03111936
66	0x78	0.10983304
67	0x51	0.0741373
68	0x47	0.064984545
69	0xdf	-0.030204086
70	0xd4	-0.040272113
71	0x3d	0.055831794
72	0xbf	-0.059492894
73	0xd3	-0.041187387
74	0xda	-0.03478046
75	0x4e	0.07139147
76	0x81	-0.116239965
77	0x7b	0.11257886
78	0x50	0.073222026
79	0x54	0.07688312
80	0x0b	0.010068028
81	0xfc	-0.0036611012
82	0x4f	0.07230675
83	0x11	0.01555968
84	0xd8	-0.036611013
85	0xc5	-0.054001242
86	0xc7	-0.052170694
87	0xc5	-0.054001242
88	0x09	0.008237477
89	0xb3	-0.0704762
90	0xb8	-0.06589982
91	0x51	0.0741373
92	0x61	0.08878171
93	0x5b	0.083290055
94	0xc7	-0.052170694
95	0xf7	-0.008237477
96	0xd1	-0.04301794
97	0xfa	-0.0054916516
98	0xf4	-0.010983303
99	0x32	0.045763765
100	0x6c	0.098849736
101	0xc4	-0.05491652
102	0x26	0.03478046
103	0x0f	0.01372913
104	0x8c	-0.106171936
105	0x48	0.06589982
106	0xd5	-0.03935684
107	0xb3	-0.0704762
108	0x10	0.014644405
109	0x04	0.0036611012
110	0x5d	0.0851206
111	0x34	0.047594316
112	0x49	0.0668151
113	0xe0	-0.02928881
114	0x67	0.09427336
115	0xb1	-0.07230675
116	0xa9	-0.07962895
117	0xba	-0.06406927
118	0x12	0.016474955
119	0x32	0.045763765
120	0x35	0.04850959
121	0xda	-0.03478046
122	0x8b	-0.10708721
123	0x37	0.050340142
124	0x9e	-0.08969698
125	0x0e	0.012813854
126	0xa7	-0.0814595
127	0x85	-0.11257886

arith.constant18 i1 [128, 128] scale=0.0015064225 zero_point=0
0	0x00	0.0
1	0xf3	-0.019583493
2	0xfa	-0.009038535
3	0x20	0.04820552
4	0xfd	-0.0045192675
5	0xdf	-0.049711943
6	0xd6	-0.06326975
7	0xef	-0.025609182
8	0xfe	-0.003012845
9	0xec	-0.030128451
10	0xef	-0.025609182
11	0xc9	-0.08285324
12	0x04	0.00602569
13	0xe9	-0.034647718
14	0x2a	0.06326975
15	0x34	0.078333974
16	0xfa	-0.009038535
17	0x01	0.0015064225
18	0x05	0.0075321128
19	0xf2	-0.021089915
20	0xdf	-0.049711943
21	0x20	0.04820552
22	0x00	0.0
23	0x2d	0.06778901
24	0x00	0.0
25	0xef	-0.025609182
26	0x05	0.0075321128
27	0x20	0.04820552
28	0x0e	0.021089915
29	0x14	0.030128451
30	0xff	-0.0015064225
31	0xe6	-0.039166987
32	0xd6	-0.06326975
33	0x36	0.08134682
34	0x05	0.0075321128
35	0x26	0.057244055
36	0x01	0.0015064225
37	0xed	-0.028622027
38	0xf7	-0.013557803
39	0xc6	-0.087372504
40	0x26	0.057244055
41	0x07	0.010544958
42	0x0d	0.019583493
43	0x02	0.003012845
44	0xba	-0.10544958
45	0xd5	-0.06477617
46	0xc9	-0.08285324
47	0x0c	0.01807707
48	0x2c	0.06628259
49	0xc7	-0.085866086
50	0xe7	-0.03766056
51	0xf1	-0.022596339
52	0xf5	-0.016570648
53	0xea	-0.033141296
54	0xb5	-0.11298169
55	0xd6	-0.06326975
56	0x29	0.061763324
57	0x20	0.04820552
58	0x30	0.07230828
59	0xe0	-0.04820552
60	0xe1	-0.0466991
61	0xfa	-0.009038535
62	0xd1	-0.07080186
63	0xf6	-0.0150642255
64	0xea	-0.033141296
65	0x3d	0.09189177
66	0xee	-0.027115606
67	0x02	0.003012845
68	0xcf	-0.073814705
69	0xe5	-0.04067341
70	0x13	0.028622027
71	0x05	0.0075321128
72	0xf3	-0.019583493
73	0x44	0.10243673
74	0xff	-0.0015064225
75	0xed	-0.028622027
76	0x2f	0.07080186
77	0xfc	-0.00602569
78	0xec	-0.030128451
79	0xfb	-0.0075321128
80	0xf3	-0.019583493
81	0x08	0.01205138
82	0x04	0.00602569
83	0xc8	-0.08435966
84	0x11	0.025609182
85	0x14	0.030128451
86	0x21	0.049711943
87	0xda	-0.057244055
88	0xfc	-0.00602569
89	0x10	0.02410276
90	0xef	-0.025609182
91	0xf3	-0.019583493
92	0xf3	-0.019583493
93	0x01	0.0015064225
94	0xd5	-0.06477617
95	0xe9	-0.034647718
96	0x20	0.04820552
97	0xe9	-0.034647718
98	0xff	-0.0015064225
99	0x94	-0.16269363
100	0xfb	-0.0075321128
101	0x96	-0.15968078
102	0x18	0.03615414
103	0xe6	-0.039166987
104	0xf4	-0.01807707
105	0x33	0.07682755
106	0x15	0.031634875
107	0x1d	0.043686252
108	0x00	0.0
109	0xdc	-0.05423121
110	0xe5	-0.04067341
111	0x18	0.03615414
112	0xda	-0.057244055
113	0xd9	-0.05875048
114	0xf1	-0.022596339
115	0x06	0.009038535
116	0xd7	-0.061763324
117	0xff	-0.0015064225
118	0x00	0.0
119	0x04	0.00602569
120	0xfc	-0.00602569
121	0x05	0.0075321128
122	0xe7	-0.03766056
123	0xd6	-0.06326975
124	0x11	0.025609182
125	0x0e	0.021089915
126	0x01	0.0015064225
127	0xcf	-0.073814705
128	0x32	0.07532112
129	0xc6	-0.087372504
130	0xdb	-0.055737633
131	0xf6	-0.0150642255
132	0xe3	-0.043686252
133	0xdc	-0.05423121
134	0xd3	-0.06778901
135	0x0d	0.019583493
136	0xfc	-0.00602569
137	0x2a	0.06326975
138	0xe2	-0.045192678
139	0x03	0.0045192675
140	0xff	-0.0015064225
141	0x1a	0.039166987
142	0x1f	0.0466991
143	0xf0	-0.02410276
144	0xfa	-0.009038535
145	0x01	0.0015064225
146	0xf8	-0.01205138
147	0xe8	-0.03615414
148	0xda	-0.057244055
149	0x01	0.0015064225
150	0xfb	-0.0075321128
151	0x21	0.049711943
152	0x03	0.0045192675
153	0x46	0.10544958
154	0x07	0.010544958
155	0x12	0.027115606
156	0x3b	0.08887893
157	0xfa	-0.009038535
158	0x1f	0.0466991
159	0xe2	-0.045192678
160	0xef	-0.025609182
161	0xea	-0.033141296
162	0xe6	-0.039166987
163	0x0b	0.016570648
164	0x13	0.028622027
165	0x0f	0.022596339
166	0x1a	0.039166987
167	0xeb	-0.031634875
168	0xfb	-0.0075321128
169	0xed	-0.028622027
170	0xf4	-0.01807707
171	0xea	-0.033141296
172	0xf0	-0.02410276
173	0xcc	-0.078333974
174	0x18	0.03615414
175	0x0d	0.019583493
176	0x2e	0.069295436
177	0x08	0.01205138
178	0xe4	-0.04217983
179	0x1e	0.045192678
180	0xbc	-0.10243673
181	0x37	0.08285324
182	0x06	0.009038535
183	0xb9	-0.106956
184	0xf4	-0.01807707
185	0xfc	-0.00602569
186	0x24	0.05423121
187	0x1d	0.043686252
188	0xfd	-0.0045192675
189	0x1a	0.039166987
190	0x08	0.01205138
191	0xf7	-0.013557803
192	0xe6	-0.039166987
193	0xf9	-0.010544958
194	0xfc	-0.00602569
195	0x32	0.07532112
196	0xe5	-0.04067341
197	0xdf	-0.049711943
198	0x20	0.04820552
199	0x01	0.0015064225
200	0x0c	0.01807707
201	0x04	0.00602569
202	0x02	0.003012845
203	0x05	0.0075321128
204	0x0d	0.019583493
205	0xda	-0.057244055
206	0x1e	0.045192678
207	0xc3	-0.09189177
208	0x11	0.025609182
209	0x19	0.03766056
210	0xfa	-0.009038535
211	0x35	0.07984039
212	0xf2	-0.021089915
213	0xe6	-0.039166987
214	0xf8	-0.01205138
215	0x2a	0.06326975
216	0xe9	-0.034647718
217	0xef	-0.025609182
218	0x29	0.061763324
219	0x2f	0.07080186
220	0x11	0.025609182
221	0x0b	0.016570648
222	0x2e	0.069295436
223	0xf9	-0.010544958
224	0x13	0.028622027
225	0x1d	0.043686252
226	0x27	0.05875048
227	0x29	0.061763324
228	0x1b	0.04067341
229	0xdc	-0.05423121
230	0xed	-0.028622027
231	0x48	0.10846242
232	0xfb	-0.0075321128
233	0xed	-0.028622027
234	0x33	0.07682755
235	0x04	0.00602569
236	0xf9	-0.010544958
237	0xfc	-0.00602569
238	0x07	0.010544958
239	0xf9	-0.010544958
240	0x02	0.003012845
241	0x13	0.028622027
242	0xf0	-0.02410276
243	0x17	0.034647718
244	0xde	-0.051218364
245	0x22	0.051218364
246	0x05	0.0075321128
247	0xfa	-0.009038535
248	0xeb	-0.031634875
249	0xd6	-0.06326975
250	0xf8	-0.01205138
251	0x27	0.05875048
252	0xef	-0.025609182
253	0x09	0.013557803
254	0xd8	-0.060256902
255	0xf2	-0.021089915

arith.constant17 i1 [128, 128] scale=0.0015191599 zero_point=0
0	0xf0	-0.024306558
1	0x1b	0.041017316
2	0xc6	-0.088111274
3	0x9d	-0.15039682
4	0x0e	0.021268237
5	0xf6	-0.015191599
6	0xf0	-0.024306558
7	0x18	0.036459837
8	0x25	0.056208916
9	0xf0	-0.024306558
10	0xee	-0.027344879
11	0xdd	-0.053170595
12	0x38	0.08507295
13	0x1f	0.047093958
14	0x18	0.036459837
15	0x20	0.048613116
16	0x11	0.025825718
17	0xb3	-0.11697531
18	0xf3	-0.019749079
19	0x04	0.0060766395
20	0x22	0.051651437
21	0x23	0.053170595
22	0x09	0.013672439
23	0x07	0.010634119
24	0x00	0.0
25	0x04	0.0060766395
26	0xd3	-0.06836219
27	0x0b	0.016710758
28	0xf7	-0.013672439
29	0x4a	0.11241783
30	0x10	0.024306558
31	0xdf	-0.050132275
32	0x18	0.036459837
33	0xe8	-0.036459837
34	0x27	0.059247237
35	0xe3	-0.044055637
36	0xb9	-0.10786035
37	0xdc	-0.054689758
38	0x1b	0.041017316
39	0x00	0.0
40	0x0b	0.016710758
41	0xf5	-0.016710758
42	0x25	0.056208916
43	0x1d	0.044055637
44	0xfe	-0.0030383198
45	0xfb	-0.0075957994
46	0x26	0.057728074
47	0xee	-0.027344879
48	0x2d	0.06836219
49	0xe6	-0.039498158
50	0x06	0.009114959
51	0xc4	-0.09114959
52	0x09	0.013672439
53	0x0a	0.015191599
54	0xfa	-0.009114959
55	0xfd	-0.0045574796
56	0xcb	-0.080515474
57	0xfc	-0.0060766395
58	0xd1	-0.071400516
59	0xec	-0.030383198
60	0xbb	-0.10482203
61	0x02	0.0030383198
62	0x14	0.030383198
63	0xd3	-0.06836219
64	0x0d	0.019749079
65	0x0c	0.018229919
66	0x21	0.050132275
67	0x39	0.086592115
68	0xd4	-0.06684303
69	0x15	0.031902358
70	0xbf	-0.09874539
71	0xe2	-0.045574795
72	0xef	-0.025825718
73	0x4c	0.11545615
74	0x17	0.03494068
75	0xd1	-0.071400516
76	0x10	0.024306558
77	0x08	0.012153279
78	0xdc	-0.054689758
79	0xfc	-0.0060766395
80	0x11	0.025825718
81	0xfa	-0.009114959
82	0x07	0.010634119
83	0xe4	-0.042536475
84	0x12	0.027344879
85	0xdd	-0.053170595
86	0x51	0.12305195
87	0x0b	0.016710758
88	0x3d	0.09266875
89	0x11	0.025825718
90	0xd7	-0.062285554
91	0x16	0.033421516
92	0xec	-0.030383198
93	0x00	0.0
94	0xe6	-0.039498158
95	0xf3	-0.019749079
96	0x08	0.012153279
97	0x2d	0.06836219
98	0x11	0.025825718
99	0xdf	-0.050132275
100	0xf7	-0.013672439
101	0xf9	-0.010634119
102	0x30	0.072919674
103	0xf4	-0.018229919
104	0xfa	-0.009114959
105	0x02	0.0030383198
106	0xe6	-0.039498158
107	0xf0	-0.024306558
108	0x11	0.025825718
109	0xe1	-0.047093958
110	0x58	0.13368607
111	0xff	-0.0015191599
112	0xce	-0.07595799
113	0xd3	-0.06836219
114	0xdd	-0.053170595
115	0x1e	0.045574795
116	0xeb	-0.031902358
117	0xfb	-0.0075957994
118	0xda	-0.057728074
119	0x12	0.027344879
120	0x05	0.0075957994
121	0xf1	-0.022787398
122	0xe4	-0.042536475
123	0x17	0.03494068
124	0x0c	0.018229919
125	0xda	-0.057728074
126	0xe0	-0.048613116
127	0xec	-0.030383198
128	0xc7	-0.086592115
129	0xf0	-0.024306558
130	0x1b	0.041017316
131	0xf8	-0.012153279
132	0x14	0.030383198
133	0x1e	0.045574795
134	0x17	0.03494068
135	0x04	0.0060766395
136	0x01	0.0015191599
137	0x19	0.037978996
138	0x00	0.0
139	0xf0	-0.024306558
140	0xf4	-0.018229919
141	0xee	-0.027344879
142	0xfa	-0.009114959
143	0x0b	0.016710758
144	0xea	-0.033421516
145	0x25	0.056208916
146	0x00	0.0
147	0xd7	-0.062285554
148	0xe3	-0.044055637
149	0x27	0.059247237
150	0x22	0.051651437
151	0x02	0.0030383198
152	0x10	0.024306558
153	0x0b	0.016710758
154	0x09	0.013672439
155	0xc9	-0.08355379
156	0x18	0.036459837
157	0x2f	0.071400516
158	0xfd	-0.0045574796
159	0x01	0.0015191599
160	0xde	-0.051651437
161	0xfb	-0.0075957994
162	0x1b	0.041017316
163	0x12	0.027344879
164	0xe8	-0.036459837
165	0x06	0.009114959
166	0x11	0.025825718
167	0xb6	-0.11241783
168	0x3e	0.094187915
169	0x28	0.060766395
170	0xfe	-0.0030383198
171	0x3d	0.09266875
172	0xbb	-0.10482203
173	0x41	0.09874539
174	0xfc	-0.0060766395
175	0xe5	-0.041017316
176	0x04	0.0060766395
177	0xd0	-0.072919674
178	0xd8	-0.060766395
179	0xf7	-0.013672439
180	0xee	-0.027344879
181	0x18	0.036459837
182	0x12	0.027344879
183	0x14	0.030383198
184	0xd0	-0.072919674
185	0xf6	-0.015191599
186	0xe2	-0.045574795
187	0x4e	0.11849447
188	0xf9	-0.010634119
189	0x17	0.03494068
190	0xf2	-0.021268237
191	0xfe	-0.0030383198
192	0xdd	-0.053170595
193	0xf7	-0.013672439
194	0x06	0.009114959
195	0xdc	-0.054689758
196	0xe7	-0.037978996
197	0xf3	-0.019749079
198	0x17	0.03494068
199	0x20	0.048613116
200	0x17	0.03494068
201	0xe6	-0.039498158
202	0xfa	-0.009114959
203	0x3b	0.08963043
204	0x05	0.0075957994
205	0xe4	-0.042536475
206	0xc8	-0.08507295
207	0x23	0.053170595
208	0xd7	-0.062285554
209	0x31	0.07443883
210	0xf7	-0.013672439
211	0x22	0.051651437
212	0xf4	-0.018229919
213	0x0f	0.022787398
214	0x14	0.030383198
215	0xc2	-0.094187915
216	0xd6	-0.063804716
217	0xeb	-0.031902358
218	0x40	0.09722623
219	0x24	0.054689758
220	0x15	0.031902358
221	0xd4	-0.06684303
222	0x08	0.012153279
223	0x1b	0.041017316
224	0x23	0.053170595
225	0x02	0.0030383198
226	0x35	0.080515474
227	0x17	0.03494068
228	0x07	0.010634119
229	0x0d	0.019749079
230	0xf2	-0.021268237
231	0x03	0.0045574796
232	0x0d	0.019749079
233	0xf9	-0.010634119
234	0x17	0.03494068
235	0x29	0.062285554
236	0x26	0.057728074
237	0x11	0.025825718
238	0x13	0.028864037
239	0x10	0.024306558
240	0xe0	-0.048613116
241	0xeb	-0.031902358
242	0x03	0.0045574796
243	0x0e	0.021268237
244	0x00	0.0
245	0xc4	-0.09114959
246	0xe7	-0.037978996
247	0x0e	0.021268237
248	0x05	0.0075957994
249	0x24	0.054689758
250	0x08	0.012153279
251	0x01	0.0015191599
252	0x00	0.0
253	0x0f	0.022787398
254	0x17	0.03494068
255	0x26	0.057728074

arith.constant16 i1 [128, 128] scale=0.00137141 zero_point=0
0	0xf6	-0.013714099
1	0xd1	-0.06445627
2	0x2f	0.06445627
3	0xe9	-0.031542428
4	0xf8	-0.01097128
5	0x11	0.02331397
6	0xcf	-0.06719909
7	0x13	0.026056789
8	0x12	0.02468538
9	0xd7	-0.05622781
10	0xda	-0.052113578
11	0xee	-0.02468538
12	0x21	0.04525653
13	0x11	0.02331397
14	0x0f	0.02057115
15	0xe4	-0.03839948
16	0x08	0.01097128
17	0x17	0.031542428
18	0xe5	-0.03702807
19	0xd2	-0.063084856
20	0x35	0.07268473
21	0xc8	-0.07679896
22	0xfd	-0.00411423
23	0xf6	-0.013714099
24	0x11	0.02331397
25	0xee	-0.02468538
26	0xd2	-0.063084856
27	0xe9	-0.031542428
28	0xfb	-0.0068570497
29	0x16	0.03017102
30	0xbf	-0.08914165
31	0x18	0.03291384
32	0xf0	-0.02194256
33	0xdd	-0.04799935
34	0xe5	-0.03702807
35	0xdb	-0.050742168
36	0x35	0.07268473
37	0x0f	0.02057115
38	0x03	0.00411423
39	0xf5	-0.01508551
40	0xde	-0.04662794
41	0x27	0.053484987
42	0x07	0.00959987
43	0xee	-0.02468538
44	0x2a	0.05759922
45	0x11	0.02331397
46	0xeb	-0.02879961
47	0xff	-0.00137141
48	0x00	0.0
49	0x27	0.053484987
50	0xb0	-0.109712794
51	0x10	0.02194256
52	0x06	0.00822846
53	0x0f	0.02057115
54	0xc1	-0.086398825
55	0xbf	-0.08914165
56	0xbb	-0.09462729
57	0x06	0.00822846
58	0xf9	-0.00959987
59	0xe7	-0.03428525
60	0xc9	-0.07542755
61	0x21	0.04525653
62	0xcc	-0.07131332
63	0x4e	0.106969975
64	0x20	0.04388512
65	0x45	0.09462729
66	0x14	0.027428199
67	0x07	0.00959987
68	0x0e	0.01919974
69	0xd0	-0.06582768
70	0x23	0.04799935
71	0xdc	-0.04937076
72	0x09	0.01234269
73	0x0e	0.01919974
74	0x47	0.09737011
75	0xf2	-0.01919974
76	0xdf	-0.04525653
77	0xed	-0.026056789
78	0xe0	-0.04388512
79	0x0a	0.013714099
80	0xe3	-0.03977089
81	0x09	0.01234269
82	0x0b	0.01508551
83	0xd8	-0.054856397
84	0xf0	-0.02194256
85	0x26	0.052113578
86	0x17	0.031542428
87	0xf4	-0.01645692
88	0xf8	-0.01097128
89	0xed	-0.026056789
90	0xca	-0.07405614
91	0xf4	-0.01645692
92	0xfb	-0.0068570497
93	0xed	-0.026056789
94	0x0c	0.01645692
95	0xed	-0.026056789
96	0x0f	0.02057115
97	0xfb	-0.0068570497
98	0x16	0.03017102
99	0xff	-0.00137141
100	0xd1	-0.06445627
101	0xe7	-0.03428525
102	0x9d	-0.13576959
103	0xff	-0.00137141
104	0xff	-0.00137141
105	0xf2	-0.01919974
106	0x25	0.050742168
107	0xf3	-0.01782833
108	0xf2	-0.01919974
109	0x09	0.01234269
110	0x04	0.00548564
111	0x05	0.0068570497
112	0x25	0.050742168
113	0xfc	-0.00548564
114	0xe8	-0.03291384
115	0xde	-0.04662794
116	0x4c	0.104227155
117	0x1f	0.04251371
118	0x07	0.00959987
119	0x0a	0.013714099
120	0x14	0.027428199
121	0xf7	-0.01234269
122	0xf8	-0.01097128
123	0xf5	-0.01508551
124	0x06	0.00822846
125	0x20	0.04388512
126	0x3e	0.08502742
127	0xfc	-0.00548564
128	0xdd	-0.04799935
129	0xe2	-0.0411423
130	0xe3	-0.03977089
131	0xda	-0.052113578
132	0xee	-0.02468538
133	0x0a	0.013714099
134	0xf7	-0.01234269
135	0x1f	0.04251371
136	0xd9	-0.053484987
137	0xf2	-0.01919974
138	0x0d	0.01782833
139	0xfc	-0.00548564
140	0xdd	-0.04799935
141	0xdd	-0.04799935
142	0x3b	0.080913186
143	0x01	0.00137141
144	0xd8	-0.054856397
145	0x21	0.04525653
146	0x07	0.00959987
147	0xdb	-0.050742168
148	0xe8	-0.03291384
149	0x0c	0.01645692
150	0xda	-0.052113578
151	0xf7	-0.01234269
152	0x12	0.02468538
153	0x05	0.0068570497
154	0xf8	-0.01097128
155	0xf2	-0.01919974
156	0x11	0.02331397
157	0x17	0.031542428
158	0xf7	-0.01234269
159	0xe1	-0.04251371
160	0x06	0.00822846
161	0xeb	-0.02879961
162	0x08	0.01097128
163	0x08	0.01097128
164	0xfe	-0.00274282
165	0x38	0.07679896
166	0xca	-0.07405614
167	0x1f	0.04251371
168	0xf2	-0.01919974
169	0x30	0.06582768
170	0x1c	0.03839948
171	0x06	0.00822846
172	0xee	-0.02468538
173	0x10	0.02194256
174	0xfa	-0.00822846
175	0xd2	-0.063084856
176	0x16	0.03017102
177	0x04	0.00548564
178	0xe6	-0.03565666
179	0xe4	-0.03839948
180	0xdc	-0.04937076
181	0xe2	-0.0411423
182	0x21	0.04525653
183	0x05	0.0068570497
184	0xf0	-0.02194256
185	0xf7	-0.01234269
186	0x13	0.026056789
187	0xf1	-0.02057115
188	0x09	0.01234269
189	0x3d	0.083656006
190	0xdb	-0.050742168
191	0x0b	0.01508551
192	0xf2	-0.01919974
193	0xf7	-0.01234269
194	0x19	0.03428525
195	0x24	0.04937076
196	0xe0	-0.04388512
197	0xd6	-0.05759922
198	0x0d	0.01782833
199	0xfb	-0.0068570497
200	0xf4	-0.01645692
201	0xe5	-0.03702807
202	0xed	-0.026056789
203	0xe8	-0.03291384
204	0xe8	-0.03291384
205	0x11	0.02331397
206	0x23	0.04799935
207	0xf6	-0.013714099
208	0xe2	-0.0411423
209	0xf8	-0.01097128
210	0x37	0.07542755
211	0xe0	-0.04388512
212	0x05	0.0068570497
213	0xde	-0.04662794
214	0xf8	-0.01097128
215	0x22	0.04662794
216	0xc1	-0.086398825
217	0x0c	0.01645692
218	0xe3	-0.03977089
219	0x59	0.122055486
220	0x21	0.04525653
221	0xfe	-0.00274282
222	0x14	0.027428199
223	0xe1	-0.04251371
224	0xb2	-0.106969975
225	0xf3	-0.01782833
226	0xd9	-0.053484987
227	0x19	0.03428525
228	0x28	0.054856397
229	0xf7	-0.01234269
230	0x12	0.02468538
231	0xea	-0.03017102
232	0x25	0.050742168
233	0xe2	-0.0411423
234	0xfe	-0.00274282
235	0xeb	-0.02879961
236	0xf9	-0.00959987
237	0x11	0.02331397
238	0xd7	-0.05622781
239	0xc1	-0.086398825
240	0xfb	-0.0068570497
241	0x02	0.00274282
242	0x0c	0.01645692
243	0xff	-0.00137141
244	0x04	0.00548564
245	0x11	0.02331397
246	0x36	0.07405614
247	0xc9	-0.07542755
248	0xfe	-0.00274282
249	0xfe	-0.00274282
250	0xe6	-0.03565666
251	0x09	0.01234269
252	0x04	0.00548564
253	0x29	0.05622781
254	0x12	0.02468538
255	0x05	0.0068570497

arith.constant15 i1 [128, 128] scale=0.0017172539 zero_point=0
0	0x13	0.032627825
1	0x0f	0.025758808
2	0x1b	0.046365857
3	0x03	0.0051517617
4	0xdb	-0.063538395
5	0x25	0.063538395
6	0xef	-0.029193318
7	0x04	0.0068690157
8	0x0c	0.020607047
9	0xdf	-0.05666938
10	0xd2	-0.07899368
11	0xdb	-0.063538395
12	0xfa	-0.010303523
13	0x23	0.06010389
14	0x07	0.012020778
15	0xf5	-0.018889794
16	0x0e	0.024041556
17	0xdd	-0.06010389
18	0x03	0.0051517617
19	0x23	0.06010389
20	0x0b	0.018889794
21	0xd6	-0.07212467
22	0x10	0.027476063
23	0xee	-0.03091057
24	0x19	0.042931348
25	0xe6	-0.044648603
26	0x04	0.0068690157
27	0x2d	0.07727642
28	0x0d	0.022324301
29	0x20	0.054952126
30	0xfd	-0.0051517617
31	0xfc	-0.0068690157
32	0x0b	0.018889794
33	0x30	0.08242819
34	0xf6	-0.01717254
35	0x4c	0.1305113
36	0x21	0.05666938
37	0x0b	0.018889794
38	0x0e	0.024041556
39	0xfa	-0.010303523
40	0xfc	-0.0068690157
41	0xc8	-0.09616622
42	0x10	0.027476063
43	0x2e	0.07899368
44	0xd2	-0.07899368
45	0xe4	-0.04808311
46	0xeb	-0.036062334
47	0xd2	-0.07899368
48	0x20	0.054952126
49	0x23	0.06010389
50	0x04	0.0068690157
51	0x01	0.0017172539
52	0x17	0.03949684
53	0x27	0.066972904
54	0xfd	-0.0051517617
55	0x1e	0.051517617
56	0x0f	0.025758808
57	0xef	-0.029193318
58	0x0b	0.018889794
59	0xfe	-0.0034345079
60	0xe6	-0.044648603
61	0xe8	-0.041214094
62	0xf1	-0.025758808
63	0x04	0.0068690157
64	0xf0	-0.027476063
65	0x06	0.010303523
66	0xd7	-0.07040741
67	0x18	0.041214094
68	0xe7	-0.042931348
69	0xf9	-0.012020778
70	0xef	-0.029193318
71	0x23	0.06010389
72	0x02	0.0034345079
73	0xde	-0.058386635
74	0x22	0.058386635
75	0xde	-0.058386635
76	0x03	0.0051517617
77	0xf6	-0.01717254
78	0xf4	-0.020607047
79	0xf0	-0.027476063
80	0xfc	-0.0068690157
81	0x0c	0.020607047
82	0x07	0.012020778
83	0x0b	0.018889794
84	0xc6	-0.099600725
85	0xee	-0.03091057
86	0x08	0.0137380315
87	0x10	0.027476063
88	0x08	0.0137380315
89	0x13	0.032627825
90	0x0d	0.022324301
91	0x20	0.054952126
92	0x08	0.0137380315
93	0x37	0.09444897
94	0xd6	-0.07212467
95	0x1e	0.051517617
96	0xe2	-0.051517617
97	0x04	0.0068690157
98	0xf6	-0.01717254
99	0xe4	-0.04808311
100	0x26	0.06525565
101	0xf0	-0.027476063
102	0x36	0.092731714
103	0xc7	-0.09788348
104	0xd4	-0.07555918
105	0x31	0.08414544
106	0xf2	-0.024041556
107	0x2b	0.07384192
108	0x2a	0.07212467
109	0xf7	-0.015455285
110	0x0f	0.025758808
111	0x13	0.032627825
112	0xd8	-0.06869016
113	0xf7	-0.015455285
114	0x02	0.0034345079
115	0x12	0.03091057
116	0xdb	-0.063538395
117	0x2b	0.07384192
118	0xf1	-0.025758808
119	0x36	0.092731714
120	0x22	0.058386635
121	0x21	0.05666938
122	0x0d	0.022324301
123	0x0c	0.020607047
124	0xec	-0.03434508
125	0xfe	-0.0034345079
126	0x1d	0.049800362
127	0x10	0.027476063
128	0xea	-0.03777959
129	0xe1	-0.05323487
130	0xfa	-0.010303523
131	0x00	0.0
132	0xd0	-0.08242819
133	0x0e	0.024041556
134	0x11	0.029193318
135	0xf2	-0.024041556
136	0xe6	-0.044648603
137	0xd6	-0.07212467
138	0x03	0.0051517617
139	0xe7	-0.042931348
140	0x28	0.06869016
141	0xe9	-0.03949684
142	0xd0	-0.08242819
143	0xef	-0.029193318
144	0x16	0.03777959
145	0x47	0.121925026
146	0x1f	0.05323487
147	0xde	-0.058386635
148	0x03	0.0051517617
149	0x12	0.03091057
150	0x03	0.0051517617
151	0xef	-0.029193318
152	0x03	0.0051517617
153	0x11	0.029193318
154	0x17	0.03949684
155	0xec	-0.03434508
156	0x01	0.0017172539
157	0x22	0.058386635
158	0xe8	-0.041214094
159	0x03	0.0051517617
160	0xe0	-0.054952126
161	0xeb	-0.036062334
162	0x25	0.063538395
163	0x03	0.0051517617
164	0x46	0.12020778
165	0x0f	0.025758808
166	0x00	0.0
167	0xd7	-0.07040741
168	0xfc	-0.0068690157
169	0xdc	-0.06182114
170	0xe7	-0.042931348
171	0x01	0.0017172539
172	0xdb	-0.063538395
173	0x1b	0.046365857
174	0x0b	0.018889794
175	0xfa	-0.010303523
176	0x12	0.03091057
177	0xf6	-0.01717254
178	0x09	0.015455285
179	0x07	0.012020778
180	0x01	0.0017172539
181	0x0f	0.025758808
182	0xee	-0.03091057
183	0xdf	-0.05666938
184	0x14	0.03434508
185	0x04	0.0068690157
186	0xeb	-0.036062334
187	0xff	-0.0017172539
188	0x17	0.03949684
189	0xdf	-0.05666938
190	0xf7	-0.015455285
191	0x0e	0.024041556
192	0x0a	0.01717254
193	0xf3	-0.022324301
194	0x16	0.03777959
195	0xd6	-0.07212467
196	0x0a	0.01717254
197	0x06	0.010303523
198	0xf3	-0.022324301
199	0xeb	-0.036062334
200	0xf4	-0.020607047
201	0x00	0.0
202	0xf6	-0.01717254
203	0x13	0.032627825
204	0x01	0.0017172539
205	0xf0	-0.027476063
206	0xfc	-0.0068690157
207	0xf3	-0.022324301
208	0xfc	-0.0068690157
209	0x33	0.08757995
210	0xf2	-0.024041556
211	0x10	0.027476063
212	0x26	0.06525565
213	0x0d	0.022324301
214	0x00	0.0
215	0x28	0.06869016
216	0x01	0.0017172539
217	0xd5	-0.07384192
218	0x0b	0.018889794
219	0x1a	0.044648603
220	0x0a	0.01717254
221	0x12	0.03091057
222	0x0d	0.022324301
223	0xf3	-0.022324301
224	0x0c	0.020607047
225	0x0e	0.024041556
226	0xfe	-0.0034345079
227	0x02	0.0034345079
228	0xf0	-0.027476063
229	0x14	0.03434508
230	0xe6	-0.044648603
231	0x0a	0.01717254
232	0xef	-0.029193318
233	0xc0	-0.10990425
234	0x1b	0.046365857
235	0xeb	-0.036062334
236	0x0c	0.020607047
237	0x08	0.0137380315
238	0x2d	0.07727642
239	0x09	0.015455285
240	0x0b	0.018889794
241	0xee	-0.03091057
242	0xee	-0.03091057
243	0xc3	-0.10475249
244	0xf8	-0.0137380315
245	0xe2	-0.051517617
246	0xcb	-0.09101446
247	0x19	0.042931348
248	0xec	-0.03434508
249	0xeb	-0.036062334
250	0x18	0.041214094
251	0xfc	-0.0068690157
252	0x0c	0.020607047
253	0xfe	-0.0034345079
254	0x16	0.03777959
255	0x05	0.00858627

arith.constant14 i1 [128, 128] scale=0.0017179995 zero_point=0
0	0x1a	0.044667985
1	0x3c	0.10307997
2	0x22	0.058411982
3	0xe0	-0.054975983
4	0xcf	-0.08418197
5	0x02	0.003435999
6	0xef	-0.029205991
7	0x3a	0.09964397
8	0xde	-0.058411982
9	0x30	0.08246397
10	0x04	0.006871998
11	0xbb	-0.11854196
12	0x3d	0.10479797
13	0x02	0.003435999
14	0x05	0.008589997
15	0x0e	0.024051992
16	0xf8	-0.013743996
17	0x03	0.0051539983
18	0xfb	-0.008589997
19	0xe5	-0.046385985
20	0xe7	-0.042949986
21	0xf5	-0.018897993
22	0x2b	0.073873974
23	0x09	0.015461995
24	0xf6	-0.017179994
25	0xc7	-0.09792597
26	0xce	-0.08589997
27	0xf1	-0.025769992
28	0x3d	0.10479797
29	0xce	-0.08589997
30	0xdd	-0.06012998
31	0xfd	-0.0051539983
32	0xed	-0.03264199
33	0xf2	-0.024051992
34	0x36	0.09277197
35	0xd5	-0.073873974
36	0xea	-0.037795987
37	0x17	0.039513987
38	0xec	-0.034359988
39	0x29	0.070437975
40	0xe0	-0.054975983
41	0xdd	-0.06012998
42	0x32	0.08589997
43	0x1b	0.046385985
44	0x24	0.06184798
45	0x06	0.0103079965
46	0xc3	-0.10479797
47	0x2e	0.07902797
48	0xdd	-0.06012998
49	0xd7	-0.070437975
50	0xf6	-0.017179994
51	0x0f	0.025769992
52	0x11	0.029205991
53	0xef	-0.029205991
54	0x29	0.070437975
55	0xe2	-0.051539984
56	0xdc	-0.06184798
57	0x1a	0.044667985
58	0xe8	-0.041231986
59	0xce	-0.08589997
60	0x11	0.029205991
61	0x0b	0.018897993
62	0xe5	-0.046385985
63	0xea	-0.037795987
64	0xf3	-0.022333993
65	0x27	0.067001976
66	0xe2	-0.051539984
67	0x24	0.06184798
68	0xfb	-0.008589997
69	0x0f	0.025769992
70	0x30	0.08246397
71	0x0a	0.017179994
72	0x21	0.056693982
73	0xfd	-0.0051539983
74	0x3b	0.10136197
75	0xfc	-0.006871998
76	0x18	0.041231986
77	0xef	-0.029205991
78	0x05	0.008589997
79	0x1a	0.044667985
80	0xdf	-0.056693982
81	0x17	0.039513987
82	0xf5	-0.018897993
83	0xe8	-0.041231986
84	0xf8	-0.013743996
85	0x18	0.041231986
86	0xf8	-0.013743996
87	0x30	0.08246397
88	0xe3	-0.049821984
89	0xc8	-0.09620797
90	0x11	0.029205991
91	0xd4	-0.075591974
92	0x11	0.029205991
93	0x10	0.027487991
94	0xc7	-0.09792597
95	0x01	0.0017179995
96	0x01	0.0017179995
97	0x21	0.056693982
98	0xe4	-0.048103984
99	0x0b	0.018897993
100	0xfa	-0.0103079965
101	0x26	0.06528398
102	0xee	-0.03092399
103	0x1e	0.051539984
104	0xc6	-0.09964397
105	0xfb	-0.008589997
106	0x25	0.06356598
107	0x16	0.037795987
108	0xc4	-0.10307997
109	0xee	-0.03092399
110	0x28	0.068719976
111	0xd8	-0.068719976
112	0xd2	-0.07902797
113	0x12	0.03092399
114	0x23	0.06012998
115	0x1a	0.044667985
116	0xff	-0.0017179995
117	0xe4	-0.048103984
118	0xc9	-0.09448997
119	0xed	-0.03264199
120	0xd1	-0.08074597
121	0xef	-0.029205991
122	0x2a	0.072155975
123	0x37	0.09448997
124	0xf7	-0.015461995
125	0xd4	-0.075591974
126	0x29	0.070437975
127	0x0e	0.024051992
128	0x0e	0.024051992
129	0xfc	-0.006871998
130	0x28	0.068719976
131	0xd4	-0.075591974
132	0x19	0.042949986
133	0xcd	-0.08761797
134	0x2f	0.08074597
135	0x1a	0.044667985
136	0xf3	-0.022333993
137	0xed	-0.03264199
138	0xe0	-0.054975983
139	0x0e	0.024051992
140	0xce	-0.08589997
141	0xfb	-0.008589997
142	0xd1	-0.08074597
143	0x18	0.041231986
144	0x1c	0.048103984
145	0xfe	-0.003435999
146	0x2b	0.073873974
147	0xf1	-0.025769992
148	0x14	0.034359988
149	0x1d	0.049821984
150	0x0b	0.018897993
151	0x21	0.056693982
152	0xbf	-0.111669965
153	0xd4	-0.075591974
154	0x43	0.115105964
155	0xf8	-0.013743996
156	0xd4	-0.075591974
157	0x3a	0.09964397
158	0xcb	-0.09105397
159	0xcf	-0.08418197
160	0xdd	-0.06012998
161	0x05	0.008589997
162	0x38	0.09620797
163	0xd1	-0.08074597
164	0x0f	0.025769992
165	0xd3	-0.07730997
166	0x3a	0.09964397
167	0x27	0.067001976
168	0xd9	-0.067001976
169	0xde	-0.058411982
170	0x32	0.08589997
171	0x3c	0.10307997
172	0x10	0.027487991
173	0x27	0.067001976
174	0xe0	-0.054975983
175	0xed	-0.03264199
176	0x2c	0.075591974
177	0xe2	-0.051539984
178	0x0a	0.017179994
179	0x0b	0.018897993
180	0xc9	-0.09448997
181	0xea	-0.037795987
182	0x1e	0.051539984
183	0x28	0.068719976
184	0x0d	0.022333993
185	0xe4	-0.048103984
186	0x1e	0.051539984
187	0xe4	-0.048103984
188	0xe6	-0.044667985
189	0x0e	0.024051992
190	0xc5	-0.10136197
191	0xf1	-0.025769992
192	0xf1	-0.025769992
193	0xe2	-0.051539984
194	0x30	0.08246397
195	0xf9	-0.012025996
196	0x03	0.0051539983
197	0x20	0.054975983
198	0xe4	-0.048103984
199	0xef	-0.029205991
200	0xfa	-0.0103079965
201	0x2b	0.073873974
202	0xcb	-0.09105397
203	0xd7	-0.070437975
204	0x24	0.06184798
205	0xbe	-0.113387965
206	0xe4	-0.048103984
207	0x29	0.070437975
208	0xdc	-0.06184798
209	0xea	-0.037795987
210	0xe1	-0.053257983
211	0xd0	-0.08246397
212	0xf1	-0.025769992
213	0x2b	0.073873974
214	0xef	-0.029205991
215	0xed	-0.03264199
216	0x17	0.039513987
217	0xec	-0.034359988
218	0xe8	-0.041231986
219	0x21	0.056693982
220	0x07	0.012025996
221	0x15	0.036077987
222	0x36	0.09277197
223	0x02	0.003435999
224	0x2f	0.08074597
225	0x0b	0.018897993
226	0x0d	0.022333993
227	0xfa	-0.0103079965
228	0xee	-0.03092399
229	0xf0	-0.027487991
230	0xc7	-0.09792597
231	0x2a	0.072155975
232	0xdb	-0.06356598
233	0x1f	0.053257983
234	0x3a	0.09964397
235	0x21	0.056693982
236	0xf7	-0.015461995
237	0xcb	-0.09105397
238	0xf1	-0.025769992
239	0x15	0.036077987
240	0x00	0.0
241	0xc1	-0.108233966
242	0xd6	-0.072155975
243	0xd5	-0.073873974
244	0x30	0.08246397
245	0x21	0.056693982
246	0x27	0.067001976
247	0x26	0.06528398
248	0x3a	0.09964397
249	0x17	0.039513987
250	0x21	0.056693982
251	0x10	0.027487991
252	0xce	-0.08589997
253	0xf9	-0.012025996
254	0x32	0.08589997
255	0x19	0.042949986

arith.constant13 i1 [128, 128] scale=0.0016333453 zero_point=0
0	0x2c	0.07186719
1	0xf5	-0.017966798
2	0x29	0.06696716
3	0xdb	-0.060433775
4	0xe6	-0.042466976
5	0x26	0.06206712
6	0xbc	-0.11106748
7	0xfa	-0.009800072
8	0x44	0.11106748
9	0xce	-0.08166727
10	0xfd	-0.004900036
11	0xf9	-0.011433417
12	0xf0	-0.026133524
13	0x16	0.035933595
14	0xef	-0.02776687
15	0x4a	0.12086755
16	0xd6	-0.0686005
17	0xd5	-0.070233844
18	0xdd	-0.057167083
19	0xe2	-0.049000356
20	0xd1	-0.07676723
21	0xfa	-0.009800072
22	0x0f	0.024500178
23	0x13	0.03103356
24	0xf2	-0.022866834
25	0xec	-0.032666907
26	0xff	-0.0016333453
27	0xfb	-0.008166727
28	0x02	0.0032666905
29	0x26	0.06206712
30	0xfd	-0.004900036
31	0xe6	-0.042466976
32	0xf4	-0.019600144
33	0xd5	-0.070233844
34	0x1d	0.047367014
35	0x17	0.03756694
36	0xf6	-0.016333453
37	0x15	0.03430025
38	0x40	0.1045341
39	0xd1	-0.07676723
40	0xc9	-0.08983399
41	0x17	0.03756694
42	0xe6	-0.042466976
43	0x04	0.006533381
44	0x1b	0.04410032
45	0xe9	-0.03756694
46	0x1c	0.045733668
47	0xce	-0.08166727
48	0xb4	-0.12413424
49	0xf1	-0.024500178
50	0x08	0.013066762
51	0x02	0.0032666905
52	0xd6	-0.0686005
53	0x21	0.053900395
54	0x05	0.008166727
55	0xf0	-0.026133524
56	0xf0	-0.026133524
57	0x12	0.029400215
58	0x19	0.040833633
59	0xb0	-0.13066763
60	0x0f	0.024500178
61	0x3b	0.096367374
62	0xc1	-0.10290075
63	0xeb	-0.03430025
64	0xc9	-0.08983399
65	0x2b	0.070233844
66	0x23	0.057167083
67	0xdd	-0.057167083
68	0xc1	-0.10290075
69	0xe4	-0.045733668
70	0x13	0.03103356
71	0x43	0.109434135
72	0xf4	-0.019600144
73	0x28	0.06533381
74	0xe4	-0.045733668
75	0xeb	-0.03430025
76	0x44	0.11106748
77	0xf5	-0.017966798
78	0x06	0.009800072
79	0xfd	-0.004900036
80	0xb8	-0.11760086
81	0x04	0.006533381
82	0x27	0.06370047
83	0x0e	0.022866834
84	0xd1	-0.07676723
85	0xe0	-0.05226705
86	0x24	0.05880043
87	0xda	-0.06206712
88	0x3c	0.09800071
89	0x0b	0.017966798
90	0x3f	0.10290075
91	0xdf	-0.053900395
92	0x2c	0.07186719
93	0x01	0.0016333453
94	0xd9	-0.06370047
95	0xe8	-0.039200287
96	0xce	-0.08166727
97	0x2d	0.07350054
98	0x11	0.02776687
99	0xf6	-0.016333453
100	0x05	0.008166727
101	0xcc	-0.08493395
102	0xf9	-0.011433417
103	0x2a	0.0686005
104	0xd2	-0.07513388
105	0xc9	-0.08983399
106	0x46	0.114334166
107	0x2c	0.07186719
108	0xdb	-0.060433775
109	0xeb	-0.03430025
110	0x31	0.08003392
111	0x02	0.0032666905
112	0x03	0.004900036
113	0xdd	-0.057167083
114	0xe0	-0.05226705
115	0xe9	-0.03756694
116	0x37	0.08983399
117	0xd0	-0.078400575
118	0xca	-0.08820064
119	0x4a	0.12086755
120	0x49	0.119234204
121	0xda	-0.06206712
122	0x0a	0.016333453
123	0x10	0.026133524
124	0xdb	-0.060433775
125	0xd3	-0.07350054
126	0x1f	0.050633702
127	0xdf	-0.053900395
128	0x1e	0.049000356
129	0x0b	0.017966798
130	0xfa	-0.009800072
131	0x0d	0.021233488
132	0xbc	-0.11106748
133	0xd8	-0.06533381
134	0x24	0.05880043
135	0xdf	-0.053900395
136	0x1c	0.045733668
137	0xd7	-0.06696716
138	0x02	0.0032666905
139	0xea	-0.035933595
140	0x0b	0.017966798
141	0xf5	-0.017966798
142	0xfc	-0.006533381
143	0x39	0.09310068
144	0x05	0.008166727
145	0xc7	-0.09310068
146	0xc8	-0.091467336
147	0xf8	-0.013066762
148	0x0d	0.021233488
149	0xfa	-0.009800072
150	0x3b	0.096367374
151	0xfb	-0.008166727
152	0xbe	-0.10780079
153	0x2c	0.07186719
154	0x39	0.09310068
155	0xe2	-0.049000356
156	0xe7	-0.040833633
157	0x09	0.014700107
158	0xea	-0.035933595
159	0xd5	-0.070233844
160	0x22	0.05553374
161	0x40	0.1045341
162	0x0d	0.021233488
163	0xf6	-0.016333453
164	0x15	0.03430025
165	0xd4	-0.07186719
166	0x21	0.053900395
167	0xd5	-0.070233844
168	0xfc	-0.006533381
169	0x18	0.039200287
170	0xe1	-0.050633702
171	0x15	0.03430025
172	0xfe	-0.0032666905
173	0xd2	-0.07513388
174	0xf3	-0.021233488
175	0x25	0.060433775
176	0x2d	0.07350054
177	0xf0	-0.026133524
178	0x02	0.0032666905
179	0x30	0.078400575
180	0x27	0.06370047
181	0xe6	-0.042466976
182	0x07	0.011433417
183	0x08	0.013066762
184	0xcd	-0.083300605
185	0x28	0.06533381
186	0xee	-0.029400215
187	0xef	-0.02776687
188	0xe2	-0.049000356
189	0x15	0.03430025
190	0x25	0.060433775
191	0x2b	0.070233844
192	0xf7	-0.014700107
193	0x14	0.032666907
194	0x2d	0.07350054
195	0xe0	-0.05226705
196	0x3a	0.09473403
197	0xd4	-0.07186719
198	0xf6	-0.016333453
199	0xf8	-0.013066762
200	0xfa	-0.009800072
201	0xff	-0.0016333453
202	0xfa	-0.009800072
203	0x05	0.008166727
204	0xfe	-0.0032666905
205	0x0a	0.016333453
206	0xea	-0.035933595
207	0xd7	-0.06696716
208	0x2f	0.07676723
209	0xdb	-0.060433775
210	0x22	0.05553374
211	0xd2	-0.07513388
212	0x24	0.05880043
213	0xe9	-0.03756694
214	0xf9	-0.011433417
215	0x3f	0.10290075
216	0x14	0.032666907
217	0x47	0.11596751
218	0x2d	0.07350054
219	0xdf	-0.053900395
220	0x06	0.009800072
221	0x24	0.05880043
222	0xfc	-0.006533381
223	0xff	-0.0016333453
224	0xf7	-0.014700107
225	0xfc	-0.006533381
226	0xeb	-0.03430025
227	0xd6	-0.0686005
228	0x46	0.114334166
229	0xf5	-0.017966798
230	0x1c	0.045733668
231	0x24	0.05880043
232	0xc3	-0.09963406
233	0xdf	-0.053900395
234	0x43	0.109434135
235	0x0a	0.016333453
236	0xe2	-0.049000356
237	0xee	-0.029400215
238	0xd4	-0.07186719
239	0x09	0.014700107
240	0xe5	-0.04410032
241	0xf8	-0.013066762
242	0xd3	-0.07350054
243	0xfd	-0.004900036
244	0x19	0.040833633
245	0x30	0.078400575
246	0xe1	-0.050633702
247	0x03	0.004900036
248	0xe8	-0.039200287
249	0x20	0.05226705
250	0xe1	-0.050633702
251	0xff	-0.0016333453
252	0x10	0.026133524
253	0xfe	-0.0032666905
254	0x2f	0.07676723
255	0xde	-0.05553374

arith.constant12 i1 [128, 128] scale=0.001319749 zero_point=0
0	0x1a	0.034313474
1	0xf1	-0.019796235
2	0x58	0.116137914
3	0x28	0.052789964
4	0x96	-0.1398934
5	0xb2	-0.102940425
6	0xfe	-0.002639498
7	0x4e	0.102940425
8	0xe9	-0.030354228
9	0xa9	-0.11481817
10	0x9b	-0.13329466
11	0x39	0.075225696
12	0xe9	-0.030354228
13	0x3c	0.07918494
14	0xd4	-0.058068957
15	0xf9	-0.009238243
16	0x1f	0.040912222
17	0x9e	-0.1293354
18	0x22	0.044871468
19	0x0e	0.018476486
20	0xa9	-0.11481817
21	0x2c	0.058068957
22	0x5c	0.12141691
23	0xb3	-0.101620674
24	0xc6	-0.07654545
25	0xc2	-0.081824444
26	0x31	0.0646677
27	0x11	0.022435734
28	0x61	0.12801565
29	0xf7	-0.011877742
30	0x10	0.021115985
31	0xcc	-0.06862695
32	0x19	0.032993726
33	0x22	0.044871468
34	0x5c	0.12141691
35	0x31	0.0646677
36	0xfb	-0.0065987455
37	0xd5	-0.05674921
38	0x1b	0.035633225
39	0xf0	-0.021115985
40	0x08	0.010557992
41	0x2d	0.05938871
42	0xf8	-0.010557992
43	0xe8	-0.031673975
44	0x16	0.029034479
45	0x24	0.047510967
46	0x27	0.051470213
47	0xad	-0.10953917
48	0xd3	-0.05938871
49	0xe8	-0.031673975
50	0x52	0.10821942
51	0xcb	-0.0699467
52	0x32	0.06598745
53	0x35	0.0699467
54	0xc6	-0.07654545
55	0x26	0.050150465
56	0xc4	-0.07918494
57	0xe2	-0.03959247
58	0x0e	0.018476486
59	0xbd	-0.088423185
60	0x16	0.029034479
61	0x10	0.021115985
62	0x17	0.030354228
63	0x14	0.026394982
64	0xf5	-0.014517239
65	0xda	-0.050150465
66	0x12	0.023755483
67	0xea	-0.029034479
68	0xdd	-0.046191216
69	0xd1	-0.062028207
70	0xf8	-0.010557992
71	0x4b	0.09898118
72	0xa6	-0.11877742
73	0xd1	-0.062028207
74	0x0e	0.018476486
75	0xdd	-0.046191216
76	0xf3	-0.017156737
77	0xe9	-0.030354228
78	0xfa	-0.007918494
79	0xc4	-0.07918494
80	0x1e	0.03959247
81	0xeb	-0.02771473
82	0xe3	-0.038272724
83	0x29	0.05410971
84	0x21	0.043551717
85	0xd5	-0.05674921
86	0x15	0.02771473
87	0x0c	0.015836988
88	0xfa	-0.007918494
89	0x16	0.029034479
90	0xd5	-0.05674921
91	0xda	-0.050150465
92	0x2b	0.05674921
93	0x56	0.11349842
94	0x22	0.044871468
95	0xd5	-0.05674921
96	0x28	0.052789964
97	0xd5	-0.05674921
98	0x07	0.009238243
99	0x1c	0.036952972
100	0x44	0.089742936
101	0x27	0.051470213
102	0x07	0.009238243
103	0x27	0.051470213
104	0xbb	-0.09106269
105	0x4e	0.102940425
106	0x18	0.031673975
107	0xaa	-0.11349842
108	0x0c	0.015836988
109	0xac	-0.11085892
110	0xe8	-0.031673975
111	0x1d	0.038272724
112	0x11	0.022435734
113	0xb3	-0.101620674
114	0xa4	-0.12141691
115	0x21	0.043551717
116	0xa3	-0.12273666
117	0x28	0.052789964
118	0xe0	-0.04223197
119	0xe3	-0.038272724
120	0x5a	0.11877742
121	0x13	0.025075233
122	0x28	0.052789964
123	0x0b	0.014517239
124	0x04	0.005278996
125	0x13	0.025075233
126	0x0c	0.015836988
127	0x15	0.02771473
128	0xe0	-0.04223197
129	0xeb	-0.02771473
130	0xaf	-0.10689967
131	0xfb	-0.0065987455
132	0xe1	-0.040912222
133	0xda	-0.050150465
134	0xf1	-0.019796235
135	0xda	-0.050150465
136	0xb6	-0.09766143
137	0x33	0.067307204
138	0x49	0.09634168
139	0xfe	-0.002639498
140	0xc4	-0.07918494
141	0xc6	-0.07654545
142	0x0c	0.015836988
143	0xef	-0.022435734
144	0xfd	-0.003959247
145	0xf3	-0.017156737
146	0xe9	-0.030354228
147	0x04	0.005278996
148	0x43	0.088423185
149	0xf3	-0.017156737
150	0x19	0.032993726
151	0xdd	-0.046191216
152	0x15	0.02771473
153	0xf7	-0.011877742
154	0x2c	0.058068957
155	0x03	0.003959247
156	0x04	0.005278996
157	0xec	-0.026394982
158	0xb4	-0.10030093
159	0x1e	0.03959247
160	0x36	0.07126645
161	0xcd	-0.067307204
162	0xdb	-0.048830714
163	0xee	-0.023755483
164	0x03	0.003959247
165	0xdc	-0.047510967
166	0x01	0.001319749
167	0x3f	0.08314419
168	0x4d	0.101620674
169	0xf8	-0.010557992
170	0xe5	-0.035633225
171	0x32	0.06598745
172	0x2d	0.05938871
173	0xd6	-0.05542946
174	0xfc	-0.005278996
175	0xfe	-0.002639498
176	0xdd	-0.046191216
177	0xc5	-0.07786519
178	0x0e	0.018476486
179	0xd8	-0.052789964
180	0xd8	-0.052789964
181	0xf9	-0.009238243
182	0x2b	0.05674921
183	0x34	0.06862695
184	0x2b	0.05674921
185	0xfd	-0.003959247
186	0xd1	-0.062028207
187	0xe6	-0.034313474
188	0x45	0.09106269
189	0xd0	-0.06334795
190	0xe7	-0.032993726
191	0xc3	-0.08050469
192	0x53	0.10953917
193	0xd5	-0.05674921
194	0x55	0.11217867
195	0x00	0.0
196	0x3f	0.08314419
197	0x19	0.032993726
198	0x54	0.11085892
199	0x24	0.047510967
200	0x25	0.048830714
201	0xe0	-0.04223197
202	0x29	0.05410971
203	0x3c	0.07918494
204	0xca	-0.07126645
205	0xda	-0.050150465
206	0x4f	0.10426018
207	0x04	0.005278996
208	0x01	0.001319749
209	0xcf	-0.0646677
210	0x3b	0.07786519
211	0x0d	0.017156737
212	0x49	0.09634168
213	0x3c	0.07918494
214	0xe8	-0.031673975
215	0x31	0.0646677
216	0xe2	-0.03959247
217	0xb4	-0.10030093
218	0x1d	0.038272724
219	0xaf	-0.10689967
220	0x4d	0.101620674
221	0xb6	-0.09766143
222	0x25	0.048830714
223	0xd7	-0.05410971
224	0x0c	0.015836988
225	0xfc	-0.005278996
226	0xfa	-0.007918494
227	0x2a	0.05542946
228	0x1e	0.03959247
229	0xf3	-0.017156737
230	0xfe	-0.002639498
231	0x1f	0.040912222
232	0xd2	-0.060708456
233	0xf0	-0.021115985
234	0x19	0.032993726
235	0x20	0.04223197
236	0x3d	0.08050469
237	0x41	0.08578369
238	0xe3	-0.038272724
239	0xdf	-0.043551717
240	0x51	0.10689967
241	0xd0	-0.06334795
242	0x44	0.089742936
243	0xfc	-0.005278996
244	0x15	0.02771473
245	0xe8	-0.031673975
246	0x39	0.075225696
247	0xed	-0.025075233
248	0xba	-0.09238243
249	0xf3	-0.017156737
250	0x2d	0.05938871
251	0xd0	-0.06334795
252	0xd2	-0.060708456
253	0x0a	0.013197491
254	0xc4	-0.07918494
255	0x28	0.052789964
