ship_tf_quant.tflite (tflite, 92056 bytes, 6 tensors)

sequential/conv2d_1/Conv2D i1 [32, 3, 3, 3]
75 47 -66 -89 -94 -103 22 69
-98 -68 -34 -34 102 0 33 -67
82 56 -2 -6 39 -127 101 -115
-84 -58 7 -52 -4 116 81 25
-17 27 109 -60 -89 -52 -94 32
118 95 -84 127 -10 -95 -57 24
33 3 105 -27 -97 48 -67 -72
-48 -122 57 2 -22 -6 73 -2
80 10 79 72 69 -71 -127 25
-11 -76 79 96 28 -107 28 12
-116 55 2 30 -127 -53 -127 65
-59 52 -35 -79 11 -50 80 -17
91 64 -117 59 -92 -78 96 16
63 -14 5 46 60 -113 29 4
20 -94 66 -49 -44 -60 4 8
100 117 46 127 -36 68 -27 -118
-114 -11 -116 113 -87 54 109 88
39 62 -127 -15 99 46 75 -28
-120 42 90 -126 -15 -100 -93 41
113 -94 -54 -81 -100 -80 -46 -57
-59 84 12 -17 -75 -86 -46 -120
-127 97 -74 -123 -105 85 -80 -68
-74 -54 108 21 -15 -40 75 -72
-101 -26 -119 -122 -1 10 -73 96
59 -47 -94 95 11 -71 108 -21
-65 -43 -98 61 39 -61 49 127
-25 90 -34 -91 19 -1 -20 -12
23 61 -97 -102 127 -44 5 -68
82 31 -127 45 -91 -24 -64 125
118 121 -26 -101 -2 33 -77 -70
66 -22 19 -39 119 2 72 -44
-10 38 -103 120 -105 -21 62 -54
00000000: 4b2f bea7 a299 1645 9ebc dede 6600 21bd
00000010: 5238 fefa 2781 658d acc6 07cc fc74 5119
00000020: ef1b 6dc4 a7cc a220 765f ac7f f6a1 c718
00000030: 2103 69e5 9f30 bdb8 d086 3902 eafa 49fe
00000040: 500a 4f48 45b9 8119 f5b4 4f60 1c95 1c0c
00000050: 8c37 021e 81cb 8141 c534 ddb1 0bce 50ef
00000060: 5b40 8b3b a4b2 6010 3ff2 052e 3c8f 1d04
00000070: 14a2 42cf d4c4 0408 6475 2e7f dc44 e58a
00000080: 8ef5 8c71 a936 6d58 273e 81f1 632e 4be4
00000090: 882a 5a82 f19c a329 71a2 caaf 9cb0 d2c7
000000a0: c554 0cef b5aa d288 8161 b685 9755 b0bc
000000b0: b6ca 6c15 f1d8 4bb8 9be6 8986 ff0a b760
000000c0: 3bd1 a25f 0bb9 6ceb bfd5 9e3d 27c3 317f
000000d0: e75a dea5 13ff ecf4 173d 9f9a 7fd4 05bc
000000e0: 521f 812d a5e8 c07d 7679 e69b fe21 b3ba
000000f0: 42ea 13d9 7702 48d4 f626 9978 97eb 3eca

sequential/conv2d_2/Conv2D i1 [16, 3, 3, 32]
31 47 10 -84 -32 73 -8 -5
-60 64 10 -68 -28 16 33 -6
90 -10 8 -14 76 -20 -38 -61
-28 127 -53 38 -37 19 -53 -67
15 -7 -12 -60 -26 -9 6 -9
-44 10 8 -81 -6 -13 -38 -52
-36 55 5 -41 -41 34 35 -73
31 -108 57 -74 -1 64 75 24
29 44 80 -75 -13 -70 30 -41
-29 37 -7 73 -89 -81 -91 48
-62 68 -69 49 -84 37 24 -67
53 26 -35 -87 42 45 16 -33
34 -20 -18 35 -87 84 -35 58
69 86 34 -29 -63 22 91 -77
-36 -60 -67 -40 61 70 66 52
28 83 -6 50 50 -57 90 -64
-59 10 63 -66 -22 -24 -19 -36
13 29 -78 -44 23 -44 -69 83
-60 -77 49 -67 87 -33 89 -18
-73 -33 24 70 -59 -32 -62 51
59 12 5 -6 -119 38 -3 -23
-33 -42 39 59 -108 -22 67 -36
-37 61 31 -53 -8 38 -79 -11
23 72 35 -69 15 17 31 37
-80 22 -41 -47 80 48 -68 -17
-40 -62 8 38 42 -73 40 24
41 32 -29 -38 -39 -58 14 8
-67 10 90 -4 70 -84 98 -12
-56 28 89 10 -46 -26 70 -11
-120 -78 -63 87 46 23 -69 50
7 -79 -70 -21 -8 17 -27 50
29 20 41 22 -1 62 77 54
00000000: 1f2f 0aac e049 f8fb c440 0abc e410 21fa
00000010: 5af6 08f2 4cec dac3 e47f cb26 db13 cbbd
00000020: 0ff9 f4c4 e6f7 06f7 d40a 08af faf3 dacc
00000030: dc37 05d7 d722 23b7 1f94 39b6 ff40 4b18
00000040: 1d2c 50b5 f3ba 1ed7 e325 f949 a7af a530
00000050: c244 bb31 ac25 18bd 351a dda9 2a2d 10df
00000060: 22ec ee23 a954 dd3a 4556 22e3 c116 5bb3
00000070: dcc4 bdd8 3d46 4234 1c53 fa32 32c7 5ac0
00000080: c50a 3fbe eae8 eddc 0d1d b2d4 17d4 bb53
00000090: c4b3 31bd 57df 59ee b7df 1846 c5e0 c233
000000a0: 3b0c 05fa 8926 fde9 dfd6 273b 94ea 43dc
000000b0: db3d 1fcb f826 b1f5 1748 23bb 0f11 1f25
000000c0: b016 d7d1 5030 bcef d8c2 0826 2ab7 2818
000000d0: 2920 e3da d9c6 0e08 bd0a 5afc 46ac 62f4
000000e0: c81c 590a d2e6 46f5 88b2 c157 2e17 bb32
000000f0: 07b1 baeb f811 e532 1d14 2916 ff3e 4d36

sequential/conv2d_3/Conv2D i1 [64, 3, 3, 16]
-72 71 104 20 51 -26 50 32
-13 -34 84 -33 -26 91 -34 64
54 -30 100 -11 74 14 -5 15
-28 46 7 -16 -55 -13 109 42
59 -16 69 50 8 18 44 65
8 24 -40 65 -37 44 69 33
-63 72 65 58 27 -12 127 33
-7 72 3 13 32 74 18 67
-68 -3 58 52 42 81 98 39
63 42 83 91 -58 14 92 43
-10 44 104 -44 44 -22 58 -34
-58 31 56 -35 -18 -55 37 66
44 0 106 -13 65 -53 99 65
-35 63 6 50 -47 84 0 -54
-34 22 101 -24 37 51 71 7
-67 43 65 -17 62 97 92 34
-27 -5 66 -11 47 -10 62 7
-9 -15 64 40 28 -37 78 49
2 0 61 61 44 -41 90 80
-18 35 61 -1 -13 25 106 -79
1 53 39 47 76 9 4 62
-67 -62 88 -3 -19 127 106 46
-54 82 -63 -46 72 -46 97 -11
-34 7 61 44 -23 37 -51 -17
52 8 85 -19 37 -62 41 65
21 4 3 36 61 -69 -2 -70
-63 37 65 -53 0 16 97 34
5 -13 -21 32 59 56 32 -74
-22 -32 49 57 -57 -13 22 -71
-6 47 19 73 -67 53 -25 -62
18 -75 -66 20 -39 -23 -53 -69
47 -68 -74 32 30 -68 -3 -40
00000000: b847 6814 33e6 3220 f3de 54df e65b de40
00000010: 36e2 64f5 4a0e fb0f e42e 07f0 c9f3 6d2a
00000020: 3bf0 4532 0812 2c41 0818 d841 db2c 4521
00000030: c148 413a 1bf4 7f21 f948 030d 204a 1243
00000040: bcfd 3a34 2a51 6227 3f2a 535b c60e 5c2b
00000050: f62c 68d4 2cea 3ade c61f 38dd eec9 2542
00000060: 2c00 6af3 41cb 6341 dd3f 0632 d154 00ca
00000070: de16 65e8 2533 4707 bd2b 41ef 3e61 5c22
00000080: e5fb 42f5 2ff6 3e07 f7f1 4028 1cdb 4e31
00000090: 0200 3d3d 2cd7 5a50 ee23 3dff f319 6ab1
000000a0: 0135 272f 4c09 043e bdc2 58fd ed7f 6a2e
000000b0: ca52 c1d2 48d2 61f5 de07 3d2c e925 cdef
000000c0: 3408 55ed 25c2 2941 1504 0324 3dbb feba
000000d0: c125 41cb 0010 6122 05f3 eb20 3b38 20b6
000000e0: eae0 3139 c7f3 16b9 fa2f 1349 bd35 e7c2
000000f0: 12b5 be14 d9e9 cbbb 2fbc b620 1ebc fdd8

sequential/conv2d_4/Conv2D i1 [32, 3, 3, 64]
-33 38 -51 -40 39 58 20 48
14 -7 27 31 3 -8 -14 7
-29 -26 9 39 10 31 -36 26
18 -34 -41 -36 2 1 -31 38
-13 -42 0 5 -30 46 10 18
-16 47 -17 32 127 -14 39 22
60 41 36 32 23 27 -13 -4
-47 6 -9 1 -15 -58 -15 28
-9 70 5 31 -23 39 38 30
-4 -30 -23 48 -45 -13 -39 -31
39 12 -29 63 0 -4 11 -3
2 -45 34 26 -13 -6 -36 58
20 -12 11 22 33 0 49 43
21 31 -7 38 82 18 41 -25
85 63 20 12 -41 -49 8 9
-33 19 -25 42 5 26 46 3
44 16 7 57 63 46 61 45
28 10 2 33 38 -13 -42 -13
-16 33 -10 71 9 4 36 -42
-15 32 0 39 25 20 -15 12
20 -2 40 50 -2 18 44 -2
26 65 12 -13 -24 32 46 2
79 80 -44 32 1 -34 -10 1
26 47 -27 15 23 34 56 -30
-34 -51 -36 -31 -50 -28 -73 -36
-4 -34 31 -12 -40 18 -37 24
-11 -62 -34 -32 -27 25 -35 -25
3 -30 -69 -28 -43 -10 -11 -16
-17 -42 -51 26 -40 -43 -1 -1
-42 20 -41 -24 13 -61 30 -6
-46 -67 -32 19 -36 -5 -43 14
-36 -15 -29 -52 -34 19 -57 -6
00000000: df26 cdd8 273a 1430 0ef9 1b1f 03f8 f207
00000010: e3e6 0927 0a1f dc1a 12de d7dc 0201 e126
00000020: f3d6 0005 e22e 0a12 f02f ef20 7ff2 2716
00000030: 3c29 2420 171b f3fc d106 f701 f1c6 f11c
00000040: f746 051f e927 261e fce2 e930 d3f3 d9e1
00000050: 270c e33f 00fc 0bfd 02d3 221a f3fa dc3a
00000060: 14f4 0b16 2100 312b 151f f926 5212 29e7
00000070: 553f 140c d7cf 0809 df13 e72a 051a 2e03
00000080: 2c10 0739 3f2e 3d2d 1c0a 0221 26f3 d6f3
00000090: f021 f647 0904 24d6 f120 0027 1914 f10c
000000a0: 14fe 2832 fe12 2cfe 1a41 0cf3 e820 2e02
000000b0: 4f50 d420 01de f601 1a2f e50f 1722 38e2
000000c0: decd dce1 cee4 b7dc fcde 1ff4 d812 db18
000000d0: f5c2 dee0 e519 dde7 03e2 bbe4 d5f6 f5f0
000000e0: efd6 cd1a d8d5 ffff d614 d7e8 0dc3 1efa
000000f0: d2bd e013 dcfb d50e dcf1 e3cc de13 c7fa

sequential/dense_1/MatMul i1 [24, 2048] scale=0.0015883916 zero_point=0
0.04765175 0.00953035 0.0381214 0.06671245 0.014295524 0.054005314 0.055593707 0.012707133
0.08259636 -0.00953035 0.036533006 0.060358882 0.015883915 0.05877049 0.004765175 0.04129818
0.023825875 -0.017472308 0.011118742 0.030179441 0.028591048 0.02064909 -0.05082853 0.011118742
-0.030179441 0.023825875 0.046063356 -0.03176783 -0.030179441 -0.044474967 0.017472308 0.012707133
0.054005314 0.04129818 0.04765175 0.05082853 0.042886574 0.015883915 0.036533006 -0.022237483
0.015883915 -0.0190607 0.08418476 -0.0015883916 0.08418476 0.04765175 0.022237483 0.04129818
0.08577315 0.0031767832 -0.0031767832 0.034944616 0.04129818 0.044474967 -0.00953035 0.014295524
0.06988923 0.06194727 0.07147762 0.025414266 0.015883915 0.036533006 0.07783119 0.08100797
0.12865973 -0.022237483 0.057182096 -0.0031767832 0.068300836 0.05082853 0.046063356 0.0190607
-0.00953035 0.060358882 0.06988923 0.044474967 0.015883915 0.07941958 0.12230615 0.027002657
0.05877049 0.03970979 0.015883915 0.004765175 0.04924014 0.11436419 0.0063535664 -0.004765175
0.0190607 -0.004765175 0.068300836 0.004765175 0.0031767832 0.004765175 0.068300836 0.0762428
-0.017472308 0.0190607 -0.017472308 0.04129818 -0.036533006 0.03176783 0.030179441 0.0015883916
0.046063356 0.05877049 0.06353566 -0.00953035 0.07306601 -0.0063535664 0.052416924 0.042886574
0.0381214 0.012707133 0.054005314 -0.017472308 -0.011118742 0.11754098 0.05877049 0.025414266
0.042886574 0.06194727 0.03176783 0.0015883916 0.036533006 0.00953035 0.03176783 0.00953035
0.054005314 0.04765175 0.05877049 0.02064909 -0.017472308 0.015883915 0.04924014 -0.036533006
0.011118742 0.052416924 -0.004765175 0.054005314 0.06671245 -0.034944616 0.004765175 -0.015883915
0.0031767832 -0.017472308 -0.04924014 -0.011118742 0.04129818 0.036533006 -0.00953035 0.015883915
0.015883915 0.011118742 -0.034944616 -0.06353566 0.00953035 0.014295524 -0.0190607 0.0190607
0.052416924 0.033356223 0.00953035 0.042886574 -0.004765175 0.034944616 -0.034944616 0.022237483
0.011118742 -0.027002657 -0.011118742 0.044474967 -0.017472308 0.057182096 0.060358882 0.0381214
0.025414266 0.011118742 -0.0015883916 -0.022237483 -0.022237483 0.0 -0.055593707 0.0190607
-0.025414266 0.02064909 -0.022237483 -0.08259636 -0.014295524 0.052416924 -0.014295524 -0.06194727
0.046063356 0.046063356 0.0015883916 -0.004765175 0.0031767832 0.06194727 0.0381214 -0.03176783
-0.044474967 0.004765175 0.057182096 0.07147762 -0.007941958 0.057182096 0.036533006 0.00953035
0.036533006 0.0190607 0.012707133 0.025414266 -0.054005314 0.012707133 0.03176783 -0.030179441
0.046063356 0.05877049 0.06988923 -0.0015883916 -0.03970979 0.04129818 0.06194727 -0.07306601
-0.017472308 0.057182096 -0.023825875 0.06988923 0.04924014 0.068300836 0.06353566 0.04765175
-0.030179441 0.034944616 0.06512406 0.04924014 0.014295524 0.034944616 0.036533006 0.068300836
-0.0015883916 0.028591048 0.022237483 0.05082853 0.055593707 0.00953035 0.004765175 -0.0015883916
0.0190607 -0.004765175 -0.023825875 -0.012707133 -0.030179441 0.044474967 -0.0190607 0.0190607
00000000: 1e06 182a 0922 2308 34fa 1726 0a25 031a
00000010: 0ff5 0713 120d e007 ed0f 1dec ede4 0b08
00000020: 221a 1e20 1b0a 17f2 0af4 35ff 351e 0e1a
00000030: 3602 fe16 1a1c fa09 2c27 2d10 0a17 3133
00000040: 51f2 24fe 2b20 1d0c fa26 2c1c 0a32 4d11
00000050: 2519 0a03 1f48 04fd 0cfd 2b03 0203 2b30
00000060: f50c f51a e914 1301 1d25 28fa 2efc 211b
00000070: 1808 22f5 f94a 2510 1b27 1401 1706 1406
00000080: 221e 250d f50a 1fe9 0721 fd22 2aea 03f6
00000090: 02f5 e1f9 1a17 fa0a 0a07 ead8 0609 f40c
000000a0: 2115 061b fd16 ea0e 07ef f91c f524 2618
000000b0: 1007 fff2 f200 dd0c f00d f2cc f721 f7d9
000000c0: 1d1d 01fd 0227 18ec e403 242d fb24 1706
000000d0: 170c 0810 de08 14ed 1d25 2cff e71a 27d2
000000e0: f524 f12c 1f2b 281e ed16 291f 0916 172b
000000f0: ff12 0e20 2306 03ff 0cfd f1f8 ed1c f40c

sequential/dense_2/MatMul i1 [2, 24] scale=0.004460054 zero_point=0
0.26314318 0.495066 -0.05352065 -0.32558393 -0.062440757 0.12934157 0.20070243 -0.08920108
0.071360864 -0.10258124 -0.10258124 -0.075820915 0.2809834 0.5664269 0.071360864 -0.34342417
-0.18732227 0.013380162 -0.24084291 -0.3568043 0.3657244 -0.46830568 -0.23638286 -0.31666383
-0.16056195 -0.43262523 0.13380162 0.38356465 0.2230027 0.12934157 -0.06690081 0.12488151
0.1070413 0.24084291 0.30328366 -0.49060595 -0.28544345 0.29436356 -0.330044 -0.12488151
0.2319228 0.3478842 0.34342417 -0.3657244 -0.23638286 0.4727657 0.2809834 0.1159614
00000000: 3b6f f4b7 f21d 2dec 10e9 e9ef 3f7f 10b3
00000010: d603 cab0 5297 cbb9 dc9f 1e56 321d f11c
00000020: 1836 4492 c042 b6e4 344e 4dae cb6a 3f1a
