weather_forecast_quant.tflite (tflite, 9672 bytes, 9 tensors)

model/dense/MatMul1 i1 [1, 32] scale=0.0032584434 zero_point=0
0	0x3c	0.1955066
1	0x18	0.07820264
2	0x36	0.17595595
3	0x39	0.18573128
4	0x98	-0.33887812
5	0x7f	0.41382232
6	0x07	0.022809103
7	0x63	0.3225859
8	0xfb	-0.016292218
9	0x8f	-0.36820412
10	0xc9	-0.17921439
11	0x14	0.06516887
12	0x5c	0.2997768
13	0x7b	0.40078855
14	0xec	-0.06516887
15	0x5e	0.3062937
16	0x06	0.01955066
17	0x1e	0.0977533
18	0x1c	0.09123641
19	0xf3	-0.042359766
20	0x45	0.2248326
21	0xdb	-0.120562404
22	0x97	-0.34213656
23	0xbd	-0.2183157
24	0x35	0.1726975
25	0x4d	0.25090015
26	0xc9	-0.17921439
27	0xc9	-0.17921439
28	0x26	0.12382085
29	0xc3	-0.19876505
30	0xb6	-0.24112481
31	0x9a	-0.33236122

arith.constant14 i1 [32, 7] scale=0.0040731225 zero_point=0
0	0x21	0.13441305
1	0x17	0.09368182
2	0x15	0.08553557
3	0xf7	-0.0366581
4	0x1e	0.12219368
5	0xe5	-0.10997431
6	0x75	0.47655535
7	0xea	-0.0896087
8	0xdc	-0.1466324
9	0x31	0.19958301
10	0x1b	0.10997431
11	0x0f	0.06109684
12	0xc8	-0.22809486
13	0xe1	-0.12626679
14	0xd4	-0.1792174
15	0xff	-0.0040731225
16	0x03	0.012219368
17	0xe4	-0.11404743
18	0x3b	0.24031423
19	0x0e	0.057023715
20	0x29	0.16699803
21	0xdf	-0.13441305
22	0xbb	-0.28104547
23	0xc2	-0.25253358
24	0xc1	-0.25660673
25	0xbe	-0.2688261
26	0x05	0.020365613
27	0xfc	-0.01629249
28	0x26	0.15477866
29	0xdb	-0.15070553
30	0xf0	-0.06516996
31	0x1a	0.10590118
32	0x05	0.020365613
33	0x30	0.19550988
34	0xda	-0.15477866
35	0xf0	-0.06516996
36	0x16	0.0896087
37	0xd9	-0.15885177
38	0x16	0.0896087
39	0x11	0.06924308
40	0xfa	-0.024438735
41	0x1a	0.10590118
42	0x04	0.01629249
43	0xff	-0.0040731225
44	0xea	-0.0896087
45	0x1b	0.10997431
46	0x2c	0.1792174
47	0x14	0.08146245
48	0xf2	-0.057023715
49	0x51	0.3299229
50	0x10	0.06516996
51	0xd1	-0.19143675
52	0x0c	0.04887747
53	0xff	-0.0040731225
54	0x39	0.23216799
55	0xa4	-0.37472728
56	0x18	0.09775494
57	0x17	0.09368182
58	0x34	0.21180236
59	0x70	0.45618972
60	0x2a	0.17107114
61	0x03	0.012219368
62	0x0c	0.04887747
63	0x05	0.020365613
64	0xe0	-0.13033992
65	0x01	0.0040731225
66	0x47	0.2891917
67	0xf4	-0.04887747
68	0x1c	0.11404743
69	0xf9	-0.028511858
70	0x16	0.0896087
71	0x29	0.16699803
72	0x40	0.26067984
73	0x6b	0.4358241
74	0x13	0.07738933
75	0xd7	-0.16699803
76	0x05	0.020365613
77	0xe2	-0.12219368
78	0xe7	-0.10182806
79	0x1f	0.12626679
80	0xea	-0.0896087
81	0x3b	0.24031423
82	0xfe	-0.008146245
83	0xf9	-0.028511858
84	0x2f	0.19143675
85	0x03	0.012219368
86	0x0c	0.04887747
87	0xeb	-0.08553557
88	0x14	0.08146245
89	0x36	0.21994862
90	0xf0	-0.06516996
91	0xe7	-0.10182806
92	0xcf	-0.19958301
93	0x38	0.22809486
94	0x23	0.14255929
95	0x02	0.008146245
96	0x03	0.012219368
97	0x52	0.33399606
98	0x13	0.07738933
99	0xd7	-0.16699803
100	0xea	-0.0896087
101	0xf6	-0.040731225
102	0xf2	-0.057023715
103	0x16	0.0896087
104	0xdd	-0.14255929
105	0xec	-0.08146245
106	0x1a	0.10590118
107	0xee	-0.0733162
108	0x03	0.012219368
109	0x3e	0.25253358
110	0x1e	0.12219368
111	0x18	0.09775494
112	0xd2	-0.18736364
113	0xda	-0.15477866
114	0x3e	0.25253358
115	0x2a	0.17107114
116	0x46	0.28511858
117	0x36	0.21994862
118	0xda	-0.15477866
119	0xe6	-0.10590118
120	0xea	-0.0896087
121	0x42	0.2688261
122	0xf7	-0.0366581
123	0xeb	-0.08553557
124	0x0e	0.057023715
125	0x3b	0.24031423
126	0x3e	0.25253358
127	0x40	0.26067984
128	0x4a	0.30141106
129	0x33	0.20772925
130	0x1b	0.10997431
131	0xf8	-0.03258498
132	0xc5	-0.24031423
133	0xf4	-0.04887747
134	0x12	0.0733162
135	0xe6	-0.10590118
136	0xbb	-0.28104547
137	0xfc	-0.01629249
138	0x35	0.21587549
139	0x0c	0.04887747
140	0x00	0.0
141	0xf6	-0.040731225
142	0x24	0.1466324
143	0xe2	-0.12219368
144	0x2d	0.18329051
145	0x0a	0.040731225
146	0x3d	0.24846047
147	0xfa	-0.024438735
148	0x0a	0.040731225
149	0x3a	0.2362411
150	0x5e	0.3828735
151	0x26	0.15477866
152	0x05	0.020365613
153	0xef	-0.06924308
154	0x5d	0.3788004
155	0xdc	-0.1466324
156	0x36	0.21994862
157	0x54	0.34214228
158	0x0f	0.06109684
159	0xff	-0.0040731225
160	0x18	0.09775494
161	0xe4	-0.11404743
162	0x0b	0.04480435
163	0xcf	-0.19958301
164	0x26	0.15477866
165	0xf4	-0.04887747
166	0x3a	0.2362411
167	0xc5	-0.24031423
168	0xdb	-0.15070553
169	0x0b	0.04480435
170	0xff	-0.0040731225
171	0xf1	-0.06109684
172	0x12	0.0733162
173	0xf2	-0.057023715
174	0xb6	-0.30141106
175	0xd5	-0.17514427
176	0xcc	-0.21180236
177	0x05	0.020365613
178	0xed	-0.07738933
179	0x45	0.28104547
180	0xf8	-0.03258498
181	0x61	0.39509287
182	0x2e	0.18736364
183	0xd7	-0.16699803
184	0xd9	-0.15885177
185	0x0e	0.057023715
186	0x0d	0.05295059
187	0xef	-0.06924308
188	0xf3	-0.05295059
189	0xf8	-0.03258498
190	0x02	0.008146245
191	0xff	-0.0040731225
192	0xff	-0.0040731225
193	0x57	0.35436165
194	0xde	-0.13848616
195	0x7f	0.51728654
196	0x9d	-0.40323913
197	0x1b	0.10997431
198	0x46	0.28511858
199	0x2d	0.18329051
200	0xf8	-0.03258498
201	0xef	-0.06924308
202	0x51	0.3299229
203	0x34	0.21180236
204	0xfc	-0.01629249
205	0x44	0.27697232
206	0x31	0.19958301
207	0x3f	0.25660673
208	0xea	-0.0896087
209	0xc0	-0.26067984
210	0xee	-0.0733162
211	0xde	-0.13848616
212	0x33	0.20772925
213	0x49	0.29733795
214	0x18	0.09775494
215	0xe5	-0.10997431
216	0x5d	0.3788004
217	0x24	0.1466324
218	0xe0	-0.13033992
219	0xee	-0.0733162
220	0x33	0.20772925
221	0x1e	0.12219368
222	0xd0	-0.19550988
223	0x27	0.15885177

arith.constant13 i1 [32, 7] scale=0.004574837 zero_point=0
0	0x09	0.041173533
1	0xaf	-0.3705618
2	0x11	0.07777223
3	0x0e	0.064047724
4	0x05	0.022874186
5	0x06	0.027449023
6	0x0e	0.064047724
7	0x14	0.09149674
8	0x01	0.004574837
9	0xeb	-0.09607158
10	0x0f	0.06862256
11	0xfd	-0.0137245115
12	0x0c	0.054898046
13	0xd5	-0.19671799
14	0x35	0.24246638
15	0xfd	-0.0137245115
16	0x1f	0.14181995
17	0xe8	-0.10979609
18	0xc1	-0.28821474
19	0x35	0.24246638
20	0xe2	-0.13724512
21	0x10	0.073197395
22	0xfd	-0.0137245115
23	0x0b	0.05032321
24	0xd0	-0.21959218
25	0xf6	-0.04574837
26	0xec	-0.09149674
27	0x16	0.10064642
28	0x1e	0.13724512
29	0x0c	0.054898046
30	0xfd	-0.0137245115
31	0x49	0.33396313
32	0xf9	-0.032023862
33	0x26	0.17384382
34	0xd7	-0.18756832
35	0xec	-0.09149674
36	0x18	0.10979609
37	0xd7	-0.18756832
38	0xe5	-0.123520605
39	0xe4	-0.12809545
40	0x2d	0.20586768
41	0xf2	-0.064047724
42	0xee	-0.082347065
43	0x01	0.004574837
44	0x38	0.2561909
45	0x16	0.10064642
46	0xeb	-0.09607158
47	0x06	0.027449023
48	0x2f	0.21501735
49	0x08	0.036598697
50	0xfa	-0.027449023
51	0xe9	-0.10522126
52	0xe3	-0.13267028
53	0x0a	0.04574837
54	0xf8	-0.036598697
55	0xd6	-0.19214316
56	0xe7	-0.11437093
57	0xe1	-0.14181995
58	0xf5	-0.05032321
59	0xd9	-0.17841865
60	0xfa	-0.027449023
61	0x1c	0.12809545
62	0x13	0.08692191
63	0xef	-0.07777223
64	0xfc	-0.018299349
65	0x09	0.041173533
66	0x39	0.26076573
67	0xe6	-0.11894576
68	0x3a	0.26534057
69	0xd3	-0.20586768
70	0x07	0.032023862
71	0x02	0.009149674
72	0xed	-0.08692191
73	0xeb	-0.09607158
74	0x16	0.10064642
75	0xee	-0.082347065
76	0xc9	-0.25161603
77	0x20	0.14639479
78	0x1d	0.13267028
79	0x1c	0.12809545
80	0xda	-0.17384382
81	0xfd	-0.0137245115
82	0x1a	0.11894576
83	0xdb	-0.16926898
84	0x19	0.11437093
85	0xe3	-0.13267028
86	0x40	0.29278958
87	0x4f	0.36141214
88	0x00	0.0
89	0x01	0.004574837
90	0x1d	0.13267028
91	0xde	-0.15554446
92	0xb4	-0.34768763
93	0xb8	-0.32938826
94	0xfa	-0.027449023
95	0xf0	-0.073197395
96	0x13	0.08692191
97	0xcd	-0.23331669
98	0x02	0.009149674
99	0x20	0.14639479
100	0x38	0.2561909
101	0x11	0.07777223
102	0xf3	-0.05947288
103	0x2a	0.19214316
104	0x24	0.16469413
105	0x27	0.17841865
106	0x06	0.027449023
107	0xca	-0.24704121
108	0x12	0.082347065
109	0xf3	-0.05947288
110	0x27	0.17841865
111	0xe8	-0.10979609
112	0xe9	-0.10522126
113	0xe7	-0.11437093
114	0xfa	-0.027449023
115	0xed	-0.08692191
116	0x05	0.022874186
117	0x22	0.15554446
118	0x1c	0.12809545
119	0x3c	0.27449024
120	0xf6	-0.04574837
121	0x39	0.26076573
122	0x2e	0.21044251
123	0x19	0.11437093
124	0x05	0.022874186
125	0xd8	-0.18299349
126	0x43	0.30651408
127	0x01	0.004574837
128	0xdc	-0.16469413
129	0xee	-0.082347065
130	0x0d	0.05947288
131	0xff	-0.004574837
132	0xd7	-0.18756832
133	0xd5	-0.19671799
134	0x1c	0.12809545
135	0x0e	0.064047724
136	0x1e	0.13724512
137	0x14	0.09149674
138	0xed	-0.08692191
139	0xfa	-0.027449023
140	0x0a	0.04574837
141	0xf8	-0.036598697
142	0xc9	-0.25161603
143	0x05	0.022874186
144	0xf4	-0.054898046
145	0x2d	0.20586768
146	0x26	0.17384382
147	0x07	0.032023862
148	0xcf	-0.22416702
149	0x0b	0.05032321
150	0xed	-0.08692191
151	0xe8	-0.10979609
152	0x33	0.23331669
153	0xd3	-0.20586768
154	0x36	0.24704121
155	0x15	0.09607158
156	0x1c	0.12809545
157	0x10	0.073197395
158	0x15	0.09607158
159	0x14	0.09149674
160	0x0f	0.06862256
161	0x0c	0.054898046
162	0xde	-0.15554446
163	0x10	0.073197395
164	0xe3	-0.13267028
165	0xf8	-0.036598697
166	0xeb	-0.09607158
167	0x03	0.0137245115
168	0xd6	-0.19214316
169	0x27	0.17841865
170	0xef	-0.07777223
171	0x0c	0.054898046
172	0x36	0.24704121
173	0x1c	0.12809545
174	0xf5	-0.05032321
175	0x21	0.15096962
176	0x0e	0.064047724
177	0x36	0.24704121
178	0x30	0.21959218
179	0x0a	0.04574837
180	0x2d	0.20586768
181	0xb2	-0.3568373
182	0x3e	0.2836399
183	0x30	0.21959218
184	0x04	0.018299349
185	0x73	0.5261063
186	0xd7	-0.18756832
187	0xd9	-0.17841865
188	0xee	-0.082347065
189	0x04	0.018299349
190	0xca	-0.24704121
191	0xdb	-0.16926898
192	0xb5	-0.3431128
193	0x34	0.23789153
194	0x36	0.24704121
195	0xf2	-0.064047724
196	0xb9	-0.32481343
197	0x24	0.16469413
198	0x30	0.21959218
199	0xe0	-0.14639479
200	0x34	0.23789153
201	0xdb	-0.16926898
202	0xf5	-0.05032321
203	0x32	0.22874185
204	0xeb	-0.09607158
205	0xec	-0.09149674
206	0xf3	-0.05947288
207	0xfc	-0.018299349
208	0x20	0.14639479
209	0xd2	-0.21044251
210	0x43	0.30651408
211	0x03	0.0137245115
212	0xe9	-0.10522126
213	0x3f	0.28821474
214	0xd5	-0.19671799
215	0x3c	0.27449024
216	0x81	-0.5810043
217	0x07	0.032023862
218	0xff	-0.004574837
219	0x07	0.032023862
220	0x11	0.07777223
221	0x0e	0.064047724
222	0xf5	-0.05032321
223	0x12	0.082347065

arith.constant12 i1 [32, 7] scale=0.0031717054 zero_point=0
0	0xfa	-0.019030232
1	0x46	0.22201937
2	0x29	0.13003992
3	0xe8	-0.07612093
4	0xe1	-0.09832287
5	0xec	-0.06343411
6	0xdb	-0.1173531
7	0x1c	0.088807754
8	0x2e	0.14589845
9	0x28	0.12686822
10	0x0f	0.04757558
11	0xc6	-0.18395892
12	0xb5	-0.2378779
13	0xe0	-0.10149457
14	0x19	0.07929263
15	0x2e	0.14589845
16	0x26	0.12052481
17	0xcd	-0.16175698
18	0x5c	0.2917969
19	0x37	0.1744438
20	0xfe	-0.006343411
21	0x17	0.07294922
22	0x17	0.07294922
23	0x10	0.050747287
24	0xfe	-0.006343411
25	0x19	0.07929263
26	0x8e	-0.3615744
27	0x4b	0.2378779
28	0xfb	-0.015858527
29	0xf3	-0.04123217
30	0xff	-0.0031717054
31	0xc6	-0.18395892
32	0xa6	-0.2854535
33	0x03	0.009515116
34	0xe2	-0.09515116
35	0x0e	0.044403877
36	0x13	0.060262404
37	0x5a	0.2854535
38	0x05	0.015858527
39	0x65	0.32034224
40	0xaf	-0.25690815
41	0xf6	-0.031717055
42	0xf2	-0.044403877
43	0xce	-0.15858527
44	0x22	0.10783798
45	0xe3	-0.09197946
46	0xd5	-0.13638334
47	0x26	0.12052481
48	0x2d	0.14272675
49	0xe2	-0.09515116
50	0xd1	-0.14907016
51	0x3a	0.18395892
52	0xdb	-0.1173531
53	0x45	0.21884768
54	0x2a	0.13321163
55	0xb9	-0.22519109
56	0xe6	-0.08246434
57	0xdd	-0.11100969
58	0xfa	-0.019030232
59	0xd6	-0.13321163
60	0xf7	-0.028545348
61	0xd2	-0.14589845
62	0xf8	-0.025373643
63	0x17	0.07294922
64	0xb1	-0.25056472
65	0xb7	-0.2315345
66	0x26	0.12052481
67	0xf0	-0.050747287
68	0xcf	-0.15541357
69	0xfa	-0.019030232
70	0x31	0.15541357
71	0x21	0.10466628
72	0xf4	-0.038060464
73	0xd6	-0.13321163
74	0xa6	-0.2854535
75	0xc2	-0.19664574
76	0x1f	0.09832287
77	0x1d	0.09197946
78	0x3f	0.19981743
79	0x38	0.17761551
80	0x0c	0.038060464
81	0x0a	0.031717055
82	0xb4	-0.24104962
83	0xd4	-0.13955504
84	0xfa	-0.019030232
85	0x55	0.26959497
86	0x04	0.012686822
87	0xb9	-0.22519109
88	0x4d	0.24422131
89	0xbd	-0.21250427
90	0x2c	0.13955504
91	0x2b	0.13638334
92	0x03	0.009515116
93	0x43	0.21250427
94	0xe8	-0.07612093
95	0xea	-0.06977752
96	0xb4	-0.24104962
97	0xf5	-0.03488876
98	0x14	0.06343411
99	0xf5	-0.03488876
100	0x48	0.22836278
101	0x5c	0.2917969
102	0xf5	-0.03488876
103	0xd2	-0.14589845
104	0x37	0.1744438
105	0x36	0.1712721
106	0xe9	-0.07294922
107	0xd6	-0.13321163
108	0xf4	-0.038060464
109	0x3f	0.19981743
110	0xac	-0.26642326
111	0x10	0.050747287
112	0xd9	-0.12369651
113	0x09	0.028545348
114	0xd5	-0.13638334
115	0xf4	-0.038060464
116	0x19	0.07929263
117	0x39	0.1807872
118	0xe3	-0.09197946
119	0x0f	0.04757558
120	0x21	0.10466628
121	0x54	0.26642326
122	0x22	0.10783798
123	0x1e	0.09515116
124	0x07	0.022201939
125	0x15	0.066605814
126	0xef	-0.05391899
127	0x2f	0.14907016
128	0x0a	0.031717055
129	0xcf	-0.15541357
130	0xfc	-0.012686822
131	0xf0	-0.050747287
132	0x07	0.022201939
133	0x2a	0.13321163
134	0x5d	0.2949686
135	0xe8	-0.07612093
136	0x04	0.012686822
137	0xf9	-0.022201939
138	0xa9	-0.27593836
139	0x0e	0.044403877
140	0x1b	0.08563605
141	0x43	0.21250427
142	0xeb	-0.066605814
143	0xe8	-0.07612093
144	0x14	0.06343411
145	0xaf	-0.25690815
146	0xe2	-0.09515116
147	0xfb	-0.015858527
148	0xda	-0.12052481
149	0xfa	-0.019030232
150	0x39	0.1807872
151	0x1f	0.09832287
152	0x29	0.13003992
153	0x3c	0.19030233
154	0x2a	0.13321163
155	0xdd	-0.11100969
156	0x25	0.1173531
157	0x16	0.06977752
158	0xcd	-0.16175698
159	0x5d	0.2949686
160	0xe3	-0.09197946
161	0x17	0.07294922
162	0xdb	-0.1173531
163	0xe7	-0.07929263
164	0x1d	0.09197946
165	0xca	-0.1712721
166	0xd3	-0.14272675
167	0x51	0.25690815
168	0xc1	-0.19981743
169	0xdd	-0.11100969
170	0x2d	0.14272675
171	0xe0	-0.10149457
172	0xf8	-0.025373643
173	0xc5	-0.18713062
174	0xf2	-0.044403877
175	0x10	0.050747287
176	0xcc	-0.16492867
177	0x26	0.12052481
178	0x36	0.1712721
179	0x77	0.37743294
180	0x29	0.13003992
181	0xe4	-0.088807754
182	0x10	0.050747287
183	0xef	-0.05391899
184	0xf5	-0.03488876
185	0x1f	0.09832287
186	0x29	0.13003992
187	0x40	0.20298915
188	0x1c	0.088807754
189	0xe8	-0.07612093
190	0xdc	-0.11418139
191	0xd5	-0.13638334
192	0x22	0.10783798
193	0xc0	-0.20298915
194	0x04	0.012686822
195	0x49	0.2315345
196	0x0e	0.044403877
197	0x04	0.012686822
198	0x1b	0.08563605
199	0xfb	-0.015858527
200	0x7f	0.40280658
201	0xef	-0.05391899
202	0x21	0.10466628
203	0x16	0.06977752
204	0xcb	-0.16810039
205	0xe8	-0.07612093
206	0x1c	0.088807754
207	0xff	-0.0031717054
208	0x0d	0.04123217
209	0xe9	-0.07294922
210	0xf5	-0.03488876
211	0xc3	-0.19347402
212	0xdf	-0.10466628
213	0xed	-0.060262404
214	0x0c	0.038060464
215	0x25	0.1173531
216	0xf6	-0.031717055
217	0xf6	-0.031717055
218	0xdf	-0.10466628
219	0x17	0.07294922
220	0x06	0.019030232
221	0xdc	-0.11418139
222	0x3a	0.18395892
223	0x18	0.07612093

arith.constant11 i1 [32, 7] scale=0.0033236556 zero_point=0
0	0x4d	0.25592148
1	0x04	0.013294622
2	0xc3	-0.202743
3	0x13	0.06314945
4	0xe0	-0.10635698
5	0x40	0.21271396
6	0xda	-0.1262989
7	0xbc	-0.22600858
8	0xec	-0.06647311
9	0x4d	0.25592148
10	0x50	0.26589245
11	0xea	-0.07312042
12	0xd0	-0.15953547
13	0xc6	-0.19277203
14	0xe6	-0.086415045
15	0x04	0.013294622
16	0xe1	-0.10303332
17	0x32	0.16618279
18	0xbf	-0.21603762
19	0xe5	-0.0897387
20	0x24	0.1196516
21	0xbc	-0.22600858
22	0xfc	-0.013294622
23	0xfe	-0.006647311
24	0xf5	-0.03656021
25	0x38	0.18612471
26	0x06	0.019941933
27	0xe5	-0.0897387
28	0xe3	-0.096386015
29	0xee	-0.0598258
30	0x32	0.16618279
31	0x2f	0.15621181
32	0xa0	-0.31907094
33	0x24	0.1196516
34	0x10	0.05317849
35	0x63	0.3290419
36	0xcc	-0.17283009
37	0xed	-0.06314945
38	0x4d	0.25592148
39	0xdc	-0.1196516
40	0x4e	0.25924513
41	0xf8	-0.026589245
42	0xf3	-0.043207522
43	0xf8	-0.026589245
44	0x02	0.006647311
45	0x7f	0.42210427
46	0xbe	-0.21936128
47	0xcf	-0.16285913
48	0xfc	-0.013294622
49	0x32	0.16618279
50	0x01	0.0033236556
51	0xea	-0.07312042
52	0x35	0.17615375
53	0x04	0.013294622
54	0xe7	-0.08309139
55	0x8a	-0.39219135
56	0x13	0.06314945
57	0xfc	-0.013294622
58	0x02	0.006647311
59	0x61	0.32239458
60	0x2b	0.14291719
61	0xfc	-0.013294622
62	0xd1	-0.15621181
63	0x1c	0.093062356
64	0xcc	-0.17283009
65	0x27	0.12962256
66	0x01	0.0033236556
67	0xc1	-0.2093903
68	0x27	0.12962256
69	0xfb	-0.016618278
70	0x31	0.16285913
71	0x08	0.026589245
72	0x1f	0.10303332
73	0x19	0.08309139
74	0xd9	-0.12962256
75	0xdf	-0.10968064
76	0x95	-0.35563114
77	0xf2	-0.046531178
78	0xeb	-0.06979677
79	0x1b	0.0897387
80	0x25	0.12297526
81	0x71	0.37557307
82	0x18	0.079767734
83	0xcd	-0.16950643
84	0x3f	0.2093903
85	0xdb	-0.12297526
86	0x0e	0.046531178
87	0x54	0.27918708
88	0x10	0.05317849
89	0x17	0.076444075
90	0x10	0.05317849
91	0xe2	-0.09970967
92	0xc7	-0.18944837
93	0xb6	-0.24595052
94	0x41	0.21603762
95	0xfb	-0.016618278
96	0x41	0.21603762
97	0xf1	-0.049854834
98	0xef	-0.056502145
99	0x19	0.08309139
100	0x11	0.056502145
101	0x42	0.21936128
102	0xb8	-0.2393032
103	0x48	0.2393032
104	0x3e	0.20606664
105	0xd2	-0.15288815
106	0xe3	-0.096386015
107	0x00	0.0
108	0xb1	-0.2625688
109	0x1f	0.10303332
110	0x72	0.37889674
111	0x10	0.05317849
112	0xf0	-0.05317849
113	0x33	0.16950643
114	0xfd	-0.009970967
115	0x2a	0.13959354
116	0x2c	0.14624085
117	0x15	0.06979677
118	0x23	0.11632794
119	0x30	0.15953547
120	0x2f	0.15621181
121	0x7a	0.405486
122	0x4d	0.25592148
123	0xe8	-0.079767734
124	0x21	0.10968064
125	0xf7	-0.0299129
126	0x6b	0.35563114
127	0x3e	0.20606664
128	0xe5	-0.0897387
129	0x3a	0.19277203
130	0xf4	-0.039883867
131	0x24	0.1196516
132	0xe7	-0.08309139
133	0xd9	-0.12962256
134	0xc8	-0.18612471
135	0x1e	0.09970967
136	0x3e	0.20606664
137	0x2a	0.13959354
138	0x27	0.12962256
139	0xde	-0.11300429
140	0x18	0.079767734
141	0xa5	-0.30245265
142	0x36	0.1794774
143	0x39	0.18944837
144	0x16	0.07312042
145	0xe5	-0.0897387
146	0x34	0.17283009
147	0xf6	-0.033236556
148	0xd8	-0.13294622
149	0xf2	-0.046531178
150	0xb4	-0.2525978
151	0xc5	-0.19609568
152	0x48	0.2393032
153	0xe9	-0.076444075
154	0x46	0.23265588
155	0x05	0.016618278
156	0x4b	0.24927416
157	0x64	0.33236557
158	0x25	0.12297526
159	0x11	0.056502145
160	0x3e	0.20606664
161	0x09	0.0299129
162	0x28	0.13294622
163	0x38	0.18612471
164	0x17	0.076444075
165	0x1b	0.0897387
166	0xe1	-0.10303332
167	0xe1	-0.10303332
168	0xde	-0.11300429
169	0x35	0.17615375
170	0xf6	-0.033236556
171	0x5b	0.30245265
172	0x28	0.13294622
173	0x1b	0.0897387
174	0x02	0.006647311
175	0x15	0.06979677
176	0xcf	-0.16285913
177	0x48	0.2393032
178	0xf2	-0.046531178
179	0x54	0.27918708
180	0x53	0.2758634
181	0x09	0.0299129
182	0x51	0.2692161
183	0x19	0.08309139
184	0x5a	0.299129
185	0x48	0.2393032
186	0xde	-0.11300429
187	0x3e	0.20606664
188	0xf9	-0.023265589
189	0xda	-0.1262989
190	0xca	-0.1794774
191	0xfc	-0.013294622
192	0xa8	-0.2924817
193	0x4f	0.2625688
194	0xf5	-0.03656021
195	0x27	0.12962256
196	0x54	0.27918708
197	0x2c	0.14624085
198	0x2f	0.15621181
199	0x32	0.16618279
200	0x10	0.05317849
201	0x29	0.13626988
202	0xc2	-0.20606664
203	0x5b	0.30245265
204	0xd9	-0.12962256
205	0x29	0.13626988
206	0xbe	-0.21936128
207	0x22	0.11300429
208	0xeb	-0.06979677
209	0xff	-0.0033236556
210	0x28	0.13294622
211	0xa9	-0.28915805
212	0x1d	0.096386015
213	0x71	0.37557307
214	0x14	0.06647311
215	0x1a	0.086415045
216	0x1c	0.093062356
217	0xeb	-0.06979677
218	0xfa	-0.019941933
219	0x75	0.3888677
220	0x56	0.28583437
221	0xe7	-0.08309139
222	0xc3	-0.202743
223	0x35	0.17615375

arith.constant6 i1 [32, 32] scale=0.004523726 zero_point=0
0	0xe9	-0.104045704
1	0x0d	0.05880844
2	0xf0	-0.07237962
3	0x27	0.17642532
4	0xe0	-0.14475924
5	0x4d	0.34832692
6	0x06	0.027142357
7	0xff	-0.004523726
8	0xf5	-0.04976099
9	0x22	0.15380669
10	0xe8	-0.10856943
11	0xf5	-0.04976099
12	0xe0	-0.14475924
13	0xd4	-0.19904396
14	0x48	0.32570827
15	0xf8	-0.03618981
16	0xd5	-0.19452022
17	0x0c	0.054284714
18	0xdf	-0.14928296
19	0x00	0.0
20	0xcd	-0.23071003
21	0x20	0.14475924
22	0xf5	-0.04976099
23	0x16	0.09952198
24	0x19	0.11309315
25	0x0c	0.054284714
26	0x00	0.0
27	0xff	-0.004523726
28	0x31	0.22166258
29	0xe3	-0.13118806
30	0x0d	0.05880844
31	0xff	-0.004523726
32	0xf2	-0.06333217
33	0x1f	0.14023551
34	0x10	0.07237962
35	0x2e	0.20809141
36	0x39	0.2578524
37	0xc1	-0.28499475
38	0x10	0.07237962
39	0xf3	-0.05880844
40	0x41	0.2940422
41	0x10	0.07237962
42	0xe0	-0.14475924
43	0x04	0.018094905
44	0x01	0.004523726
45	0xef	-0.07690334
46	0x23	0.15833041
47	0x09	0.040713534
48	0xff	-0.004523726
49	0x1c	0.12666434
50	0x0c	0.054284714
51	0xf9	-0.031666085
52	0xe2	-0.13571179
53	0x15	0.09499825
54	0xea	-0.09952198
55	0x54	0.379993
56	0x1e	0.13571179
57	0xe9	-0.104045704
58	0x25	0.16737787
59	0x20	0.14475924
60	0x03	0.013571179
61	0xf3	-0.05880844
62	0x1f	0.14023551
63	0x00	0.0
64	0x04	0.018094905
65	0xf0	-0.07237962
66	0x0b	0.04976099
67	0x41	0.2940422
68	0xff	-0.004523726
69	0x18	0.10856943
70	0x0d	0.05880844
71	0x2b	0.19452022
72	0x1f	0.14023551
73	0x05	0.02261863
74	0xdb	-0.16737787
75	0x2c	0.19904396
76	0x42	0.29856592
77	0xe5	-0.12214061
78	0x0c	0.054284714
79	0x21	0.14928296
80	0xe1	-0.14023551
81	0x35	0.2397575
82	0x39	0.2578524
83	0x24	0.16285414
84	0xf9	-0.031666085
85	0xf0	-0.07237962
86	0xfe	-0.009047452
87	0x19	0.11309315
88	0xf0	-0.07237962
89	0x00	0.0
90	0x26	0.1719016
91	0xf9	-0.031666085
92	0x4b	0.33927947
93	0xe0	-0.14475924
94	0xff	-0.004523726
95	0x15	0.09499825
96	0x04	0.018094905
97	0xfc	-0.018094905
98	0xf9	-0.031666085
99	0x01	0.004523726
100	0x11	0.07690334
101	0x13	0.0859508
102	0x0d	0.05880844
103	0xb6	-0.33475575
104	0x1f	0.14023551
105	0xf6	-0.04523726
106	0x1a	0.11761688
107	0x10	0.07237962
108	0x15	0.09499825
109	0xf4	-0.054284714
110	0x02	0.009047452
111	0x2e	0.20809141
112	0xd5	-0.19452022
113	0x1d	0.13118806
114	0xf0	-0.07237962
115	0x0d	0.05880844
116	0x18	0.10856943
117	0x03	0.013571179
118	0x27	0.17642532
119	0x38	0.25332868
120	0xf3	-0.05880844
121	0xa7	-0.40261164
122	0x30	0.21713886
123	0xde	-0.15380669
124	0xef	-0.07690334
125	0xff	-0.004523726
126	0x13	0.0859508
127	0x1a	0.11761688
128	0x13	0.0859508
129	0xd5	-0.19452022
130	0xf3	-0.05880844
131	0x2e	0.20809141
132	0x12	0.08142707
133	0x02	0.009047452
134	0xfc	-0.018094905
135	0x19	0.11309315
136	0xff	-0.004523726
137	0x1a	0.11761688
138	0xd7	-0.18547277
139	0x10	0.07237962
140	0xf0	-0.07237962
141	0xd5	-0.19452022
142	0xed	-0.0859508
143	0x04	0.018094905
144	0x24	0.16285414
145	0x19	0.11309315
146	0xf0	-0.07237962
147	0xf4	-0.054284714
148	0xfd	-0.013571179
149	0x32	0.2261863
150	0x2e	0.20809141
151	0xe2	-0.13571179
152	0xea	-0.09952198
153	0xf2	-0.06333217
154	0xdd	-0.15833041
155	0xcb	-0.2397575
156	0x4d	0.34832692
157	0xc0	-0.28951848
158	0x09	0.040713534
159	0x1c	0.12666434
160	0xd7	-0.18547277
161	0x3b	0.26689985
162	0xbb	-0.3121371
163	0x2c	0.19904396
164	0x0e	0.06333217
165	0xb3	-0.34832692
166	0x07	0.031666085
167	0x05	0.02261863
168	0x22	0.15380669
169	0x1e	0.13571179
170	0xfc	-0.018094905
171	0x03	0.013571179
172	0x10	0.07237962
173	0xd3	-0.20356768
174	0x22	0.15380669
175	0xc2	-0.28047103
176	0x0a	0.04523726
177	0x32	0.2261863
178	0x15	0.09499825
179	0xfa	-0.027142357
180	0xf5	-0.04976099
181	0x14	0.09047452
182	0x18	0.10856943
183	0x37	0.24880494
184	0x0b	0.04976099
185	0xf3	-0.05880844
186	0x30	0.21713886
187	0x2c	0.19904396
188	0x1f	0.14023551
189	0x0b	0.04976099
190	0x0b	0.04976099
191	0x12	0.08142707
192	0xec	-0.09047452
193	0x10	0.07237962
194	0xe5	-0.12214061
195	0x20	0.14475924
196	0x04	0.018094905
197	0xe2	-0.13571179
198	0xfb	-0.02261863
199	0x1c	0.12666434
200	0x27	0.17642532
201	0x24	0.16285414
202	0xee	-0.08142707
203	0x06	0.027142357
204	0xf0	-0.07237962
205	0xf1	-0.067855895
206	0xeb	-0.09499825
207	0x1d	0.13118806
208	0x22	0.15380669
209	0xff	-0.004523726
210	0x2d	0.20356768
211	0x09	0.040713534
212	0x1e	0.13571179
213	0x16	0.09952198
214	0x56	0.38904044
215	0x21	0.14928296
216	0xf5	-0.04976099
217	0xe8	-0.10856943
218	0x1e	0.13571179
219	0xf5	-0.04976099
220	0x22	0.15380669
221	0x01	0.004523726
222	0x14	0.09047452
223	0x34	0.23523375
224	0xf3	-0.05880844
225	0x02	0.009047452
226	0xd8	-0.18094905
227	0xd0	-0.21713886
228	0x24	0.16285414
229	0x05	0.02261863
230	0x11	0.07690334
231	0x1f	0.14023551
232	0xed	-0.0859508
233	0xff	-0.004523726
234	0xb3	-0.34832692
235	0xea	-0.09952198
236	0xd3	-0.20356768
237	0xeb	-0.09499825
238	0x23	0.15833041
239	0xce	-0.2261863
240	0xdd	-0.15833041
241	0x2a	0.1899965
242	0xfe	-0.009047452
243	0xf0	-0.07237962
244	0x2d	0.20356768
245	0xff	-0.004523726
246	0x1d	0.13118806
247	0xd3	-0.20356768
248	0x08	0.03618981
249	0x17	0.104045704
250	0x21	0.14928296
251	0xfb	-0.02261863
252	0x00	0.0
253	0x07	0.031666085
254	0x08	0.03618981
255	0xd9	-0.17642532

arith.constant5 i1 [32, 32] scale=0.0038532603 zero_point=0
0	0xfd	-0.011559781
1	0x21	0.12715758
2	0xf9	-0.026972823
3	0xeb	-0.08091847
4	0x06	0.023119561
5	0xeb	-0.08091847
6	0x1d	0.111744545
7	0x3d	0.23504888
8	0x17	0.088624984
9	0x18	0.092478245
10	0xc5	-0.22734235
11	0xfc	-0.015413041
12	0xfe	-0.0077065206
13	0xfa	-0.023119561
14	0x06	0.023119561
15	0x10	0.061652165
16	0xff	-0.0038532603
17	0x34	0.20036954
18	0x3f	0.2427554
19	0xe2	-0.11559781
20	0xde	-0.13101085
21	0xd2	-0.17724997
22	0x41	0.2504619
23	0x26	0.14642389
24	0xf0	-0.061652165
25	0xef	-0.06550542
26	0xfa	-0.023119561
27	0x22	0.13101085
28	0x30	0.18495649
29	0xf1	-0.057798903
30	0xd7	-0.15798368
31	0x5f	0.36605972
32	0xf3	-0.050092384
33	0x18	0.092478245
34	0xe1	-0.11945107
35	0x15	0.08091847
36	0x3a	0.22348909
37	0xf0	-0.061652165
38	0xf1	-0.057798903
39	0xee	-0.069358684
40	0x08	0.030826082
41	0x17	0.088624984
42	0x02	0.0077065206
43	0xfa	-0.023119561
44	0x10	0.061652165
45	0xdb	-0.14257063
46	0x15	0.08091847
47	0xed	-0.073211946
48	0x24	0.13871737
49	0x7d	0.48165753
50	0xfe	-0.0077065206
51	0x01	0.0038532603
52	0x1c	0.10789129
53	0x2a	0.16183694
54	0x17	0.088624984
55	0x2a	0.16183694
56	0xfc	-0.015413041
57	0xec	-0.07706521
58	0x00	0.0
59	0x24	0.13871737
60	0x4d	0.29670104
61	0x1c	0.10789129
62	0xd4	-0.16954346
63	0x0c	0.046239123
64	0x42	0.25431517
65	0xd2	-0.17724997
66	0x07	0.026972823
67	0x22	0.13101085
68	0x01	0.0038532603
69	0x03	0.011559781
70	0x40	0.24660866
71	0x33	0.19651628
72	0x40	0.24660866
73	0xbb	-0.26587495
74	0xd2	-0.17724997
75	0xea	-0.08477173
76	0x2f	0.18110323
77	0x08	0.030826082
78	0xd7	-0.15798368
79	0x35	0.2042228
80	0xb1	-0.30440757
81	0xfb	-0.019266302
82	0x2e	0.17724997
83	0xe8	-0.092478245
84	0x0f	0.057798903
85	0xff	-0.0038532603
86	0xf7	-0.034679342
87	0xf4	-0.046239123
88	0x4e	0.3005543
89	0x10	0.061652165
90	0x0f	0.057798903
91	0xfc	-0.015413041
92	0xf9	-0.026972823
93	0xc4	-0.23119561
94	0xcc	-0.20036954
95	0xd4	-0.16954346
96	0x05	0.019266302
97	0xff	-0.0038532603
98	0x42	0.25431517
99	0x05	0.019266302
100	0xbb	-0.26587495
101	0x4b	0.28899452
102	0xa8	-0.33908692
103	0xd1	-0.18110323
104	0xb2	-0.3005543
105	0xf4	-0.046239123
106	0x29	0.15798368
107	0x26	0.14642389
108	0x10	0.061652165
109	0x1a	0.10018477
110	0x40	0.24660866
111	0x6a	0.4084456
112	0xf2	-0.053945646
113	0x18	0.092478245
114	0xdb	-0.14257063
115	0x53	0.3198206
116	0x1b	0.10403803
117	0x29	0.15798368
118	0xda	-0.14642389
119	0x16	0.08477173
120	0xf6	-0.038532604
121	0xde	-0.13101085
122	0xf4	-0.046239123
123	0xbe	-0.25431517
124	0xf6	-0.038532604
125	0x12	0.069358684
126	0xe5	-0.10403803
127	0xdc	-0.13871737
128	0x1e	0.11559781
129	0xf2	-0.053945646
130	0xe4	-0.10789129
131	0x04	0.015413041
132	0xfc	-0.015413041
133	0x13	0.073211946
134	0xe6	-0.10018477
135	0xf6	-0.038532604
136	0x0c	0.046239123
137	0x11	0.06550542
138	0xea	-0.08477173
139	0x1e	0.11559781
140	0x19	0.09633151
141	0xe6	-0.10018477
142	0xe9	-0.088624984
143	0xc9	-0.21192932
144	0xfb	-0.019266302
145	0x20	0.12330433
146	0x15	0.08091847
147	0xe3	-0.111744545
148	0x1c	0.10789129
149	0xd3	-0.1733967
150	0xfd	-0.011559781
151	0xe5	-0.10403803
152	0x3d	0.23504888
153	0xe0	-0.12330433
154	0xbc	-0.2620217
155	0x25	0.14257063
156	0xef	-0.06550542
157	0xd7	-0.15798368
158	0x10	0.061652165
159	0x08	0.030826082
160	0x2f	0.18110323
161	0x45	0.26587495
162	0xf3	-0.050092384
163	0xd8	-0.15413041
164	0x13	0.073211946
165	0xe0	-0.12330433
166	0x2c	0.16954346
167	0x2c	0.16954346
168	0x57	0.33523366
169	0xe0	-0.12330433
170	0xbf	-0.2504619
171	0x21	0.12715758
172	0x2d	0.1733967
173	0x2b	0.1656902
174	0xdf	-0.12715758
175	0xf0	-0.061652165
176	0x29	0.15798368
177	0x36	0.20807606
178	0x1e	0.11559781
179	0xfa	-0.023119561
180	0x2f	0.18110323
181	0xda	-0.14642389
182	0x49	0.281288
183	0xe3	-0.111744545
184	0x36	0.20807606
185	0xe8	-0.092478245
186	0x1c	0.10789129
187	0x00	0.0
188	0xf5	-0.042385865
189	0x2d	0.1733967
190	0xf4	-0.046239123
191	0x28	0.15413041
192	0x08	0.030826082
193	0xdd	-0.1348641
194	0x02	0.0077065206
195	0x50	0.30826083
196	0xdf	-0.12715758
197	0x3c	0.23119561
198	0x23	0.1348641
199	0x0a	0.038532604
200	0x02	0.0077065206
201	0xe4	-0.10789129
202	0xe7	-0.09633151
203	0x0a	0.038532604
204	0x35	0.2042228
205	0x1c	0.10789129
206	0xf0	-0.061652165
207	0x01	0.0038532603
208	0x09	0.034679342
209	0x00	0.0
210	0x08	0.030826082
211	0xfe	-0.0077065206
212	0xfe	-0.0077065206
213	0xff	-0.0038532603
214	0x0f	0.057798903
215	0xf6	-0.038532604
216	0xda	-0.14642389
217	0x0c	0.046239123
218	0x27	0.15027715
219	0x20	0.12330433
220	0x18	0.092478245
221	0xea	-0.08477173
222	0x29	0.15798368
223	0x2c	0.16954346
224	0xed	-0.073211946
225	0x0e	0.053945646
226	0xdd	-0.1348641
227	0xe8	-0.092478245
228	0xf7	-0.034679342
229	0x3e	0.23890214
230	0xe2	-0.11559781
231	0xff	-0.0038532603
232	0x16	0.08477173
233	0xdb	-0.14257063
234	0xcd	-0.19651628
235	0x20	0.12330433
236	0x2a	0.16183694
237	0xf2	-0.053945646
238	0x0e	0.053945646
239	0x0b	0.042385865
240	0x02	0.0077065206
241	0xeb	-0.08091847
242	0x16	0.08477173
243	0x04	0.015413041
244	0x36	0.20807606
245	0xe7	-0.09633151
246	0xed	-0.073211946
247	0xf2	-0.053945646
248	0xcf	-0.18880975
249	0x07	0.026972823
250	0x08	0.030826082
251	0xf1	-0.057798903
252	0x24	0.13871737
253	0x2e	0.17724997
254	0x03	0.011559781
255	0xe9	-0.088624984

arith.constant4 i1 [32, 32] scale=0.004396297 zero_point=0
0	0xef	-0.07473705
1	0x21	0.1450778
2	0x08	0.035170376
3	0xd0	-0.21102226
4	0x1e	0.13188891
5	0xee	-0.07913335
6	0xea	-0.096718535
7	0xd5	-0.18904078
8	0x25	0.16266298
9	0x09	0.039566673
10	0x22	0.1494741
11	0x37	0.24179634
12	0xfc	-0.017585188
13	0x00	0.0
14	0xe2	-0.13188891
15	0x13	0.08352964
16	0x42	0.2901556
17	0x06	0.026377782
18	0x29	0.18024817
19	0xf0	-0.07034075
20	0x02	0.008792594
21	0xeb	-0.09232224
22	0x35	0.23300374
23	0x38	0.24619263
24	0xd4	-0.19343707
25	0xef	-0.07473705
26	0x0a	0.04396297
27	0x0f	0.065944456
28	0x15	0.09232224
29	0x00	0.0
30	0x17	0.10111483
31	0x1b	0.11870002
32	0xda	-0.16705929
33	0x2a	0.18464448
34	0xcb	-0.23300374
35	0x25	0.16266298
36	0x10	0.07034075
37	0xc6	-0.2549852
38	0x05	0.021981485
39	0xaf	-0.35610005
40	0xee	-0.07913335
41	0x0c	0.052755564
42	0x16	0.096718535
43	0x73	0.50557417
44	0xe0	-0.1406815
45	0xc3	-0.2681741
46	0x38	0.24619263
47	0x07	0.03077408
48	0x0d	0.05715186
49	0x3a	0.2549852
50	0xe8	-0.10551113
51	0x6b	0.4704038
52	0xd0	-0.21102226
53	0x26	0.16705929
54	0x0b	0.048359267
55	0x27	0.17145559
56	0xc9	-0.24179634
57	0xe3	-0.1274926
58	0x2d	0.19783336
59	0x25	0.16266298
60	0x0c	0.052755564
61	0x05	0.021981485
62	0x03	0.013188891
63	0x2e	0.20222966
64	0x0c	0.052755564
65	0x06	0.026377782
66	0x0a	0.04396297
67	0xd8	-0.17585188
68	0x00	0.0
69	0x06	0.026377782
70	0xd6	-0.18464448
71	0x0e	0.06154816
72	0xee	-0.07913335
73	0xfd	-0.013188891
74	0x02	0.008792594
75	0x0b	0.048359267
76	0xe6	-0.11430372
77	0xfd	-0.013188891
78	0xe1	-0.13628522
79	0xec	-0.08792594
80	0x1b	0.11870002
81	0x26	0.16705929
82	0x28	0.17585188
83	0x1c	0.12309632
84	0x0b	0.048359267
85	0xf0	-0.07034075
86	0x1b	0.11870002
87	0xe0	-0.1406815
88	0xc7	-0.25058892
89	0xe7	-0.109907426
90	0xea	-0.096718535
91	0x0b	0.048359267
92	0x00	0.0
93	0xdc	-0.1582667
94	0xfb	-0.021981485
95	0x24	0.1582667
96	0xd3	-0.19783336
97	0xc7	-0.25058892
98	0xee	-0.07913335
99	0xf0	-0.07034075
100	0x24	0.1582667
101	0xcf	-0.21541855
102	0x06	0.026377782
103	0xee	-0.07913335
104	0xf4	-0.052755564
105	0x00	0.0
106	0xd9	-0.17145559
107	0x07	0.03077408
108	0x35	0.23300374
109	0xc9	-0.24179634
110	0x09	0.039566673
111	0x0f	0.065944456
112	0xfa	-0.026377782
113	0x17	0.10111483
114	0xf7	-0.039566673
115	0x22	0.1494741
116	0x07	0.03077408
117	0x14	0.08792594
118	0xe6	-0.11430372
119	0x09	0.039566673
120	0xbf	-0.2857593
121	0xf3	-0.05715186
122	0x2f	0.20662597
123	0x19	0.109907426
124	0x5f	0.41764823
125	0x16	0.096718535
126	0x2e	0.20222966
127	0x15	0.09232224
128	0x06	0.026377782
129	0xe4	-0.12309632
130	0xd1	-0.20662597
131	0x0f	0.065944456
132	0x04	0.017585188
133	0xf3	-0.05715186
134	0x05	0.021981485
135	0xed	-0.08352964
136	0xf1	-0.065944456
137	0x22	0.1494741
138	0x09	0.039566673
139	0x33	0.22421116
140	0x0d	0.05715186
141	0xed	-0.08352964
142	0x1f	0.13628522
143	0xf6	-0.04396297
144	0xec	-0.08792594
145	0xee	-0.07913335
146	0xe3	-0.1274926
147	0xfc	-0.017585188
148	0x0e	0.06154816
149	0x29	0.18024817
150	0xea	-0.096718535
151	0x0d	0.05715186
152	0x2a	0.18464448
153	0xfd	-0.013188891
154	0x34	0.22860745
155	0x0b	0.048359267
156	0x1c	0.12309632
157	0xe8	-0.10551113
158	0x35	0.23300374
159	0xee	-0.07913335
160	0xf1	-0.065944456
161	0xd4	-0.19343707
162	0x27	0.17145559
163	0xff	-0.004396297
164	0xe9	-0.10111483
165	0x1b	0.11870002
166	0x13	0.08352964
167	0xfe	-0.008792594
168	0x15	0.09232224
169	0xe7	-0.109907426
170	0xe1	-0.13628522
171	0xfd	-0.013188891
172	0x23	0.1538704
173	0xe0	-0.1406815
174	0xdf	-0.1450778
175	0x1a	0.11430372
176	0x36	0.23740004
177	0x0f	0.065944456
178	0x0f	0.065944456
179	0xf6	-0.04396297
180	0xe2	-0.13188891
181	0xf6	-0.04396297
182	0x23	0.1538704
183	0x05	0.021981485
184	0x13	0.08352964
185	0x2a	0.18464448
186	0xea	-0.096718535
187	0xe1	-0.13628522
188	0xe6	-0.11430372
189	0xed	-0.08352964
190	0xf9	-0.03077408
191	0x41	0.2857593
192	0x1f	0.13628522
193	0x21	0.1450778
194	0x1f	0.13628522
195	0x02	0.008792594
196	0xe7	-0.109907426
197	0x27	0.17145559
198	0xea	-0.096718535
199	0x33	0.22421116
200	0xd8	-0.17585188
201	0xc4	-0.26377782
202	0xee	-0.07913335
203	0x02	0.008792594
204	0x18	0.10551113
205	0x2e	0.20222966
206	0xe3	-0.1274926
207	0x36	0.23740004
208	0x2f	0.20662597
209	0x04	0.017585188
210	0x16	0.096718535
211	0xee	-0.07913335
212	0xee	-0.07913335
213	0x37	0.24179634
214	0xda	-0.16705929
215	0x29	0.18024817
216	0xc9	-0.24179634
217	0x44	0.2989482
218	0xd4	-0.19343707
219	0xd6	-0.18464448
220	0x27	0.17145559
221	0x13	0.08352964
222	0xf4	-0.052755564
223	0x37	0.24179634
224	0x1e	0.13188891
225	0xfc	-0.017585188
226	0xe7	-0.109907426
227	0xf3	-0.05715186
228	0xf4	-0.052755564
229	0xe9	-0.10111483
230	0x23	0.1538704
231	0x11	0.07473705
232	0x24	0.1582667
233	0xfc	-0.017585188
234	0xd8	-0.17585188
235	0xf8	-0.035170376
236	0xff	-0.004396297
237	0xf0	-0.07034075
238	0xdd	-0.1538704
239	0x28	0.17585188
240	0x27	0.17145559
241	0x03	0.013188891
242	0x1a	0.11430372
243	0xd6	-0.18464448
244	0xcc	-0.22860745
245	0xf1	-0.065944456
246	0x3d	0.2681741
247	0x0f	0.065944456
248	0xf4	-0.052755564
249	0xea	-0.096718535
250	0x03	0.013188891
251	0x25	0.16266298
252	0x08	0.035170376
253	0xff	-0.004396297
254	0xf9	-0.03077408
255	0x3e	0.27257043

arith.constant3 i1 [32, 32] scale=0.003295811 zero_point=0
0	0x12	0.059324596
1	0x0d	0.04284554
2	0x15	0.06921203
3	0x02	0.006591622
4	0x15	0.06921203
5	0x32	0.16479054
6	0x3d	0.20104447
7	0x27	0.12853663
8	0x1a	0.08569108
9	0xed	-0.06262041
10	0xf5	-0.03625392
11	0xf6	-0.03295811
12	0xe7	-0.08239527
13	0xf9	-0.023070676
14	0xfd	-0.009887433
15	0x05	0.016479054
16	0x54	0.2768481
17	0x1e	0.09887433
18	0x53	0.2735523
19	0xf1	-0.049437165
20	0xb1	-0.26036906
21	0xea	-0.07250784
22	0x4d	0.25377744
23	0x08	0.026366487
24	0x03	0.009887433
25	0x25	0.121945
26	0xf6	-0.03295811
27	0x3a	0.19115703
28	0x05	0.016479054
29	0x15	0.06921203
30	0xed	-0.06262041
31	0x2f	0.15490311
32	0xff	-0.003295811
33	0x42	0.21752352
34	0xb1	-0.26036906
35	0x10	0.052732974
36	0x2f	0.15490311
37	0xcc	-0.17138216
38	0xda	-0.12524082
39	0xfc	-0.013183244
40	0x2d	0.1483115
41	0x74	0.38231406
42	0xf4	-0.03954973
43	0x0f	0.049437165
44	0xf8	-0.026366487
45	0xd6	-0.13842405
46	0x2e	0.1516073
47	0xa0	-0.31639785
48	0xdf	-0.10876176
49	0x48	0.23729838
50	0xf8	-0.026366487
51	0xd1	-0.15490311
52	0x0d	0.04284554
53	0x0b	0.03625392
54	0x17	0.07580365
55	0xff	-0.003295811
56	0x00	0.0
57	0x24	0.11864919
58	0x27	0.12853663
59	0x14	0.06591622
60	0x06	0.019774865
61	0xe8	-0.07909946
62	0xc7	-0.18786122
63	0x64	0.32958108
64	0xd1	-0.15490311
65	0xf7	-0.029662298
66	0xd8	-0.13183244
67	0x60	0.31639785
68	0xf9	-0.023070676
69	0xe2	-0.09887433
70	0xdb	-0.121945
71	0xd9	-0.12853663
72	0xdf	-0.10876176
73	0xf1	-0.049437165
74	0x38	0.18456541
75	0x26	0.12524082
76	0x0e	0.046141353
77	0x19	0.08239527
78	0x6b	0.35265177
79	0x4f	0.26036906
80	0xed	-0.06262041
81	0x3b	0.19445284
82	0xe9	-0.07580365
83	0xf1	-0.049437165
84	0x08	0.026366487
85	0x3c	0.19774866
86	0x1c	0.092282705
87	0xfa	-0.019774865
88	0xf1	-0.049437165
89	0xdf	-0.10876176
90	0x33	0.16808635
91	0x22	0.11205757
92	0xd8	-0.13183244
93	0x0e	0.046141353
94	0x26	0.12524082
95	0xfd	-0.009887433
96	0x26	0.12524082
97	0x62	0.32298946
98	0x14	0.06591622
99	0xe4	-0.092282705
100	0x17	0.07580365
101	0x3a	0.19115703
102	0xfb	-0.016479054
103	0xea	-0.07250784
104	0x3d	0.20104447
105	0xe6	-0.08569108
106	0xf7	-0.029662298
107	0x3a	0.19115703
108	0x1f	0.10217014
109	0xf8	-0.026366487
110	0x51	0.26696068
111	0x41	0.2142277
112	0x1b	0.088986896
113	0x4c	0.25048164
114	0x10	0.052732974
115	0x65	0.3328769
116	0x04	0.013183244
117	0xf4	-0.03954973
118	0x27	0.12853663
119	0x3a	0.19115703
120	0xdd	-0.11535338
121	0xd5	-0.14171986
122	0x05	0.016479054
123	0xf9	-0.023070676
124	0x04	0.013183244
125	0xf7	-0.029662298
126	0xbb	-0.22741096
127	0x26	0.12524082
128	0xea	-0.07250784
129	0x07	0.023070676
130	0xdf	-0.10876176
131	0x28	0.13183244
132	0xe2	-0.09887433
133	0xea	-0.07250784
134	0x09	0.029662298
135	0xed	-0.06262041
136	0xe7	-0.08239527
137	0x0c	0.03954973
138	0xe5	-0.088986896
139	0xd5	-0.14171986
140	0xee	-0.059324596
141	0xe9	-0.07580365
142	0x55	0.28014392
143	0xf7	-0.029662298
144	0x0a	0.03295811
145	0x49	0.2405942
146	0x26	0.12524082
147	0x13	0.06262041
148	0xb2	-0.25707325
149	0x1b	0.088986896
150	0x4d	0.25377744
151	0xfa	-0.019774865
152	0x0d	0.04284554
153	0x15	0.06921203
154	0xfa	-0.019774865
155	0xf2	-0.046141353
156	0xfa	-0.019774865
157	0xea	-0.07250784
158	0xf0	-0.052732974
159	0x1a	0.08569108
160	0x18	0.07909946
161	0x03	0.009887433
162	0xef	-0.056028783
163	0x14	0.06591622
164	0xe4	-0.092282705
165	0xfe	-0.006591622
166	0x0a	0.03295811
167	0x20	0.10546595
168	0xfa	-0.019774865
169	0xfe	-0.006591622
170	0x18	0.07909946
171	0x0c	0.03954973
172	0xec	-0.06591622
173	0xe4	-0.092282705
174	0x1a	0.08569108
175	0x2a	0.13842405
176	0xea	-0.07250784
177	0x3a	0.19115703
178	0x37	0.1812696
179	0x17	0.07580365
180	0xcd	-0.16808635
181	0x4a	0.24389
182	0x29	0.13512824
183	0xe3	-0.095578514
184	0xfc	-0.013183244
185	0xdf	-0.10876176
186	0x09	0.029662298
187	0x19	0.08239527
188	0xe5	-0.088986896
189	0xe0	-0.10546595
190	0xd8	-0.13183244
191	0x1b	0.088986896
192	0x16	0.07250784
193	0x12	0.059324596
194	0xe5	-0.088986896
195	0x34	0.17138216
196	0x1a	0.08569108
197	0x34	0.17138216
198	0x3a	0.19115703
199	0xec	-0.06591622
200	0x00	0.0
201	0x15	0.06921203
202	0x11	0.056028783
203	0x0a	0.03295811
204	0xf5	-0.03625392
205	0x04	0.013183244
206	0x01	0.003295811
207	0xfe	-0.006591622
208	0xda	-0.12524082
209	0xf7	-0.029662298
210	0x06	0.019774865
211	0xf9	-0.023070676
212	0xd2	-0.1516073
213	0x49	0.2405942
214	0x6d	0.3592434
215	0xe8	-0.07909946
216	0xdf	-0.10876176
217	0x2b	0.14171986
218	0x2e	0.1516073
219	0x0a	0.03295811
220	0x3e	0.20434028
221	0x3e	0.20434028
222	0x00	0.0
223	0xe6	-0.08569108
224	0x25	0.121945
225	0x3b	0.19445284
226	0x06	0.019774865
227	0xe7	-0.08239527
228	0xe6	-0.08569108
229	0xdd	-0.11535338
230	0xe5	-0.088986896
231	0x28	0.13183244
232	0x21	0.10876176
233	0xd1	-0.15490311
234	0xa3	-0.30651042
235	0x0d	0.04284554
236	0xf5	-0.03625392
237	0x15	0.06921203
238	0xbc	-0.22411513
239	0xbb	-0.22741096
240	0x34	0.17138216
241	0x26	0.12524082
242	0x19	0.08239527
243	0xd8	-0.13183244
244	0x48	0.23729838
245	0xdf	-0.10876176
246	0x04	0.013183244
247	0xae	-0.2702565
248	0xd4	-0.14501569
249	0x21	0.10876176
250	0x35	0.17467798
251	0xf1	-0.049437165
252	0x44	0.22411513
253	0xd0	-0.15819892
254	0xf5	-0.03625392
255	0x20	0.10546595
